saved_models/cifar10_cnn.pt (torch, 684229 bytes, 10 tensors)

feature_extractor.weight f4 [4, 1, 2, 2]
00000000: 9425 1fbf 4f59 643e 2054 10bf f6a6 9c3d
00000010: cd12 a13e 27c1 a93e 06d5 b93d f0cd ccbe
00000020: 09c5 4c3f 538a af3e 5d19 8b3e 74b8 e8be
00000030: 1bb7 6dbe 948f 6d3e ce2c 4a3f 886b 273f
-0.62166715 0.22299694 -0.56378365 0.07649033 0.31459656 0.33155176 0.09073834 -0.40000868
0.7998815 0.3428522 0.27167788 -0.45453227 -0.2321438 0.23199302 0.78974617 0.65398455

feature_extractor.bias f4 [4]
00000000: 229d e23e 274f 05be 38fe 243e bad0 0bbf
0.44260508 -0.13018475 0.16112602 -0.54615366

conv1.weight f4 [32, 4, 3, 3]
00000000: b77e 9c3e 99c1 933c 487f dbbd b3b0 243e
00000010: 6f31 2b3e 765a fa3c f94f 27bd 1773 77be
00000020: cf8c 90bd 2160 3f3e 7c01 9b3c 5e33 2cbe
00000030: 3e54 1e3c 3e33 75bd f06c 3f3e 98b0 20be
00000040: 50e3 c0be 738a 11be 605b 3a3e 4ca4 d33d
00000050: daef 1e3e f885 4fbc 4a04 debd a0e4 db3d
00000060: 955d f2bd 2d33 1dbe a509 9abe 72cd 8f3d
00000070: bb60 f53d 8322 df3b e930 aabd 0c0d 9fbe
00000080: 934a 023e c686 e13e 015a 373e 4b2b 16be
00000090: 3e1e 9d3d 227c 6b3c dba7 23be ade5 9d3d
000000a0: 7fd9 933d ec50 a1bd 4951 433e a9a0 193e
000000b0: 8f7c 393e 289f dabd f7ae 4bbc ae28 3cbe
000000c0: 273a 113e 3f0c 003e 48f6 e6bc 1ed3 7b3b
000000d0: 01ac f8bd a898 023e 981d 3bbe d3c9 99bd
000000e0: 6bac bb3d 5fa8 053d ef4a 183d 1e96 833d
000000f0: a541 833d 01e1 993d d098 563b e1ad 0c3e
00000100: 315a ce3d 0171 7f3e 1177 aa3b 8e1f 693d
00000110: 5aed 4e3e 4b6b 00be 2977 62bd b0fd 213e
00000120: 7993 923d 2397 7dbe ec05 3c3f eb1f e43e
00000130: 52b3 50be 9eff 97be cc4f 84bd 306a 863e
00000140: 7ce6 0ebf 6876 1bbe d697 6dbe 31e7 bd3d
00000150: 2b5c 143e 8dcf 5c3e 1092 d4bc fd2e 63be
00000160: c5bb 753d 043f 7b3e c93c 703e 9af1 03be
00000170: c10a d43d b5fe c13b fd4f 403e 4245 c13d
00000180: 4f39 1bbe ae81 6abe 4f9d 23be 82da 9f3e
00000190: c07d 373e 231c 12bf 1a7b 2dbe 5e8d 0f3f
000001a0: 4c92 d3bd 4534 72bc 9616 11be 8c42 ad3d
000001b0: 9c6b eebd 1667 ef3d 57f6 003d 6dc2 9abe
000001c0: dfa1 99bc f5f0 843e 6afd 193e 6b38 10be
000001d0: 8125 40be d7e4 82be c922 4a3e 28b5 0ebe
000001e0: 3450 02be b882 113e 1e54 f9bb bb62 573c
000001f0: 8d04 ebbd b384 96bc 424a c6bd 0e69 e23d
00000200: 7344 f53d 3ac5 753d 50b1 dbbd 74b3 a9bd
00000210: b167 31be 5997 a7bd 4fd4 0c3e 0c5e 08be
00000220: 9017 903d 1036 d93d eea3 c23e 94c3 32be
00000230: baeb b0bd 845d bcbe 7a14 35bd 98ba 9f3e
00000240: 27d0 1f3d 7e09 7dbe 2b34 313e f9f3 08bd
00000250: 5d6e d63d d689 853d 2427 1fbd ecef 5fbd
00000260: 7d62 28bd e631 9dbd aba1 c33e 1f2b 053c
00000270: 6468 d8bd 4b35 9abe 3116 98be e50a 1c3e
00000280: aa44 c73e 2d89 c13e 01b2 763d db12 623e
00000290: 7721 30bd cbae 22be 8c5c 31be 7b4f a0bd
000002a0: 3b81 a2bd 15e3 5a3e 0ec2 ef3d f6b8 67bd
000002b0: f80c 4fbe 5f3f 0ebe 2534 58be 0030 20be
000002c0: bf6e 553d fd76 683d 443d 5e3e 63f6 7e3e
000002d0: 10f8 523e 8aa8 7bbd 84d7 883d a5d1 1c3e
000002e0: c212 b2be 01ff 9fbd fbbe 5c3e e3e3 b3be
000002f0: e91a 423d d9c7 abbe da7c a4bd 80b6 9cbd
00000300: 92f8 6cbe 9092 0a3c 2c05 32bc ab48 0abf
00000310: f69c 6f3e 8f8a 2bbe 788c 27be 341c a3bc
00000320: ace3 03be e7b0 00bd 1b49 f4bc 7da5 84bd
00000330: 7bcc 8bbd 498c 103e fe33 16be b8ad 54bd
00000340: 03af 553e c4e7 5cbe 6bdc 3bbe f0cd 9b3e
00000350: 3a27 b3be 7a7a adbe 7272 a43e f1e2 87bd
00000360: 637c 96bd 2a3e 4ebe 3e58 62be e9b1 143e
00000370: ab86 843c 892d 563c ac61 0bbe ffcc 1a3c
00000380: 084b 34bd 7caa 373e cfc8 723e ed03 093e
00000390: fcc7 70be cdae a83c 88cb 3b3d b1eb a0bd
000003a0: 3948 3fbe 1a3f f73c 879e 2d3e c72c bd3d
000003b0: 10dd 4c3d 646c 27bc 5fce 38be 4979 12be
000003c0: 158f bcbd 384a 87bd 26f0 00be 69a4 b9bd
000003d0: f3e3 9b3d bf8e c63d b21d e1bd 5399 fc3d
000003e0: ba86 4a3e 82eb 33bb 18fa 23be 9adb 6e3d
000003f0: 998a 193d 3e1b 7a3d cb60 ed3d e44b 133d
0.30565426 0.01803665 -0.10717636 0.1608303 0.16718076 0.030560713 -0.040847752 -0.24164997
-0.07058107 0.18689014 0.018921606 -0.1681647 0.00966364 -0.05986332 0.186939 -0.15692365
-0.37673426 -0.1421297 0.1819892 0.103340715 0.15521184 -0.012666218 -0.10840662 0.10736966
-0.118342556 -0.15351553 -0.30085483 0.070216075 0.119813405 0.006809534 -0.0831011 -0.3106464
0.1272376 0.44048136 0.17905428 -0.14664952 0.07671784 0.014372857 -0.15982 0.07709823
0.072192185 -0.07876763 0.19073977 0.15002693 0.18113922 -0.10674888 -0.012431852 -0.18374893
0.1418234 0.12504672 -0.028193608 0.0038425396 -0.12142182 0.12753546 -0.18273008 -0.07509198
0.091637455 0.032631274 0.037180837 0.06425117 0.06409005 0.07513619 0.0032744892 0.13738205
0.100757964 0.24945451 0.005202182 0.05691486 0.2020773 -0.12540929 -0.05528942 0.1581943
0.071570344 -0.24764685 0.73446536 0.445556 -0.20380905 -0.29687208 -0.064605325 0.2625289
-0.5582044 -0.15181887 -0.23202452 0.09272612 0.14488284 0.2156355 -0.025948554 -0.22185893
0.059993524 0.24535757 0.23460688 -0.12885132 0.10353614 0.005920256 0.18780513 0.09437038
-0.1515858 -0.22901031 -0.15977977 0.31221396 0.17919064 -0.57074183 -0.16941491 0.56075084
-0.10330638 -0.01478297 -0.14168772 0.084599584 -0.116416186 0.11689584 0.031484928 -0.3022646
-0.018753944 0.25965086 0.15038076 -0.14084022 -0.18764307 -0.25565216 0.19739832 -0.13936293
-0.12725908 0.14210021 -0.0076089045 0.013146098 -0.11475477 -0.018373823 -0.09682132 0.11055194
0.11975946 0.060002543 -0.10727179 -0.08286181 -0.17324711 -0.08183164 0.13752864 -0.13317126
0.07035744 0.10606015 0.38015693 -0.1745742 -0.08638711 -0.36790097 -0.04420898 0.31197047
0.03901687 -0.24710652 0.17305057 -0.033435795 0.10470269 0.06520431 -0.038855687 -0.054672167
-0.04110955 -0.07675533 0.3820928 0.008127957 -0.10566786 -0.30118784 -0.2970443 0.15238531
0.38919574 0.3779997 0.06022835 0.22077505 -0.043000665 -0.1588699 -0.1732046 -0.0782766
-0.07934805 0.21375687 0.11706935 -0.056572877 -0.20219791 -0.13891362 -0.21113642 -0.1564331
0.05210757 0.0567541 0.21703058 0.24898677 0.20602441 -0.06144003 0.06681731 0.15314348
-0.34779936 -0.0781231 0.21557228 -0.351348 0.047388945 -0.3355091 -0.08031626 -0.076519966
-0.23141697 0.008457795 -0.010865491 -0.5401713 0.2339972 -0.16752075 -0.16362178 -0.01991091
-0.12879819 -0.031418707 -0.029820016 -0.06476877 -0.06826111 0.14116015 -0.14668271 -0.051923484
0.20867543 -0.21572787 -0.18345802 0.30430555 -0.34990865 -0.33882505 0.32118565 -0.066350825
-0.07347944 -0.20140901 -0.22103974 0.14520992 0.016177496 0.01307238 -0.13611478 0.009448289
-0.044016868 0.17936128 0.23709415 0.13380404 -0.23513788 0.020591164 0.0458484 -0.078574546
-0.18679895 0.030181456 0.16955005 0.09237056 0.05001551 -0.010218713 -0.18047474 -0.14304079
-0.09206978 -0.06605953 -0.1259161 -0.09064562 0.07611837 0.096951954 -0.10991992 0.12333932
0.19777957 -0.0027453606 -0.16013372 0.058314897 0.037485693 0.061061136 0.115907274 0.035961047

conv1.bias f4 [32]
00000000: 9984 8e3c 2435 efbd ff34 c2bc 6281 463d
00000010: ddfc 4ebd 7406 13be 5601 ae3d ec81 bcbc
00000020: e9b6 d4bd d4fb 30bd 3226 183c 8bb9 37be
00000030: 6fef 1ebe be5b 15be a4ba 873d bf77 8bbc
00000040: 7c36 32be 9fbb c0bd 3c1f fdbb 379f 09be
00000050: 6294 0dbe b5b0 20bd 8b02 45be 0a3d 33bd
00000060: f7d1 963c 9417 6fbd b9b0 6dbc 7a5a 183d
00000070: af48 02bc 32b4 85be c422 3cbd 7b48 d03d
0.017397212 -0.11680058 -0.023706911 0.048463233 -0.050534118 -0.1435793 0.084963486 -0.02301117
-0.1038645 -0.043208912 0.00928645 -0.17941873 -0.15521024 -0.14585778 0.06627396 -0.017024873
-0.17403597 -0.09410786 -0.0077246707 -0.13439642 -0.13826135 -0.03923102 -0.19239251 -0.043759383
0.018410666 -0.058372095 -0.014507466 0.03719566 -0.007951899 -0.2611404 -0.045931593 0.101700746

conv2.weight f4 [64, 32, 3, 3]
00000000: 463c b73d 41e8 8a3d 232b 4ebc 41d7 21bd
00000010: 0adb 32be 4ff4 62be 25c7 ea3d 0497 14bd
00000020: dbf2 a2bd 6911 2b3b fa15 cdbd 52eb 2bbd
00000030: 6494 0c3d 7ad0 05bb ed47 25be 5d56 a03c
00000040: cb67 943c d275 c5bc 3edf 0ebe dcbc ab3c
00000050: 4675 913d 4973 e9bd d7f4 d43d 72a4 a7bd
00000060: 315c 2abe c48b 40bd 3c96 d1bd b53d 59bc
00000070: e462 87bd afd2 92bd e546 49bd cbf9 e3bd
00000080: b621 1dbe a425 8abd cf5e 3bbe a61c 9bbd
00000090: b931 193e 16f6 113e 54bd 19be 6c88 7fbc
000000a0: ddac 33be 7b4f e2bd 02a5 51bc a37f 93bd
000000b0: 4351 30be 4841 88bd c468 26bd 80f9 abbd
000000c0: 8a86 f53d d135 29bd e5c6 3cbe cc78 6cbd
000000d0: 9b6f f9bb 0826 02be 4e6b 2f3d a3fe 26b9
000000e0: 1fe9 173c e66c 073d 22e4 b73d b9b6 f6bd
000000f0: bd41 013d cc99 813d 0a4f 11be d773 3d3d
00000100: af6a 47be 09c9 073e 6d6f 343d 2d24 30be
00000110: 0000 d43d c7a4 883d f021 21be 8e32 903d
00000120: ef96 de3d fbaa f63c f0cf fb3d ddca 333e
00000130: 47d1 1d3d d840 1b3e 4620 333e 5ef4 873d
00000140: 21c9 6b3e a03c 9cbd 057e 9e3b cd12 a2bd
00000150: f9ff 55bc c00d 24bd 93fa b5bd 4b79 c5bd
00000160: ad57 a8bc 03fa 20bd 0d42 293d f04a 3e3e
00000170: 4359 6fbc 03c2 3d3e 928c 3b3e 6e75 1e3e
00000180: 5739 403e ec84 ad3c 65ac 623d 0136 743d
00000190: 6bfc ab3c 8f0a 263d 6040 323c 5ee4 493d
000001a0: 9dbe ad3c 048d 303d 00eb 513d 9607 51bd
000001b0: 10a4 d73d 7c8e f63b 04aa 32bd c85c ed3d
000001c0: 0de5 8ebd 11c2 2fbe 0815 2c3d 94bb 2a3d
000001d0: 0c07 41be b926 273d 7146 d6bc 4d93 933a
000001e0: 443f 6a3d daa4 db3c c1a0 1c3c b479 703d
000001f0: 63b5 8abc 5dc8 1d3d 49bd c7bd 1239 893d
00000200: 60e6 b43d a862 103c 3097 54bd 9ee4 0c3e
00000210: 5722 f03d 5430 1f3c 117d dc3d cef8 1d3b
00000220: 8ddd 31bb 13d7 bc3d b851 893b 19cf f83d
00000230: a67a 393e d4c4 1b3d ff9e 5abd 076e 043e
00000240: ad4a dc3d 97ec aa3c 864b fcbc de19 893d
00000250: 637e 6a3d e142 43be 9c94 37ba c7fd eabc
00000260: b024 62be d009 c13d 5977 9dbc efbf 173d
00000270: cffe e63d 03cd 00be 56e0 783b cea6 233a
00000280: e599 4cbd a5ef debd 3f52 4a3e 683e 733c
00000290: f3b8 bbbc fa8d 4c3d d56d 11be 4224 77be
000002a0: c3ac 533c ecd2 febd 9dc6 8bbe 800e f33c
000002b0: cf4b 9cbd 9062 793e 7b82 b23d 557f bcbd
000002c0: cdc5 823e a8a7 89bd 68a9 dfbd 566c 333e
000002d0: b3e3 82bc 974f 833d 6f0b 6dbd 21bb 9e3d
000002e0: 3db1 043d 6bb3 aebd 0f32 bebc 73e4 64bc
000002f0: 4211 15be 5a48 9d3d 7eee 84bd b5c8 0e3e
00000300: bf57 2f3e 6d7e 02bd 6575 953e bcdd c43c
00000310: c3e5 5ebd 48fb 0d3e 69dc 533d 5616 1dbc
00000320: 50f8 3c3d c54d 8abc a23d f33c 6793 1d3c
00000330: 6dcd eebd da2b 823c 972f e03c 446a 013c
00000340: 1e4f 833d 615e 60bd 20bf 3a3c 0228 6f3d
00000350: 2b52 09be 3c95 0d3d d4be 333d d2bc abbd
00000360: 46dc 0f3e 1c9f 083c 26af 32bd d414 17be
00000370: 0937 4fbe 8ed9 31bd c920 9b3c ab52 08be
00000380: e4b4 dd3b f223 64bd fa90 0d3e 07ff 9d3c
00000390: f5ae fbbc d961 003e a165 d73c 3b8e 50be
000003a0: 8884 c4bc 3ccf d33b 48cc 493c 381d 343e
000003b0: eb1a 623d f9f5 4f3c d0e0 933e aedc c43d
000003c0: a718 bebd 2729 693e 2a03 153e 3250 95ba
000003d0: c28e b73d 9f30 4fbe 50a5 243d 90d6 8f3d
000003e0: 7a8c f7bd 8de5 c13d b730 433d 9816 59bd
000003f0: f01f a6bd 844b 4fbc c4d7 eebc b323 4fbe
0.08947043 0.0678258 -0.012583527 -0.039511923 -0.1746637 -0.22163509 0.11463765 -0.036276832
-0.07956477 0.0026102907 -0.10013957 -0.041972466 0.034321204 -0.0020418451 -0.16140719 0.019572431
0.018115899 -0.024104033 -0.13952348 0.020964079 0.07102446 -0.11398942 0.10398262 -0.08185662
-0.1663673 -0.04700829 -0.10233733 -0.013259341 -0.06610659 -0.07169091 -0.049139876 -0.111316286
-0.15344891 -0.06745461 -0.18297885 -0.07573824 0.14960374 0.1425403 -0.15013629 -0.01559649
-0.17546411 -0.11050316 -0.012795689 -0.07202079 -0.17218499 -0.066530764 -0.040627256 -0.08397198
0.11988552 -0.04131109 -0.18435247 -0.05773239 -0.0076121814 -0.1270982 0.042826943 -0.00015925853
0.009271889 0.033062838 0.0897906 -0.1204657 0.031556834 0.063281626 -0.14190307 0.04625305
-0.1947429 0.13260283 0.044051576 -0.172013 0.103515625 0.06672054 -0.15735602 0.070408925
0.10868632 0.030110827 0.1229552 0.17557855 0.03852966 0.15161455 0.1749278 0.06638406
0.23025943 -0.07628751 0.0048368 -0.07913742 -0.013061517 -0.040052176 -0.08885684 -0.096422754
-0.02054962 -0.03930093 0.041322757 0.18583274 -0.014608684 0.18531041 0.18315342 0.15474483
0.18771873 0.021181546 0.05534019 0.059621815 0.020994386 0.040537413 0.010879606 0.049290054
0.021209056 0.043103233 0.051249504 -0.051032625 0.10529339 0.0075243097 -0.04361917 0.11589962
-0.06977282 -0.17163874 0.042012244 0.041682795 -0.18850344 0.040808413 -0.026156636 0.0011259109
0.05718924 0.026812006 0.009559811 0.058709815 -0.016932195 0.03852116 -0.097529 0.067003384
0.08833003 0.008812584 -0.051901996 0.13759086 0.117253 0.009716112 0.10766042 0.0024104598
-0.0027140111 0.0922071 0.00419065 0.12148876 0.18113193 0.038029507 -0.053374287 0.12932597
0.10756431 0.020864768 -0.030797731 0.06694387 0.057249438 -0.19068481 -0.00070030405 -0.028685464
-0.22084308 0.094257 -0.019221948 0.037048277 0.1127907 -0.12578206 0.0037975512 0.00062428124
-0.049951453 -0.10885552 0.19757937 0.014846422 -0.02291534 0.049940087 -0.14202054 -0.24134925
0.012919608 -0.12442574 -0.27299967 0.02967 -0.07631647 0.24354005 0.087162934 -0.09203974
0.25541535 -0.06721431 -0.109209836 0.17521796 -0.015977716 0.06411665 -0.057872232 0.07750536
0.03239559 -0.08530315 -0.02321723 -0.013970482 -0.14557365 0.076798156 -0.06490801 0.13943751
0.17123316 -0.03185885 0.29191127 0.024031512 -0.054418337 0.13865387 0.05172387 -0.009587845
0.046135247 -0.016882787 0.029692475 0.009617663 -0.116602756 0.01589005 0.027366443 0.007898871
0.06411575 -0.054777507 0.011398107 0.058387764 -0.13410251 0.03456615 0.04388316 -0.08385624
0.14048871 0.008338716 -0.043624066 -0.14754039 -0.20235838 -0.043420367 0.018936532 -0.13312785
0.0067659486 -0.055698343 0.13824835 0.019286646 -0.030723074 0.12537326 0.026293578 -0.20366757
-0.023988977 0.0064639132 0.012316771 0.17589271 0.055201452 0.012692922 0.28882456 0.09612404
-0.09282046 0.22769605 0.14551988 -0.0011391698 0.08962776 -0.20233391 0.040196717 0.070233464
-0.12087341 0.094676115 0.04765388 -0.053000063 -0.0811156 -0.012652282 -0.02915562 -0.20228462

conv2.bias f4 [64]
00000000: 3286 09be 2188 cfbd 008f 44bd fdb2 68bd
00000010: dc0d 32bd d4f0 24bd 4edb 213c bfd3 a8bd
00000020: 9db5 983a 2115 7a3d f15b c33c d1fa 033d
00000030: bcce 19be 920d 293e 96d2 cfbd d1e3 b4bc
00000040: 7219 a93c 3ad7 31bc acc4 73bd b987 873d
00000050: 3a8d b23d 5a12 993d 34ca 053d d2f2 b7bc
00000060: 5948 28bd d9d5 41bd b933 6e3e e836 19bc
00000070: ca39 f73d 3e8c 41bc fb34 18bd be1f 86bc
00000080: 598d 71be 4a23 d13d 8c34 b3bb 08ef 953c
00000090: 521d 24bd a5ab 4fbd 6c30 8dbd 3a33 10bd
000000a0: 0821 573d 1b11 1d3c a8cb 54bd 63e3 d0bd
000000b0: 0f4e 44bd eed0 9e3e 35fc 393d 2fc3 bbbc
000000c0: 50a4 1dbd 87c9 0c3e 0afd 07bd 55b0 be3b
000000d0: 7a6d 9f3c 91b3 a83d fe59 3e3d 5b1f 34bc
000000e0: 676a c9bc 960e e33b e655 6ebd 9c43 dc3c
000000f0: 69cb 58bd 3e7d daba 707a 603e ad32 6d3d
-0.13430098 -0.101333864 -0.047987938 -0.05681132 -0.04347025 -0.040268734 0.0098789465 -0.08243512
0.0011650805 0.061055306 0.023847552 0.03222162 -0.15020269 0.16509083 -0.10147588 -0.022081288
0.020642016 -0.010854537 -0.059513733 0.06617684 0.08718343 0.074742034 0.03266354 -0.022454653
-0.04108462 -0.04732308 0.23261918 -0.00935147 0.12071569 -0.0118132215 -0.0371599 -0.016372558
-0.23589076 0.10211809 -0.0054689106 0.018302456 -0.040067025 -0.050700802 -0.06894001 -0.035205103
0.052521735 0.009586598 -0.051952034 -0.101996206 -0.047926005 0.31018776 0.04540654 -0.02292022
-0.03848678 0.13748752 -0.0332003 0.0058193603 0.019461382 0.082373746 0.046472542 -0.010993804
-0.02458687 0.006929229 -0.058187388 0.026887707 -0.052928362 -0.0016669405 0.21921706 0.057909656

fc1.weight f4 [256, 576]
00000000: d6ed f63c 13fd 893c 56b7 2dbb ac53 12bc
00000010: 3229 6cb9 e86e b93c 6922 f83c f1f5 66bc
00000020: a8f7 3bbd 5d72 3a3c 5479 703c 6126 ecbb
00000030: 258d c43c 895c 5f3c 5059 02bd 7031 0f3d
00000040: df7f 28bd dfa0 05bc f29b 0fbd 65cd 883c
00000050: 21f3 a7bc 60b0 373c 0f00 34bc 2935 73bc
00000060: 8bd1 163d b190 9ebc 7fff 203d 9b9c 0dbd
00000070: 06d0 72bd 7f4e 6dbd 5e1a fbbb a33b bbbc
00000080: 1e91 04bd 565d be3b d3c7 00bd 42d1 07bd
00000090: abfa e83b d328 d5bc de37 ecbc 4090 68bb
000000a0: 46b1 93bc 8b27 11bc 5b06 953c a624 d93c
000000b0: ebb5 203c 9d54 f1bc abb1 3f3c ee13 913c
000000c0: df4a cabc c7c9 f53c 99a1 043c 9e7b 39bd
000000d0: 407a 043c b08c 593c 8ab7 3fbd 0d35 13bd
000000e0: edb1 0e3c e93f 0c3c fc10 fc3c 4c96 a4bc
000000f0: f6de d43c 307b 913b 20a8 983b 6573 e0bc
00000100: bb4c 15bd cc40 68bd effa 57bb 5bb0 fa3b
00000110: e0b7 1dbc b624 35bc 9333 a53c 13c4 5ebd
00000120: 3636 06bd 3425 6dbc 404e 4b3c 8350 003d
00000130: 8658 113d 18bf 673a 54cc 7d3c ed01 013d
00000140: 44a7 513c 542e 2ebc 7c50 d3bc d747 adbc
00000150: 24e6 f93c 6664 4cbd 6e59 36bb 2b5f c4ba
00000160: c6c1 84bc c617 0fbd 1a7e 1bbd 049b d3bb
00000170: ad2e 01bd adfc 4f3c aaf2 12bd 6115 68bc
00000180: 9df5 39bc 70a1 393c 3970 cc3c 4221 e93c
00000190: 35f6 53bc 4e4e 41bd 53b1 89bc d5f4 4e3a
000001a0: 5b36 183c 621c 003d 942f 3abd 78ac aebc
000001b0: cab1 883b c23d c2bb 589a 3abd 5fe3 25bc
000001c0: 0e74 ac3a ae28 a3bc 4f14 d0bc 1d45 0cbc
000001d0: 2bc1 34bd c42f 67bd ac27 c23b 5d82 3b3a
000001e0: 1c41 1dbd 5058 d1ba 7d94 d0bc 2e9b f43c
000001f0: 5c82 f1bc 0a09 cf3c c4b2 db3c 9961 82bc
00000200: 0a42 12bc e37e 85bb f48b 383b 3ef7 f2bc
00000210: e89d a9bb 3f64 fdbc 8faf 31bb 7b2e b7bc
00000220: 8648 b53c 6bf0 05bc cf4c 263d d091 803c
00000230: 4c62 1fbd f60f d53b 705e 843c 5b59 ddbc
00000240: b32b 833a 2c27 36bc cf6f 83bd a9af f1bc
00000250: 6e0a 06bc 455e 9539 d527 46bd 2c02 18bd
00000260: 264f 44bd 4c53 61bc 260c 00bd b546 3cbd
00000270: 5df0 b8bc c6d9 a1bc d39c a7bc 032b 0c3b
00000280: 040e e0bc 3b16 cebc 3c0a 1bbc 3142 283c
00000290: eafa f5bc 0aba a13a 00d0 30bd 1e7e e83c
000002a0: 20c6 2e3b c1fd b9bc 7bab 57bd b95f a73b
000002b0: 77e0 0e3c 8f41 dd3b 3c38 12bd 45e5 de39
000002c0: 6197 2fbd ab70 fdbc 2013 59bd 7d00 063b
000002d0: c1c2 bbbc 6bbd c53b 2115 6dbc 4275 1dbc
000002e0: a0c5 f2bb 69d4 1dbd 5621 42bd 90e7 f83b
000002f0: 6ce0 c6bb 8e13 d9bb 63be c6bb 5011 a2bb
00000300: d374 963c aff6 8dbc 690f a1bc efd5 26bd
00000310: 14af 2fbb a8ba 973c 642e f5bc 4939 afbc
00000320: 51ff 2abd 2bf8 8a3c 9969 34bd fd20 a33b
00000330: 1618 08bd f95b 1fbd 8647 803c a673 183c
00000340: 8e82 9e3c 90c0 47bc 6a8a 16bd 8bf6 d73b
00000350: 18cd 843c b65f 143d 2e85 bcbc eff4 243d
00000360: fdc0 443d 657d 9cbc 247c e6bc 1f1f 843c
00000370: 4435 a2bb 328e 10bd 880c 6cbd 82e5 23bd
00000380: 2fd9 30bd 9bf0 74bb 2572 29bd 6811 a13c
00000390: 7825 d8bc 2d40 993b 106b 3bbd 8982 873c
000003a0: e86e 17bc e8af 243c fe9f 3f3a 10c2 4ebd
000003b0: 7fbc ab3c 2dce 90bc 94a7 01bd 0519 af3c
000003c0: a97d 0cbd 2f3b fb3b cb1b 28bd 8a24 21bd
000003d0: ea99 553c 4e04 c03b ea55 333d 9780 d13c
000003e0: 1920 f2bc 137a 253d b641 323d eac6 ea3b
000003f0: 57c6 563b df46 5b3c d531 36bd 65db 973c
0.030142706 0.016844308 -0.0026506982 -0.008931082 -0.0002252206 0.022635892 0.030289846 -0.014096723
-0.04589048 0.011379805 0.014677364 -0.0072067236 0.023993084 0.013632902 -0.031823456 0.034959257
-0.041137572 -0.00815603 -0.03506083 0.016699502 -0.020501675 0.011211485 -0.010986342 -0.014844217
0.03682093 -0.019356104 0.03930616 -0.03457318 -0.059280418 -0.057936188 -0.0076630553 -0.022855585
-0.032364957 0.0058094664 -0.031440567 -0.03315855 0.00710996 -0.026020443 -0.028835233 -0.003548637
-0.018028866 -0.008859525 0.018191507 0.026506733 0.009808998 -0.029459292 0.011700074 0.017709699
-0.024693904 0.030003441 0.0080951685 -0.045283906 0.008085787 0.013278171 -0.046805896 -0.035939265
0.008709413 0.008560159 0.030769818 -0.020091198 0.025985222 0.004439734 0.004658714 -0.027398774
-0.03645013 -0.05670242 -0.0032955965 0.0076504177 -0.009626359 -0.011056116 0.020166194 -0.05438621
-0.032766543 -0.014474202 0.012408793 0.031326782 0.035484813 0.0008840426 0.01549061 0.031495977
0.012796227 -0.010631163 -0.025795214 -0.02115242 0.030505247 -0.049900435 -0.00278243 -0.0014981976
-0.01620568 -0.03493478 -0.037962057 -0.0064576883 -0.031538654 0.01269452 -0.035875954 -0.014165253
-0.011350063 0.011329994 0.024955856 0.028458241 -0.012937118 -0.047193818 -0.016808188 0.0007894759
0.009290303 0.031277068 -0.04545553 -0.021322474 0.0041715847 -0.0059277723 -0.04555735 -0.01012501
0.0013157146 -0.019916859 -0.025400309 -0.0085614 -0.04412953 -0.056442037 0.0059251394 0.00071529095
-0.03839217 -0.0015971754 -0.02546143 0.029859152 -0.029481106 0.025272865 0.02681864 -0.015915679
-0.008926878 -0.004073964 0.002815959 -0.02965891 -0.0051762946 -0.03093159 -0.0027112698 -0.02236103
0.022129308 -0.008174996 0.040600594 0.015694529 -0.038912103 0.006502147 0.016158313 -0.027020147
0.001000753 -0.011117738 -0.0641781 -0.029502707 -0.008181198 0.0002848973 -0.04837783 -0.037111446
-0.047927044 -0.01375277 -0.031261586 -0.04596587 -0.022575552 -0.019757163 -0.020460522 0.0021387942
-0.027350433 -0.025157085 -0.009462889 0.0102696875 -0.030026872 0.0012338769 -0.043167114 0.02838045
0.0026668385 -0.022704007 -0.05265377 0.0051078466 0.008720509 0.0067522 -0.03569816 0.0004251396
-0.042868976 -0.030937513 -0.052996755 0.0020447068 -0.022920014 0.0060345433 -0.01447037 -0.009610476
-0.0074088126 -0.03853265 -0.047395073 0.007595964 -0.0060692336 -0.0066246456 -0.0060651763 -0.0049459115
0.018366253 -0.017329542 -0.019660668 -0.040731367 -0.0026807236 0.018521622 -0.029929347 -0.02138962
-0.041747395 0.016964039 -0.04404602 0.0049782977 -0.033226095 -0.03890607 0.015659105 0.0093049165
0.019349363 -0.012191907 -0.036753096 0.0065906695 0.016211078 0.03622409 -0.023012724 0.04027265
0.04803561 -0.019102762 -0.028135367 0.016128121 -0.0049501974 -0.035291858 -0.05762914 -0.040013798
-0.043175872 -0.0037374857 -0.041368622 0.01966162 -0.026385054 0.00467684 -0.0457564 0.016541736
-0.009242751 0.010051705 0.00073099125 -0.05047804 0.020963905 -0.017676437 -0.031653956 0.021374235
-0.034299526 0.0076669673 -0.04104213 -0.039341487 0.013037184 0.005859888 0.043783106 0.025574012
-0.029556321 0.040399622 0.043519698 0.0071648257 0.0032772028 0.013383596 -0.044481117 0.018537233

fc1.bias f4 [256]
00000000: 7d36 853c 8f92 8b3c dc2c 3dbc 8303 1cbd
00000010: 3576 d53d 572a 8f3c 5f6b b5bc 8c36 c6bc
00000020: 9037 af3a 2554 a9bd 1f53 fc3d 1fd6 f43b
00000030: 4281 103d 8226 3c3c c88b b0bb d486 05ba
00000040: 9b98 8cbd fda7 f5bc 4454 00bd 2b90 98bc
00000050: 7dbb 823b 48f4 21bd 37c5 89bc 9867 27bd
00000060: cc86 3fbb dbc7 b83a 5c92 e83d 6b8a 1b3d
00000070: 629b 24bd 858e 19bd 6f45 e7bc e318 203c
00000080: 0086 a93d 2cee f23d 0736 0e3c 37df 303d
00000090: 4942 9bbd db49 003d ffc9 0dbd b570 79bc
000000a0: dbdc 88bd a47c 29bd 07ce 07bd 633c e33d
000000b0: ff88 083e 4833 98bb 514f 653e a304 1cbd
000000c0: 0956 543c 188a b63b 9182 dcb8 61bb 113d
000000d0: 9665 d73d 27fb 08bc fdd1 efbc 7c07 433e
000000e0: 7619 053e 42ac db3d df24 f4bc 8f69 153e
000000f0: 9081 7abb 7b9b 0dbc 745d b63c 87a0 35bc
00000100: 9f95 8dbc ef4c 14bd 95e2 83bd 1628 453e
00000110: 589d 4cbd 3ff5 a83c 98c9 91bd c402 b73c
00000120: 3615 2bbd 85dc 473c 5480 1d3e 9a36 afbc
00000130: 6770 7c3d 1a5d cc3b 73a4 2fbd 12ab 213c
00000140: 19f9 f43c c7a4 afbc 0575 dd3c 8102 313e
00000150: 1c01 22bd 2ad9 af3c 545a 383d 1afc 58bd
00000160: 0f1c 8cbc 2842 97bc f4bb 983c 4d7b 3cbd
00000170: 0594 f3bc 4ef0 55bc 0720 07bd a48f 1e3d
00000180: 0217 02bd dd9d 2cbc 6eb6 863d 9493 00bd
00000190: 1409 b8bb 838d 3d3e 6558 b8bc b9b9 bebc
000001a0: 7c70 203c 6b20 1f3e e122 3bbd 0316 17bd
000001b0: faf9 a2bc 528a 9b3d e1d1 66bd 385b 7d3d
000001c0: 524d 43bd afc9 033e 56aa 18bc 307e 213d
000001d0: 8aff 1fbd 7622 083c c7a0 493e 8666 343e
000001e0: d1de 55bd 24e6 e5bc 0fb3 c53d a360 5ebd
000001f0: 41a6 123e 0e50 193e 8657 263d 5130 2bbc
00000200: bf47 93bd f271 32bd 11e8 50bd 4c7a 1ebd
00000210: cacc c83c b1af 5a3d 332b 443d 3f2d 13bd
00000220: 1d49 1ebc 7d11 9cbc e140 81bc 67ee efbc
00000230: 074e cbbc beec dbbc 2aae a5bd c684 113d
00000240: bdce c43d 7d82 a13d e5dc a03c 2c2a 073e
00000250: f0ec a2bc 834d 8d3c d802 23bd cf81 3bbc
00000260: 3931 eb3c d0cb d03d f7e7 2fbd 3be4 37bd
00000270: 63ec 1d3c 492f 293e cbbe c0bc 477f d1bc
00000280: 2be4 9e3c 1a3b 70bd 197c 253d 72a4 12bc
00000290: c2b4 b5bb 415d dabc d121 24bd b64b 2bbd
000002a0: 761f a93d dd80 90bc 0106 c43d b228 2ebd
000002b0: 183e eabd 7f47 e83d 243a 643e 4428 fcbc
000002c0: 363e 723b 4430 853d 37c5 85bd 449b b63c
000002d0: 6319 fd3d 6a2d 20bd e280 543e a5dc bebc
000002e0: 8e24 153b 3e0b 133d 1912 43bc 50ce 23bd
000002f0: 452c 6b3c e598 a63d 7443 26bd aeb4 043e
00000300: b9ec e83c 10f1 5e3c c800 02bc ede0 16bd
00000310: c287 44bd 78ab a5bb b569 7cbc 3648 073e
00000320: 1229 833d c9e8 d63c 9f94 42bc 549b c5bc
00000330: fb19 6e3c f243 49bd 7f99 f53d 3d8c 40ba
00000340: bcc8 1dbd d28b 0ebd 58f7 863c 7c3d 113e
00000350: 8167 843d 704d 4d3d c25b c2bc f74c 453d
00000360: ddca 5f3c 3fc7 863c 67da de3b 14ab 0cbd
00000370: 9b81 e63d 6c64 d13c 84c4 e63c a32c 593c
00000380: e2e0 26bd b432 513e f04c 3a3d 1863 033d
00000390: 8c11 dd3d 655c 04bd f305 0e3e f203 f73c
000003a0: 6018 de3b 4327 92bc a30a 2ebc 75a2 04bd
000003b0: 9b5f 79bd d6b2 9c3d eb2f 53bc 759f 0d3e
000003c0: d431 4b3b d661 313d 1451 33bc 8f98 3b3c
000003d0: 21f8 3dbd c0ab f33c e91d 663d 0b13 1a3e
000003e0: 6ee9 eabc cf09 aa3d ce16 4d3b 306e 42bd
000003f0: 9bc0 713d 26d6 d53c 95d2 d1bc 4819 bdbc
0.016261334 0.017037658 -0.01154634 -0.038089287 0.10422937 0.017476244 -0.022145925 -0.024195932
0.0013367999 -0.082680024 0.123205416 0.0074718143 0.03527952 0.01148379 -0.005387757 -0.00050936383
-0.06865045 -0.02998733 -0.031330362 -0.018623432 0.0039896355 -0.039539605 -0.016817672 -0.04087028
-0.0029224632 0.0014097648 0.11356041 0.037973803 -0.040187247 -0.037489433 -0.02823135 0.009771558
0.082775116 0.11861834 0.008679873 0.043181624 -0.07581002 0.031320434 -0.034616467 -0.015224625
-0.0668275 -0.041378632 -0.033155467 0.11095502 0.1333351 -0.004644785 0.22393538 -0.03809036
0.0129599655 0.0055706613 -0.000105147374 0.03557909 0.10517423 -0.008360661 -0.029274935 0.19045824
0.12997994 0.10726215 -0.029802738 0.14591049 -0.0038224198 -0.008643026 0.022261359 -0.011085636
-0.017283259 -0.036206182 -0.064397015 0.19253573 -0.049954742 0.020624755 -0.07118529 0.022340186
-0.041768275 0.012198572 0.15380985 -0.02138834 0.061630633 0.0062366845 -0.04288144 0.0098674465
0.029903935 -0.021440877 0.027033338 0.17286111 -0.03955184 0.021465857 0.04500802 -0.052974798
-0.017103223 -0.018464163 0.01864431 -0.046016026 -0.029733667 -0.013057781 -0.032989528 0.038711205
-0.031760223 -0.010535684 0.065777645 -0.03139074 -0.0056163166 0.18511014 -0.022503087 -0.023281919
0.009792443 0.1553971 -0.04568756 -0.036886226 -0.019894589 0.07594742 -0.0563525 0.06185457
-0.04768116 0.12869905 -0.009317955 0.039426982 -0.03906206 0.008308997 0.19690238 0.17617235
-0.052214447 -0.028063841 0.09653293 -0.05429138 0.14321233 0.14971945 0.040610813 -0.010448531
-0.07191419 -0.043565698 -0.051002566 -0.03869085 0.024511714 0.05339021 0.04789276 -0.035931822
-0.009660986 -0.019051308 -0.015778007 -0.029288484 -0.02481748 -0.026846286 -0.0808986 0.035527013
0.09609745 0.07886217 0.01963658 0.13199681 -0.019888371 0.017248875 -0.039797634 -0.011444523
0.028709995 0.10195124 -0.04294583 -0.044895392 0.0096388785 0.16521944 -0.023528477 -0.025573386
0.019395908 -0.058650114 0.040401552 -0.00895034 -0.0055452297 -0.026655795 -0.040071312 -0.04182025
0.08257954 -0.017639572 0.09571458 -0.04251928 -0.11437625 0.11341762 0.22287804 -0.030780919
0.003696335 0.065033466 -0.06531756 0.022290833 0.12358358 -0.03910581 0.2075229 -0.02329857
0.0022757384 0.035899393 -0.01190617 -0.039991677 0.014353816 0.08134631 -0.040591672 0.12959549
0.02843319 0.0136072785 -0.007934757 -0.0368356 -0.04798103 -0.005055841 -0.015406062 0.1321114
0.06404318 0.026234047 -0.011876254 -0.024121918 0.014532561 -0.049137063 0.11992168 -0.0007345116
-0.038521513 -0.03480131 0.016475365 0.1418361 0.06465054 0.05012268 -0.023725394 0.048169103
0.013659206 0.01645243 0.006800938 -0.03434284 0.11255189 0.02556058 0.028169878 0.013255271
-0.04074181 0.20429498 0.04548353 0.032076925 0.107943624 -0.032314677 0.13869457 0.030153248
0.006777808 -0.017840987 -0.010622653 -0.032381494 -0.060882192 0.07651298 -0.0128898425 0.1383036
0.0031005042 0.043306194 -0.0109446235 0.011449947 -0.046379212 0.029744983 0.05618087 0.15046327
-0.028675761 0.08302652 0.003129411 -0.047468364 0.059021574 0.02610309 -0.025613109 -0.023083344

fc2.weight f4 [10, 256]
00000000: 1168 97bc 5aef 4c3e 4c48 75bc ca77 4d3e
00000010: b913 6e3e 4ef8 393c f6eb 8f3d bb2f d23a
00000020: 9d32 4e3d 3897 e0bb 846a 5e3d 744b 1b3e
00000030: 2277 123e 44d0 b8bc 9c3d 6a3e 7f5f 933d
00000040: e619 dabc 3614 cebc f5a3 4ebd e24d 5fbb
00000050: f51a c63c 7a2f a8bd 2229 86bd 53cb 2f3c
00000060: c45a 723d 67ab febb acb3 af3d fbb6 bb3d
00000070: 0398 95bc a90d bfbc 0a94 82bd e5f2 433c
00000080: e29b a83c 4e39 6abe ee03 febd ad3a 173d
00000090: c6a0 b0bb 4799 ce3d 480a ad3b fd7a 03bb
000000a0: 6094 54bd 7e9f 98bb f874 c8bc 6efe fbbe
000000b0: dcc4 c0bb a927 203e 47f0 f8bc eaf7 6abd
000000c0: dd27 e73d a00f 0d3c ee31 32bd 30e2 9f3c
000000d0: c917 7dbe 0654 b63d 07ab e5bb 7d29 2c3e
000000e0: 2aa5 0abe 9543 f13d 252b bd3d eb77 0f3e
000000f0: 1114 1e3c 125f 54bd ae37 d23c 0134 3dbd
00000100: d536 b6bc 18e7 78bd 93ca 0c3e 68ed 2abd
00000110: 38c8 9e3d 12c9 9e3c 7203 43bc c9ee f6bc
00000120: 13ff 3b3d 0ced 813c 313f 2e3e 8eb3 b33d
00000130: 3509 e63d 236d 79bb 143d eabc ff4d 0a3e
00000140: 7a50 043e b889 903e ea16 63be c10f a0be
00000150: 42fa bfbc dffa dcbd c6a1 8dbc aba7 453d
00000160: 1b91 38be 139e f53b d95a babb 104a fd3d
00000170: 9364 3dbc c101 8abc 2c04 0d3c 909b 9d3d
00000180: bc8b 373e 0e46 55bc 745b dbbe a3fb 8d3c
00000190: ea3d 123e 6414 9abe 0ac9 e3bc 1462 913c
000001a0: 8d66 43bd 00cc a0bd 4b87 6abc 10f2 c53c
000001b0: aefd 673d 60a7 423d b843 7cbd 0258 3bbe
000001c0: 2256 aabe 7a36 00bc 6cb7 b03c 8dbe a6bc
000001d0: 4f23 26bd c540 103c 8218 9cbe ed30 2dbe
000001e0: 2a1c ce3a f7a2 03bc 35e1 f53c f80c e13c
000001f0: 80a8 313c 665c 503d f957 0a3c ef1b 203d
00000200: d37b 953c e3ac 8e3d d00e f13c 5d5f 083d
00000210: b12d fbbc 65ec ac3d f8c3 5bbe fad8 1bbd
00000220: 0230 3cbd 98fc 3a3c 0099 ccbb 736d e9bc
00000230: 8198 b8bb 92ea b4bd d76e ccbd bcda 753d
00000240: 9182 27be 4bdd acbd 72b4 363d 4864 d23c
00000250: 74c2 14bc 9a33 323d 14c2 3abd 082c 8dbd
00000260: cbf6 3d3e 47eb 83be e3d8 9e3c eeeb 453e
00000270: 8720 f4bd 5656 9bbe 1359 b03d abf1 11bc
00000280: 01e3 6cbc c291 9abb e0e2 9dbe 6164 c43d
00000290: 9578 14bd 7ac4 86bd 3a92 ad3c 1e57 8abe
000002a0: bfa2 bb3d 0481 6ebd 8ac1 1fbd cbe5 2a3d
000002b0: 5b2e e23d 366f 4bbd 0102 cebe f450 53bd
000002c0: b3b9 133d 9b2f 43bd b944 183e afe3 a2bc
000002d0: 8351 82be 382d 70bd 391e 91be a7a9 0d3e
000002e0: cfd3 3fbd 8159 183d 0307 9fbe c68a 67bd
000002f0: bb00 0a3e 8c43 cbbe e978 48bd c458 94be
00000300: eb0b 2e3e 575e f23c 5d1d 45be 8eb0 11bd
00000310: c931 e1bd 538f 9ebc 7c4e c43c 1264 b03d
00000320: 7d3e 8a3d b826 a0bc 3085 273d 6ccc 22bd
00000330: d050 8a3d 71e4 45bd 7f5b 033e 7688 f0bc
00000340: a806 6fbd 9dc1 293d d3d7 27bd bc0b 95be
00000350: e581 a8bb 89ef 8e3d 40ff cebc 779f 6bbe
00000360: 3354 b8be ab0c 8fbc 41f3 38bc 1709 edbc
00000370: 5a03 5d3e 357b ff3d 6909 d2be d415 cc3c
00000380: 3f2e b3bc f8af 273d 06a7 253e 1c0c f9bd
00000390: 6795 aabe 4a55 18bd ba6a cdbc ca90 513e
000003a0: 6a09 80bd 6a7a abbc 71f0 4c3e 2a58 a4bd
000003b0: 3073 403d 8de8 173e 53f6 4cbd 0547 61be
000003c0: fd41 13be 5bbc ff3d 293f a0bc ed95 7ebc
000003d0: 88c3 b5bc 1ae7 b33d 57ec adbe 8aa2 013e
000003e0: 97d9 60bc 79bf 04be de2b c2bd 287b 483d
000003f0: 687d 00be 9abd 3f3d ed80 7bbc eb9a 3f3d
-0.01848224 0.2001318 -0.01497085 0.20065227 0.23249711 0.011350704 0.07027428 0.0016035953
0.050341237 -0.006853964 0.0543008 0.15165502 0.14303258 -0.022560246 0.22875065 0.07195949
-0.026623677 -0.025156122 -0.05044933 -0.0034073521 0.024182776 -0.082121804 -0.06550814 0.010729629
0.059168592 -0.0077718976 0.085791916 0.0916576 -0.018260961 -0.023321943 -0.063758925 0.011959766
0.020582143 -0.22873423 -0.12403093 0.036921192 -0.0053902594 0.10087829 0.0052807666 -0.002006232
-0.051899314 -0.004657685 -0.024469838 -0.49217552 -0.0058828425 0.15640129 -0.03038801 -0.057365336
0.112869 0.008609682 -0.043504648 0.019517034 -0.24716105 0.08902745 -0.0070089134 0.16812702
-0.13539568 0.117804684 0.09236745 0.14010589 0.009648339 -0.05184848 0.025661316 -0.046192173
-0.022242943 -0.060767263 0.13749151 -0.041730314 0.077530324 0.019382987 -0.011902677 -0.030143159
0.045897555 0.015860103 0.17016293 0.08774482 0.11232225 -0.0038059435 -0.028593577 0.13506316
0.12921324 0.2823007 -0.2217671 -0.3126202 -0.023434762 -0.10790037 -0.017289054 0.048255604
-0.18024103 0.0074956506 -0.0056870994 0.12367642 -0.011559623 -0.01684654 0.008606952 0.07695687
0.17924398 -0.013017191 -0.4284321 0.017331904 0.14281431 -0.30093682 -0.027805824 0.017746963
-0.047705222 -0.0785141 -0.014314483 0.024163276 0.056638412 0.047522902 -0.06158802 -0.18295291
-0.3326884 -0.007825488 0.021571837 -0.020354534 -0.040561017 0.008804505 -0.30487448 -0.16913195
0.0015724946 -0.008034459 0.030014614 0.027472004 0.010843396 0.050869368 0.008443826 0.03908914
0.01824752 0.06966569 0.029426008 0.03329407 -0.030661436 0.08443526 -0.21461475 -0.03804872
-0.04594422 0.011412762 -0.006243825 -0.028494572 -0.0056334143 -0.08833803 -0.099820785 0.060023054
-0.16358401 -0.08440646 0.04460568 0.025682583 -0.009079564 0.043506242 -0.045595244 -0.06893164
0.18551175 -0.2576544 0.019390529 0.19328281 -0.119202666 -0.30339307 0.086107396 -0.008907716
-0.014458419 -0.0047170827 -0.30837154 0.09589458 -0.03624781 -0.06580444 0.02118789 -0.2701959
0.09161901 -0.058228508 -0.039002933 0.041723054 0.11043998 -0.049666606 -0.40235904 -0.051590875
0.03606577 -0.047652822 0.14869966 -0.019883959 -0.25452814 -0.058636874 -0.2834337 0.13834248
-0.046832856 0.037194733 -0.31060037 -0.05652883 0.13476841 -0.39699972 -0.048943434 -0.28973973
0.16996734 0.029586 -0.19249482 -0.035568766 -0.10995824 -0.019355452 0.023963206 0.08612837
0.067502 -0.019549713 0.040898502 -0.039745733 0.06753695 -0.04831356 0.12827872 -0.029361945
-0.058355957 0.04144441 -0.04097731 -0.29110515 -0.0051424378 0.069792815 -0.025268197 -0.2301005
-0.3600174 -0.017462095 -0.011288465 -0.028934998 0.2158331 0.12474672 -0.41022804 0.024912752
-0.021872638 0.0409393 0.16176996 -0.12160513 -0.3331711 -0.037190713 -0.025075305 0.20465389
-0.062517956 -0.020932395 0.20013596 -0.080246285 0.04698485 0.14834805 -0.0500396 -0.21999748
-0.14380641 0.12487098 -0.019561367 -0.015538675 -0.022187963 0.087843135 -0.33969375 0.1265966
-0.013723752 -0.12963666 -0.09481023 0.048945576 -0.12547839 0.046811678 -0.0153505625 0.0467786

fc2.bias f4 [10]
00000000: ef42 95be fb47 27be c02b 7abc b8cb f23d
00000010: dc27 1f3e be1a a9bd 1d2d cb3d 7586 68bd
00000020: 9811 c0bd 7767 b53d
-0.2915263 -0.16336052 -0.01526922 0.118552625 0.15542549 -0.08257054 0.09920714 -0.056768853
-0.09378356 0.08857625
