saved_models/cifar10_cnn.pt (torch, 684229 bytes, 10 tensors)

feature_extractor.weight f4 [4, 1, 2, 2]
0	0xbf2be50c	-0.6714637
1	0x3e45498b	0.19266336
2	0xbf12856e	-0.5723485
3	0x3d80dd94	0.06292263
4	0x3eb26910	0.3484578
5	0x3ea79134	0.3272797
6	0x3df9d9b6	0.12199728
7	0xbefe38a4	-0.49652588
8	0x3f2e4c05	0.68084747
9	0x3e91bb38	0.2846315
10	0x3e8522ec	0.26003206
11	0xbed2e35c	-0.41189086
12	0xbe784dec	-0.24248475
13	0x3e62a60b	0.22133653
14	0x3f4e53bd	0.80596524
15	0x3f260ba7	0.6486153

feature_extractor.bias f4 [4]
0	0x3ef1ac77	0.47201893
1	0xbdf96603	-0.1217766
2	0x3e46e697	0.194239
3	0xbf0afa35	-0.54288036

conv1.weight f4 [32, 4, 3, 3]
0	0x3e5c40a9	0.21509041
1	0xbd031218	-0.031999677
2	0xbddca19d	-0.10773013
3	0x3e6f96be	0.23397347
4	0x3e365629	0.17806305
5	0x3d86c36a	0.06580241
6	0xbca31447	-0.01990713
7	0xbe619842	-0.22030738
8	0xbdd25f7c	-0.102721184
9	0x3e7477f7	0.23873888
10	0x3d714744	0.058905855
11	0xbdd55a63	-0.104176305
12	0xbd131923	-0.035912644
13	0xbe093b49	-0.13401522
14	0x3e0dc524	0.13844734
15	0xbe0b7c3a	-0.13621607
16	0xbe92d3b5	-0.28677145
17	0xbd6484c5	-0.05579068
18	0x3e415b83	0.18882565
19	0x3dd4e4d8	0.10395211
20	0x3e2540a2	0.16137937
21	0xbd04761b	-0.032339197
22	0xbe056f06	-0.13030633
23	0x3da6e697	0.0814945
24	0xbdd3f7f1	-0.103500254
25	0xbdf50e65	-0.11965636
26	0xbe845782	-0.25848013
27	0x3e15801b	0.1459965
28	0x3de1bfd6	0.11022918
29	0xbc9fe66e	-0.019519057
30	0xbe3d9490	-0.18513703
31	0xbeaed1a1	-0.3414431
32	0x3da1c52e	0.07898937
33	0x3eecc391	0.46242955
34	0x3e4ff52e	0.20308372
35	0xbe03d3e7	-0.12873803
36	0x3db635f8	0.088970125
37	0xbbab1e97	-0.0052221525
38	0xbdfca2b5	-0.123357214
39	0x3cef1e99	0.029189395
40	0x3d38a8fd	0.045083035
41	0xbdb6d605	-0.0892754
42	0x3e1fcbea	0.15605131
43	0x3e00a9b9	0.12564744
44	0x3df83277	0.121190004
45	0xbe02c7e8	-0.1277157
46	0x3ca4cbe5	0.020116756
47	0xbe5ded36	-0.2167252
48	0x3e024afe	0.1272392
49	0x3ddb02cc	0.10693893
50	0xbd42fc44	-0.04760386
51	0xbb219fdf	-0.002466194
52	0xbdafc3f4	-0.08582297
53	0x3dfc3f9b	0.12316819
54	0xbe3bdd08	-0.18346035
55	0xbd86dcd7	-0.065850906
56	0x3da912ae	0.08255516
57	0x3ceccfb0	0.028907627
58	0x3cfbf400	0.030755997
59	0x3d4f863d	0.05066513
60	0x3d81ba9b	0.0633442
61	0x3d9c752d	0.07639537
62	0x395427eb	0.00020232766
63	0x3e151b3f	0.14561175
64	0x3de95683	0.11393454
65	0x3e590c97	0.21196209
66	0x3d347f52	0.044066735
67	0x3d861ebe	0.06548832
68	0x3e580cad	0.21098585
69	0xbdbd4090	-0.0924083
70	0xbd205df7	-0.03915211
71	0x3e2687a1	0.16262676
72	0xbd188d0d	-0.03724389
73	0xbe92c4a3	-0.28665647
74	0x3f38db83	0.7220995
75	0x3edb80ec	0.42871797
76	0xbe7a8bbe	-0.2446737
77	0xbe930901	-0.28717807
78	0x3d04613b	0.03231929
79	0x3eba4b17	0.36385414
80	0xbf170b75	-0.5900186
81	0xbe2027d9	-0.156402
82	0xbe8f7ec4	-0.28026402
83	0x3d67450f	0.056462344
84	0x3e3914b5	0.18074305
85	0x3e186d7f	0.1488552
86	0xbd08bb44	-0.033381715
87	0xbdd571f6	-0.10422127
88	0x3d914fda	0.070953086
89	0x3e9552ba	0.29164678
90	0x3e6d6105	0.23181541
91	0xbdfcb33f	-0.12338876
92	0x3d827b17	0.06371134
93	0xbbd88b7f	-0.006608426
94	0x3e265415	0.16243012
95	0x3d7615cd	0.060079385
96	0xbda47a68	-0.0803116
97	0xbe2fcef2	-0.17168787
98	0xbdf72b95	-0.120688595
99	0x3ec6f778	0.3886068
100	0x3e68d5c6	0.22737798
101	0xbf1d9660	-0.6155758
102	0xbe4bfd81	-0.19920923
103	0x3f0bbe5e	0.5458735
104	0xbdf96a29	-0.121784516
105	0xbda7ceba	-0.08193727
106	0xbe0f482e	-0.13992378
107	0x3e1d83ca	0.15382305
108	0xbd8a8fd3	-0.067657135
109	0x3e1dce72	0.15410784
110	0xbc1e3532	-0.009656237
111	0xbe806884	-0.2507974
112	0xbc557bb8	-0.013029985
113	0x3e5c9b76	0.21543679
114	0x3dfb6c33	0.12276497
115	0xbe342761	-0.17593147
116	0xbe1b5d76	-0.15172371
117	0xbe876821	-0.26446632
118	0x3e0b1c4a	0.1358501
119	0xbe00e4d2	-0.12587288
120	0xbe455d83	-0.19273953
121	0x3e2b1903	0.1670876
122	0x3d8dad59	0.06917829
123	0x3d70df5d	0.058806766
124	0xbdebfd2a	-0.115228966
125	0xbdba4fb0	-0.090972304
126	0xbdd2c572	-0.10291566
127	0x3dd1867c	0.10230729
128	0x3dfff4e9	0.12497885
129	0x3d42ec45	0.047588605
130	0xbdd33c46	-0.103142306
131	0xbd798324	-0.06091608
132	0xbe22e9de	-0.15909526
133	0xbd87f608	-0.066387236
134	0x3e09777a	0.13424483
135	0xbe4df801	-0.20114137
136	0x3d9ba339	0.075994916
137	0x3e350c86	0.17680559
138	0x3e9f46d8	0.31108737
139	0xbddeabcc	-0.108726114
140	0xbda8a183	-0.08233931
141	0xbe90bc23	-0.28268537
142	0xbd896364	-0.067084104
143	0x3e92d509	0.28678158
144	0xbb0643ab	-0.002048711
145	0xbe03f5fb	-0.12886803
146	0x3d93f516	0.07224481
147	0xbddafaf6	-0.10692398
148	0xbdf3bc80	-0.11901188
149	0xbe03cbe1	-0.12870742
150	0xbd0f2f8b	-0.03495745
151	0x3c94e7bc	0.018176906
152	0x3c4afa1b	0.012388731
153	0xbe074ed6	-0.13213667
154	0x3dd02a9e	0.101643786
155	0xbcbc07c1	-0.022952916
156	0x3d84df06	0.06487851
157	0x3d36a352	0.04458935
158	0xbe0726f6	-0.13198456
159	0x3c90ed6b	0.017691335
160	0x3e00b5b1	0.1256931
161	0x3e0a7969	0.13522877
162	0x3c388ec0	0.011264503
163	0x3d990ed8	0.07473534
164	0xbde38094	-0.11108509
165	0xbe1dba46	-0.15403089
166	0xbe2ab3c2	-0.16670135
167	0xbdbf7eb5	-0.09350339
168	0xbe1ee73c	-0.15517896
169	0x3d7af0f0	0.061264932
170	0xbd007335	-0.03135987
171	0xbd9d24fb	-0.07673069
172	0xbdcff2b2	-0.10153712
173	0x3da3c15a	0.07995863
174	0xbdacd7c3	-0.08439591
175	0xbdc7ebb2	-0.09761752
176	0xbd17340a	-0.036914863
177	0xbe152b4b	-0.14567296
178	0xbdb0e163	-0.08636739
179	0x3dd1ce41	0.10244418
180	0x3dca8de1	0.098903425
181	0xbd0a0be4	-0.033702746
182	0x3c40f680	0.01177752
183	0x3e92100a	0.28527862
184	0xbee1e0de	-0.44116873
185	0x3d503e79	0.05084083
186	0x3e857c52	0.2607141
187	0xbf1293ef	-0.5725698
188	0x3ec41b95	0.38302293
189	0x3e23775f	0.15963505
190	0xbb61e6a9	-0.003446976
191	0x3da12bcd	0.078696825
192	0xbe045e5d	-0.12926622
193	0x3e27d46d	0.16389628
194	0xbe166f46	-0.14690885
195	0xbef80cdb	-0.48447308
196	0x3f014d8c	0.5050895
197	0xbea5b09e	-0.3236131
198	0xbdc9fd2e	-0.09862743
199	0xbc7c886f	-0.015413388
200	0x3be88c25	0.0070967847
201	0x3d14f8be	0.03637003
202	0xbb923f31	-0.0044630994
203	0x3d51d14e	0.051225
204	0x3d3a7606	0.045522712
205	0x3e46f46b	0.19429176
206	0xbd743771	-0.059623186
207	0x3d3c31f2	0.04594607
208	0x3e2dcf80	0.16973686
209	0xbe10159b	-0.14070742
210	0xbe928ef5	-0.28624693
211	0x3ede3e83	0.43407068
212	0xbebbfb20	-0.3671503
213	0xbea2e0b0	-0.31812048
214	0x3eeff9a3	0.46870145
215	0xbe0fc48d	-0.14039822
216	0xbdcd37cf	-0.1002041
217	0xbe82d26b	-0.2555116
218	0xbe3164c0	-0.1732359
219	0x3e1a8db5	0.1509312
220	0x3d1b00e6	0.037842654
221	0x3cfa60f0	0.030563802
222	0xbe0531e7	-0.13007317
223	0x3d430e9e	0.047621362
224	0xbd854020	-0.065063715
225	0x3e3e75f3	0.18599682
226	0x3e6d1b5e	0.23154971
227	0x3d85d891	0.065354474
228	0xbe4be1eb	-0.199104
229	0x3cd3d5f8	0.025858864
230	0x3d6dcce7	0.05805674
231	0xbd5c0d94	-0.053723887
232	0xbe2621db	-0.16223852
233	0x3cd0b7c3	0.02547825
234	0x3e08af0f	0.1334803
235	0x3daca77e	0.08430384
236	0x3d1d741d	0.038440812
237	0xbccdf15d	-0.025139505
238	0xbe380ce8	-0.17973673
239	0xbe0746ec	-0.13210648
240	0xbdadb0f1	-0.084810145
241	0xbd07d2de	-0.033160083
242	0xbda7a6e2	-0.08186127
243	0xbd43d288	-0.0478082
244	0x3dd1e3ba	0.102485135
245	0x3dcaa27c	0.09894273
246	0xbe218fb3	-0.15777473
247	0x3dedb03a	0.11605878
248	0x3e228790	0.15872025
249	0xbcdf92fe	-0.027291771
250	0xbe0d6b53	-0.13810472
251	0x3da3b68c	0.079938024
252	0xbc02f65c	-0.007993307
253	0x3e026cd5	0.12736829
254	0x3e3fbbeb	0.18724029
255	0x3d09d13c	0.033646807

conv1.bias f4 [32]
0	0x3c096696	0.008386275
1	0xbdfcd3c5	-0.12345079
2	0xbd36fcc6	-0.044674657
3	0x3d4199fa	0.047265984
4	0xbe09ef73	-0.13470249
5	0xbda968e9	-0.08271963
6	0x3da1a474	0.07892695
7	0xbcc45676	-0.023967009
8	0xbdd7ca49	-0.1053663
9	0xbd1b00fc	-0.037842736
10	0x3b2f7c47	0.0026776956
11	0xbd26a9fa	-0.040689446
12	0xbe21dfad	-0.15807982
13	0xbe155bbe	-0.14585778
14	0x3d8dc95e	0.06923173
15	0xbc970a6f	-0.018437592
16	0xbe2d5352	-0.16926315
17	0xbdc308c0	-0.09523153
18	0xbbdb32ab	-0.0066893897
19	0xbe07e1d7	-0.13269745
20	0xbe0bc042	-0.1364756
21	0xbd2c85ea	-0.042119898
22	0xbe490db1	-0.19634129
23	0xbd4cb535	-0.0499775
24	0x3cb833e0	0.022485673
25	0xbd47ce5f	-0.048780795
26	0xbceafcdc	-0.028685026
27	0x3d35cbbd	0.044383753
28	0xbbe239ce	-0.0069038635
29	0xbe86ff58	-0.26366687
30	0xbe09ce3b	-0.13457577
31	0x3dd62b6f	0.10457503

conv2.weight f4 [64, 32, 3, 3]
0	0x3e17996e	0.14804623
1	0x3e1e5e5c	0.15465683
2	0xbb6b8236	-0.0035935766
3	0xbde75dd2	-0.11297192
4	0xbe525a5e	-0.20542285
5	0xbe69269c	-0.22768635
6	0x3e206abb	0.15665714
7	0x3ca1aca4	0.019735642
8	0xbd9c2aa8	-0.076253235
9	0x3c6db53e	0.014508544
10	0xbdad12f5	-0.084508814
11	0xbd809b55	-0.06279627
12	0x3d190649	0.03735951
13	0xbc5c03c9	-0.013428637
14	0xbe38f411	-0.18061854
15	0x3d73c25e	0.059511535
16	0x3d1dca70	0.038523138
17	0xbbb55082	-0.005533279
18	0xbdef523e	-0.11685608
19	0x3c7301d8	0.014831983
20	0x3e1199a0	0.1421876
21	0xbe0f2740	-0.13979816
22	0x3de726d8	0.11286706
23	0xbe0da7ef	-0.13833593
24	0xbe2827f5	-0.16421492
25	0xbd1b7d43	-0.037961256
26	0xbd7ed3d8	-0.06221375
27	0xbb0fcd00	-0.0021942258
28	0xbd8efc5d	-0.06981728
29	0xbd89cafa	-0.06728168
30	0x3c4148cb	0.01179714
31	0xbdcf9812	-0.10136427
32	0xbe1bcd8c	-0.15215129
33	0xbcbe5886	-0.02323557
34	0xbdfe8e0d	-0.12429438
35	0xbdfd3962	-0.123644605
36	0xbca1e68f	-0.01976326
37	0xbbeafd75	-0.0071713277
38	0xbd60c393	-0.054874014
39	0x3d0ae46e	0.033909254
40	0xbd6f7484	-0.058460727
41	0x3b8a04ba	0.004211989
42	0x3c9dd083	0.019264465
43	0xbbbb7fc2	-0.005722017
44	0xbd18c734	-0.03729935
45	0xbe3d6f47	-0.1849948
46	0x3d73b983	0.05950309
47	0x3da8e8cc	0.082475275
48	0x3c8364e0	0.016039312
49	0x3e87069d	0.26372233
50	0x3e8d7b10	0.27632952
51	0xbdaa8770	-0.08326614
52	0x3e0fb5e6	0.14034232
53	0x3e7e4b4d	0.24833412
54	0x3cadf2b7	0.0212339
55	0x3c2b1a74	0.010443319
56	0x3b8f7360	0.0043777674
57	0x3d49d9f4	0.049280122
58	0x3da59b8f	0.08086311
59	0xbe2120c4	-0.15735155
60	0x3b5cb4e6	0.003367716
61	0x3d2c319d	0.042039502
62	0xbe23b599	-0.15987243
63	0x3d65234d	0.05594187
64	0xbe27c960	-0.16385412
65	0x3dc92ffc	0.098236054
66	0x3d00814d	0.03137331
67	0xbe64e90b	-0.22354524
68	0x3daa8a95	0.08327214
69	0x3d8edf11	0.0697614
70	0xbe49155b	-0.19637053
71	0x3cad17a6	0.02112944
72	0x3e0021e8	0.12512934
73	0x3d3a2d0c	0.045453116
74	0x3e1a0e41	0.150445
75	0x3e21be67	0.15795289
76	0x3d02ee57	0.03196558
77	0x3de4e1d5	0.111758865
78	0x3e0579d1	0.1303475
79	0x3db9fc46	0.090813205
80	0x3e5c70e3	0.21527438
81	0xbd89cf92	-0.06729044
82	0x3c3d753e	0.011563597
83	0xbd957e85	-0.07299522
84	0xbbd67362	-0.0065445164
85	0xbd2228e3	-0.039589774
86	0xbda56d5a	-0.08077498
87	0xbdbeade7	-0.09310513
88	0xbcb14444	-0.021638997
89	0xbcf76dff	-0.030203817
90	0x3d562192	0.05227811
91	0x3e151c6d	0.14561625
92	0xbcbd7745	-0.023128161
93	0x3e429cec	0.19005173
94	0x3e008d86	0.12553987
95	0x3d8aecae	0.06783424
96	0x3e7cec08	0.24699414
97	0xbb95534d	-0.0045570494
98	0x3ce2f22f	0.027703373
99	0xbe1d12d6	-0.15339217
100	0x3cf7964b	0.030223032
101	0x3ea64a3d	0.32478514
102	0xbd816af8	-0.06319231
103	0x3e7ae12f	0.24499963
104	0x3ebb978e	0.36639065
105	0xbc9bb00f	-0.01900485
106	0x3daabc94	0.0833675
107	0xbd89d58f	-0.06730186
108	0x3e04ee97	0.1298164
109	0x3b8d5d84	0.0043141264
110	0xbd2bbbe4	-0.041927233
111	0x3d627c1c	0.05529414
112	0xbde34062	-0.110962644
113	0xbe4a7433	-0.19770889
114	0x3d4637f1	0.048393194
115	0x3d7d3006	0.061813377
116	0xbded6351	-0.11591209
117	0x3d2726b9	0.040808413
118	0xbcd64671	-0.026156636
119	0x3a93934d	0.0011259109
120	0x3d6a3f44	0.05718924
121	0x3cdba4da	0.026812006
122	0x3c1ca0c1	0.009559811
123	0x3d7079b4	0.058709815
124	0xbc8ab563	-0.016932195
125	0x3d1dc85d	0.03852116
126	0xbd99264e	-0.07478009
127	0x3dc05b40	0.093924046
128	0x3dcf709e	0.10128902
129	0xbd348fc4	-0.044082418
130	0xbdb926d9	-0.09040613
131	0x3e4b7951	0.19870497
132	0x3db93a28	0.090442955
133	0xbc517449	-0.012784072
134	0x3e2fe330	0.17176509
135	0xbd511721	-0.051047448
136	0x3ca0be08	0.019621864
137	0x3dd89911	0.1057607
138	0xbb9b46d9	-0.0047386703
139	0x3dc70575	0.09717838
140	0x3e266f47	0.16253386
141	0x3b4e5d15	0.0031488587
142	0xbd0b1aee	-0.03396123
143	0x3e061224	0.13092858
144	0x3dfd4b90	0.12367928
145	0x3c4ff562	0.012692781
146	0xbd013047	-0.03154018
147	0x3d95e2cd	0.073186494
148	0x3c237d0e	0.009978546
149	0xbe4a7e64	-0.19774777
150	0x3cedf459	0.029047178
151	0x3a2cf14e	0.00065972365
152	0xbe372f82	-0.17889217
153	0x3d661fe2	0.05618275
154	0xbd77a6f1	-0.060461942
155	0x3d7f6b84	0.062358394
156	0x3de0a92d	0.10969768
157	0xbe4183d1	-0.1889794
158	0x3d3f7351	0.046740834
159	0x3d576033	0.052581977
160	0x3b991076	0.0046711517
161	0xbcc81bb4	-0.024427272
162	0x3e234600	0.15944672
163	0x3c8dcf30	0.017310709
164	0xbd568d0d	-0.05238061
165	0x3c511788	0.012761958
166	0xbe62acd7	-0.22136246
167	0xbe8c03d3	-0.27346668
168	0xbd40678d	-0.046973754
169	0xbe18b6c2	-0.14913467
170	0xbeac3d23	-0.33640394
171	0x3d815f04	0.06316951
172	0xbd3fc0ff	-0.046814915
173	0x3e82f74e	0.25579304
174	0x3da076b5	0.078351416
175	0xbdfd26e6	-0.12360935
176	0x3e457bbb	0.1928548
177	0xbd65d2b2	-0.056109138
178	0xbddd583a	-0.108078435
179	0x3e0b374d	0.13595314
180	0x3b9c58a5	0.0047713094
181	0x3dbb7bea	0.09154494
182	0xbd72ec6c	-0.0593075
183	0x3d8cc6a5	0.06873826
184	0x3cf490a0	0.029854119
185	0xbd7e8188	-0.06213525
186	0x3c60b5b6	0.013715198
187	0xbc3e624a	-0.011620114
188	0xbdbc6a03	-0.09199908
189	0x3d9a9699	0.075482555
190	0xbcbef613	-0.023310697
191	0x3e100d78	0.14067638
192	0x3e46e154	0.19421893
193	0x3d39ee73	0.04539342
194	0x3e859757	0.26092026
195	0x3d4087aa	0.04700438
196	0xbca3fa86	-0.02001692
197	0x3e09587f	0.13412665
198	0x3d23d412	0.039997168
199	0xbcdc5aa5	-0.026898691
200	0x3d33b7de	0.04387652
201	0x3d0fd654	0.03511651
202	0xbc8fe6a2	-0.017566029
203	0x3a54a1a6	0.00081112457
204	0xbc7c9232	-0.015415715
205	0xbd46755f	-0.048451778
206	0xbc603ee4	-0.013686869
207	0x3cd81a49	0.026379721
208	0x3d45d823	0.048301827
209	0xbd99a78f	-0.075026624
210	0x3bbcaa0e	0.005757577
211	0x3c8d9d7a	0.017287005
212	0xbe203b5e	-0.15647647
213	0x3c9eeefd	0.019401068
214	0x3d10778c	0.03527026
215	0xbd96c924	-0.07362583
216	0x3e330f48	0.17486298
217	0x3c9dc5d4	0.01925937
218	0xbcd06ded	-0.025443042
219	0xbe54c441	-0.2077799
220	0xbe6ed303	-0.23322682
221	0xbd300f64	-0.042983428
222	0x3d008ba1	0.03138316
223	0xbe091d15	-0.1339
224	0xbba5841c	-0.005051149
225	0x3c4d115f	0.012516349
226	0x3e2ef22a	0.17084566
227	0xbc4f492a	-0.012651721
228	0xbdc78890	-0.09742844
229	0x3e247cd7	0.16063248
230	0xbb67a460	-0.0035345778
231	0xbe3de486	-0.18544206
232	0x3bcae395	0.0061916807
233	0xbd1e61aa	-0.03866736
234	0x3d9e42fa	0.077276185
235	0x3e0686eb	0.13137405
236	0xbd1b69ad	-0.037942577
237	0x3b8b7fc2	0.0042571733
238	0x3e2353ee	0.15949985
239	0xbdccdab2	-0.1000265
240	0xbd909765	-0.07060126
241	0x3db1b6ba	0.086774305
242	0xbd8054a7	-0.06266146
243	0x3d4d1f86	0.05007889
244	0x3e0d8cf4	0.138233
245	0xbe3bf492	-0.18355015
246	0xbd1cb9ee	-0.038263254
247	0x3d20b350	0.039233506
248	0xbe0801ed	-0.13281985
249	0x3db17e12	0.08666624
250	0x3d69d999	0.057092283
251	0xbbec5a19	-0.007212889
252	0xbd73c45c	-0.059513435
253	0x3b3ae96a	0.0028520473
254	0x3c5afff9	0.013366693
255	0xbe47826b	-0.19483344

conv2.bias f4 [64]
0	0xbe01f46c	-0.12690896
1	0xbe1f4e75	-0.15557273
2	0xbd4c53cc	-0.049884602
3	0xbda4088e	-0.08009444
4	0xbd175ccb	-0.03695373
5	0xbd4f3fee	-0.050598077
6	0x3cf7832c	0.030213915
7	0xbd4b0431	-0.049564544
8	0x3c8921d6	0.016739767
9	0x3d2778e5	0.04088678
10	0x3cb871e9	0.022515254
11	0x3d01fc2a	0.031734623
12	0xbe09ddf5	-0.13463576
13	0x3e070c8a	0.13188377
14	0xbda0aa11	-0.078449376
15	0x390195a7	0.00012358149
16	0xbcbfad82	-0.023398165
17	0xb9759a19	-0.00023422427
18	0xbdc0f90f	-0.09422504
19	0x3daafd3d	0.083490826
20	0x3dbabd6a	0.09118159
21	0x3dd98ca7	0.106225304
22	0x3cda1c81	0.02662492
23	0xbc7e25a8	-0.015511908
24	0xbd87cd68	-0.06630975
25	0xbd8628ae	-0.06550728
26	0x3e5ac657	0.21364723
27	0x3c239095	0.0099832015
28	0x3e02fd74	0.12791997
29	0xbd6bd4d6	-0.057576023
30	0xbb5c4195	-0.0033608426
31	0xbc34d756	-0.011037668
32	0xbe7dd7e8	-0.24789393
33	0x3ddd71e8	0.108127415
34	0x3cbbc821	0.022922577
35	0x3cf5cf71	0.030006142
36	0xbcc64172	-0.024201129
37	0xbd448290	-0.047976077
38	0xbd02838e	-0.03186374
39	0xbcc46fb0	-0.023979038
40	0x3c8ed840	0.0174371
41	0xbb76e025	-0.0037670222
42	0xbda91745	-0.082563914
43	0xbdba8551	-0.09107459
44	0xbd447997	-0.04796752
45	0x3e922702	0.28545386
46	0x3d235937	0.039880004
47	0xbca10143	-0.019653922
48	0xbd80b686	-0.062848136
49	0x3dfd7caf	0.12377297
50	0xbd0895e3	-0.033346068
51	0x3c604b51	0.013689832
52	0xbcabe632	-0.02098379
53	0x3d96f13c	0.073702306
54	0x3d4d1535	0.050069053
55	0xbb36440e	-0.002781156
56	0x3e31cb51	0.17362715
57	0xbb91c5be	-0.0044486215
58	0xbd87c164	-0.06628683
59	0x3c429bda	0.011877978
60	0xbd5d2df5	-0.053998906
61	0x3b3f25bb	0.0029166776
62	0x3e19d517	0.15022694
63	0x3d35cc06	0.044384025

fc1.weight f4 [256, 576]
0	0x3c5e1865	0.013555621
1	0x3ba39c67	0.00499301
2	0x3bb0b5e2	0.005392776
3	0xbcc317b9	-0.023815023
4	0xbbb04ce1	-0.0053802584
5	0x3d16a308	0.036776572
6	0x3bdeaf9b	0.006795836
7	0xbbd9106c	-0.006624272
8	0xbd2fe995	-0.04294737
9	0x3c3a725c	0.011379804
10	0x3c707954	0.014677364
11	0xbbec26a0	-0.007206753
12	0x3cc48d25	0.023993084
13	0x3c5f5c89	0.013632902
14	0xbd025950	-0.031823456
15	0x3d0f3170	0.034959257
16	0xbd1be81b	-0.03806315
17	0xb9e9484c	-0.00044495089
18	0xbd0f9bf2	-0.03506083
19	0x3c88cd65	0.016699502
20	0xbca7f321	-0.020501675
21	0x3c37b060	0.011211485
22	0xbc34000f	-0.010986342
23	0xbc733529	-0.014844217
24	0x3d16d18b	0.03682093
25	0xbc9e90b1	-0.019356104
26	0x3d20ff7f	0.03930616
27	0xbd7e13bb	-0.062030535
28	0xbd87c9e9	-0.06630308
29	0xbd84f5f6	-0.06492226
30	0x3c56e516	0.013116142
31	0xbce80acb	-0.028325459
32	0xbd20146f	-0.039081987
33	0x3bbe5d56	0.0058094664
34	0xbd64e0a3	-0.055878293
35	0xbd07d142	-0.03315855
36	0x3be8faab	0.00710996
37	0xbcd528d3	-0.026020443
38	0xbcec37de	-0.028835233
39	0xbb689040	-0.003548637
40	0xbc93b146	-0.018028866
41	0xbc11278b	-0.008859525
42	0x3c95065b	0.018191507
43	0x3cd924a6	0.026506733
44	0x3c20b5eb	0.009808998
45	0xbcf1549d	-0.029459292
46	0x3c3fb1ab	0.011700074
47	0x3c9113ee	0.017709699
48	0xbcca4adf	-0.024693904
49	0x3cf5c9c7	0.030003441
50	0x3c04a199	0.0080951685
51	0xbd397b9e	-0.045283906
52	0x3c047a40	0.008085787
53	0x3c598cb0	0.013278171
54	0xbd0328db	-0.032021385
55	0xbce5295e	-0.027973827
56	0x3c412ca6	0.01179043
57	0x3baa8c25	0.005204695
58	0x3cfc1105	0.030769834
59	0xbca4965b	-0.020091226
60	0x3d0ca710	0.03433901
61	0x3c753007	0.014965064
62	0x3c4a517a	0.012348527
63	0xbd002a25	-0.031290192
64	0xbd316e0d	-0.043317843
65	0xbd81f4e8	-0.0634554
66	0xbc1a7e04	-0.0094294585
67	0x3a219a51	0.00061646575
68	0xbc88a28d	-0.016679073
69	0xbc931c8b	-0.017957946
70	0x3c5747dc	0.013139691
71	0xbd7b9dfa	-0.061429955
72	0xbd06364f	-0.032766636
73	0xbc2bed9b	-0.010493661
74	0x3c4b4e40	0.012408793
75	0x3d005083	0.031326782
76	0x3d115886	0.035484813
77	0x3a67bf1c	0.0008840428
78	0x3c7dcc56	0.015490612
79	0x3d0101ed	0.031495977
80	0x3c8b9b10	0.017041713
81	0xbc2e2e1a	-0.010631109
82	0xbcd35060	-0.025795162
83	0xbcad47c2	-0.02115238
84	0x3c3d2098	0.0115434155
85	0xbd5235a9	-0.051320706
86	0xbb365867	-0.0027823688
87	0xbc46488e	-0.012102259
88	0xbc84c1d1	-0.0162057
89	0xbd0f17c3	-0.03493477
90	0xbd1b7e1a	-0.037962057
91	0xbbd39b04	-0.0064576883
92	0xbd012ead	-0.031538654
93	0x3c4ffcad	0.01269452
94	0xbd12f2aa	-0.035875954
95	0xbc681561	-0.014165253
96	0xbc39f59d	-0.011350063
97	0x3c39a170	0.011329994
98	0x3ccc7039	0.024955856
99	0x3d034dfb	0.03205679
100	0xbb8d306b	-0.0043087504
101	0xbd4ec2ba	-0.050478674
102	0xbc89b153	-0.016808188
103	0x3a4ef4d5	0.0007894759
104	0x3c18365a	0.009290302
105	0x3d001c62	0.031277068
106	0xbd3a2f94	-0.04545553
107	0xbc956a7f	-0.018239258
108	0x3c010e99	0.0078770155
109	0xbae755e8	-0.0017649503
110	0xbd1e049d	-0.03857862
111	0xbadfb448	-0.0017067278
112	0x3a93c332	0.0011273383
113	0xbc880c0b	-0.016607305
114	0xbc8d1055	-0.017219702
115	0xbc26ca1f	-0.010180025
116	0xbcfe1f6a	-0.031020839
117	0xbd4575ca	-0.048208036
118	0x3c26d61a	0.010182882
119	0x3b0a0cf1	0.0021064843
120	0xbd10ca19	-0.035348985
121	0xbad156d4	-0.0015971311
122	0xbcad94c7	-0.021189107
123	0x3cf4b35d	0.029870683
124	0xbce72fc4	-0.028221019
125	0x3cea73ec	0.028619729
126	0x3b2c7057	0.0026312077
127	0xbcbbbeab	-0.022918066
128	0xbc841455	-0.016122976
129	0x3c87cdfb	0.016577711
130	0xbb70591c	-0.0036674207
131	0xbd2360cf	-0.039887246
132	0xbba99de8	-0.0051762946
133	0xbcfd6442	-0.030931596
134	0x3c53b167	0.012920714
135	0xbcb72e7b	-0.02236103
136	0x3cb54886	0.022129308
137	0xbc05f06b	-0.008174996
138	0x3d264ccf	0.040600594
139	0x3c8091d0	0.015694529
140	0xbd1f624c	-0.038912103
141	0x3bd50ff6	0.006502147
142	0x3c845e70	0.016158313
143	0xbcdd595b	-0.027020147
144	0xb8ccebb3	-9.7713804e-05
145	0xbc69f853	-0.0142803965
146	0xbd7f72d2	-0.06236536
147	0xbcf1afab	-0.02950271
148	0xbc060a71	-0.0081812
149	0x3cabcec8	0.020972624
150	0xbd34c3c6	-0.044132017
151	0xbd2f3771	-0.042777482
152	0xbd3c6665	-0.04599609
153	0xbc6c85a9	-0.014436164
154	0xbc2d5a77	-0.0105806505
155	0xbd365e8f	-0.04452377
156	0xbcc7ce43	-0.024390345
157	0x3a831a1b	0.0010002287
158	0xb8e25cc7	-0.00010793801
159	0x3bd6537f	0.006540715
160	0xbce00e04	-0.027350433
161	0xbb8f6f0b	-0.004377251
162	0xbc1b0a36	-0.009462884
163	0x3c12bb23	0.00895575
164	0xbcf5faca	-0.030026812
165	0x3aa1ba0a	0.0012338769
166	0xbd30d000	-0.043167114
167	0x3ce87e1e	0.02838045
168	0xbb92846b	-0.004471352
169	0xbc20e753	-0.009820777
170	0xbd324033	-0.043518256
171	0x3cafed87	0.021475567
172	0x3c8623a9	0.016374426
173	0x3c14ea29	0.009089031
174	0xbd1f575c	-0.03890167
175	0xbbcd0496	-0.00625665
176	0xbd0cc789	-0.03436998
177	0xbd4636aa	-0.048391975
178	0xbd8a54bb	-0.06754442
179	0xbae1e4ae	-0.001723429
180	0xbc6d45d5	-0.014481981
181	0x3c815611	0.01578811
182	0xbc6d14f0	-0.014470324
183	0xbc1d74b0	-0.00961034
184	0xbc97abe9	-0.01851459
185	0xbd4b7627	-0.049673226
186	0xbd33cf54	-0.043898895
187	0x3c3502b0	0.011048004
188	0xbbc6de6a	-0.0060689943
189	0xbbd912ad	-0.006624541
190	0xbc091a7b	-0.00836813
191	0xbbd4918f	-0.0064870785
192	0x3c96753a	0.018366445
193	0xbc8df640	-0.017329335
194	0xbca10f27	-0.019660546
195	0xbd26d5ae	-0.040731125
196	0xbb2fabc1	-0.0026805254
197	0x3c97bb32	0.018521879
198	0xbd346bf5	-0.04404827
199	0xbcaf3949	-0.02138962
200	0xbcdb77ff	-0.026790617
201	0x3c23576a	0.009969572
202	0xbd346998	-0.044046015
203	0x3c88acc5	0.016683945
204	0xbd3659dd	-0.044519294
205	0xbd32d9c7	-0.04366472
206	0x3cbba6bd	0.022906655
207	0x3c187427	0.009305037
208	0x3c9e828e	0.019349363
209	0xbc47c090	-0.012191907
210	0xbd168a6a	-0.036753096
211	0x3bd7f68b	0.0065906695
212	0x3c84cd18	0.016211078
213	0x3d145fb6	0.03622409
214	0xbcbc852e	-0.023012724
215	0x3d24f4ef	0.04027265
216	0x3cbf8713	0.023379838
217	0xbc9c7d65	-0.019102762
218	0xbc059772	-0.008153783
219	0x3c155a42	0.009115757
220	0xbc4531d5	-0.012035807
221	0xbd108e32	-0.035291858
222	0xbd17e8c7	-0.03708723
223	0xbd23e582	-0.040013798
224	0xbd4be00d	-0.04977422
225	0x3c8b45db	0.017001083
226	0xbca8ff93	-0.02062968
227	0x3d25a233	0.04043789
228	0xbbb84fc0	-0.0056247413
229	0x3cd09d83	0.025465732
230	0xbccc9d50	-0.024977356
231	0x3d18f0fe	0.037339203
232	0x3c3d4550	0.01155217
233	0x3cfc9d1e	0.030836638
234	0x3c55c25d	0.013046828
235	0xbd233875	-0.039848763
236	0x3cb06f2e	0.02153739
237	0xbc90ce26	-0.017676424
238	0xbd24884f	-0.040169057
239	0x3c44e9ae	0.012018604
240	0xbd0c7d94	-0.034299448
241	0x3bfb3b31	0.0076669683
242	0xbd281bcb	-0.04104213
243	0xbd21248b	-0.03934149
244	0x3c5599ea	0.013037184
245	0x3bc0044c	0.005859887
246	0x3d3355ea	0.043783106
247	0x3cd18097	0.025574012
248	0xbcf2201a	-0.029556323
249	0x3d257a13	0.040399622
250	0x3d3241b6	0.043519698
251	0x3beac6ea	0.0071648257
252	0x3c90bf99	0.017669486
253	0x3ca7fb51	0.02050558
254	0xbd312cbe	-0.04325556
255	0x3c9629d3	0.01833049

fc1.bias f4 [256]
0	0x3ca09979	0.019604431
1	0xbc826777	-0.015918477
2	0x3ba2bb7b	0.004966197
3	0xbd47c5f5	-0.04877277
4	0x3dc73c45	0.097282924
5	0x3d92893f	0.07155084
6	0xbc540443	-0.012940469
7	0xbcce4805	-0.025180826
8	0x3b7c7825	0.003852376
9	0xbdae84a1	-0.08521391
10	0xbcb42ba5	-0.021993468
11	0xbba28095	-0.004959176
12	0x3d4205ee	0.047368936
13	0x3c007eb9	0.007842713
14	0xbc9cb05f	-0.019127069
15	0x3bbe7d75	0.0058132955
16	0xbdd2071e	-0.10255264
17	0xbcf99f7a	-0.030471552
18	0xbd6dd12e	-0.058060817
19	0x39a5a991	0.0003159759
20	0x3de6f405	0.11277012
21	0xbd1b006e	-0.037842207
22	0xbce9e21a	-0.028550196
23	0xbc1a3ad1	-0.009413437
24	0xbb49d89b	-0.0030799273
25	0x39187e3a	0.00014542873
26	0x3dce811b	0.10083219
27	0xbba2f1d9	-0.004972678
28	0xbd24719f	-0.04014742
29	0xbca5c22f	-0.020234196
30	0xbd169da1	-0.03677142
31	0x3c205f43	0.009788337
32	0x3d9ce4c6	0.076608226
33	0x3e1a9666	0.15096435
34	0xbc38bbc8	-0.011275239
35	0x3d2e434e	0.042544656
36	0x3d81386b	0.06309589
37	0x3c3dc06b	0.011581521
38	0x3d2adf6c	0.041716978
39	0xbc78fef6	-0.015197506
40	0xbb38bb5d	-0.002818785
41	0xbbbe7b9b	-0.0058130748
42	0xbcd5a097	-0.026077552
43	0x3df2997b	0.1184568
44	0x3e07b51d	0.13252683
45	0xbceaaf36	-0.028648
46	0x3e64f48a	0.22358909
47	0xbd1ac4cc	-0.037785336
48	0x3c0808b4	0.008302856
49	0x3ad33ed5	0.0016116748
50	0x3a46c38d	0.000758224
51	0x3d1b7d73	0.037961435
52	0x3e0fd4b1	0.14045979
53	0x3c6c0b19	0.014406943
54	0xbcda40d3	-0.026642239
55	0x3e36afac	0.17840451
56	0x3ded853a	0.115976766
57	0x3dd66540	0.10468531
58	0xbd3c3d44	-0.045956865
59	0x3e2b7a38	0.16745842
60	0xbb5d3a63	-0.0033756725
61	0xbc50dc5a	-0.012747848
62	0xbcfa25f9	-0.030535685
63	0xbc17f854	-0.009275515
64	0xbc359651	-0.0110832015
65	0xbd69708a	-0.05699209
66	0xbd9fb4af	-0.077981345
67	0x3e39da1d	0.1814961
68	0xbd6744fe	-0.05646228
69	0x3ca44b42	0.020055417
70	0xbd947e8e	-0.07250701
71	0x3cb71b51	0.022351893
72	0xbd96355a	-0.07334395
73	0x3d2b665f	0.041845676
74	0x3e17daa3	0.14829497
75	0xbcddfa0c	-0.02709677
76	0x3db241f2	0.08703984
77	0xbc2d7c72	-0.010588752
78	0xbc978f59	-0.01850097
79	0xbd23fad4	-0.04003413
80	0x3cc90d3e	0.024542447
81	0x3a0e79ff	0.0005435049
82	0x3c753210	0.014965549
83	0x3e2b9a62	0.16758111
84	0xbd9361b2	-0.07196368
85	0xbcd87032	-0.026420686
86	0x3d988a59	0.07448263
87	0xbd5dedec	-0.054181978
88	0xbbf1b52a	-0.007376333
89	0xbcaec83b	-0.021335712
90	0x3c55bc3b	0.013045366
91	0xbd344e35	-0.044019897
92	0xbca60cd2	-0.020269785
93	0xbcf32fe8	-0.02968593
94	0xbd030a06	-0.03199198
95	0x3d3083b8	0.043094367
96	0xbc80e830	-0.015735716
97	0x3d4c977e	0.04994916
98	0x3db909c2	0.09035064
99	0xbcd80483	-0.026369339
100	0xbca8adda	-0.020590711
101	0x3e40825f	0.18799733
102	0xbcb8327b	-0.022485008
103	0xbc26220a	-0.0101399515
104	0x3c207063	0.00979242
105	0x3e29d081	0.16583444
106	0xbd3b22e1	-0.04568756
107	0xbd1abd24	-0.037778035
108	0xbcab75b8	-0.020930156
109	0x3dcb64ea	0.09931357
110	0xbd8702b7	-0.06592315
111	0x3d7866fa	0.06064508
112	0xbd721950	-0.05910617
113	0x3e15a35d	0.146131
114	0xbca27fe6	-0.019836377
115	0x3c27fa8d	0.010252607
116	0xbd1fff89	-0.039062057
117	0x3c071467	0.00824461
118	0x3e39acd0	0.18132329
119	0x3e3eb1dd	0.18622537
120	0xbd55fd1f	-0.05224335
121	0x3e09ddc6	0.13463506
122	0x3d8a6054	0.067566544
123	0xbd5663e3	-0.052341353
124	0x3e0b8f99	0.13628997
125	0x3e2be07d	0.16784854
126	0x3985f943	0.0002555345
127	0xbd884b5e	-0.06655
128	0xbd515843	-0.051109564
129	0xbcbd5627	-0.02311237
130	0xbd50e914	-0.05100353
131	0xbd2ffd48	-0.042966157
132	0x3caf9085	0.021431217
133	0x3d9651f2	0.073398486
134	0x3d2588b9	0.040413592
135	0xbd132d3e	-0.03593182
136	0xbc88738e	-0.016656663
137	0xbc9c4c58	-0.019079372
138	0x3c3c8e56	0.011508545
139	0x3d61ad68	0.055097014
140	0x3db63867	0.08897477
141	0xbce6a190	-0.02815321
142	0x3cdc848d	0.026918674
143	0x3d2180ce	0.03942948
144	0x3da0f261	0.0785873
145	0x3da2126a	0.079136685
146	0xbb8968ce	-0.004193402
147	0x3e11dd29	0.14244522
148	0xbd749762	-0.059714682
149	0xbb673d3b	-0.00352843
150	0xbd1befa6	-0.038070343
151	0xbd407403	-0.046985637
152	0x3cdbeda5	0.026846716
153	0x3ad61ea0	0.0016336031
154	0xbcf13d56	-0.029448193
155	0xbcdeb333	-0.027185058
156	0xbac56182	-0.0015058967
157	0x3e51ad45	0.20476253
158	0x3c274f08	0.010211714
159	0xbcc02eb8	-0.023459777
160	0x3c9eeec8	0.01940097
161	0xbd6f8b83	-0.058482658
162	0x3c14d38c	0.00908364
163	0x3c7ab512	0.01530196
164	0x3c35278c	0.011056792
165	0xbcda5d41	-0.026655795
166	0x3d0ab1ef	0.033861097
167	0xbd663261	-0.05620039
168	0x3d5cbb1c	0.05388938
169	0xbc902a44	-0.017598279
170	0x3db18e9b	0.08669778
171	0xbd3209fe	-0.04346656
172	0xbe1cadab	-0.15300624
173	0x3de38730	0.11109769
174	0x3e7ec1ea	0.2487866
175	0xbcf556c7	-0.029948605
176	0x3b724653	0.0036968186
177	0x3d92c7cc	0.071670145
178	0xbd7cd6d8	-0.06172833
179	0x3c38e585	0.0112851905
180	0x3ddd2d7f	0.10799693
181	0xbd3f9d91	-0.046781126
182	0x3e650cf1	0.22368218
183	0xbccc181a	-0.024913836
184	0x3c897875	0.016781071
185	0x3cf2be7f	0.029631851
186	0x3c082e1c	0.008311775
187	0xbd238ea4	-0.039930955
188	0xbbad1b36	-0.005282785
189	0xbd00eca0	-0.031475663
190	0xbd26436f	-0.040591653
191	0x3dedf552	0.11619057
192	0x3c3d59a4	0.0115570165
193	0x3e16c49e	0.14723441
194	0xbc899369	-0.016793923
195	0xbd18c7c1	-0.037299875
196	0xbd767aa0	-0.060175538
197	0x3e5108c6	0.20413503
198	0xbd705bc6	-0.058681272
199	0x3dfc2636	0.12311976
200	0x3da9b56f	0.08286559
201	0x3cd6e8c9	0.026234047
202	0xbc4a416d	-0.0123447
203	0x3ded3f4b	0.11584338
204	0x3b687060	0.0035467371
205	0xbd1c6356	-0.03818067
206	0x3e05e66b	0.13076179
207	0xbb07fa46	-0.002074854
208	0xbd1de015	-0.03854378
209	0xbd0e8bd1	-0.034801308
210	0x3bb1b006	0.005422595
211	0x3e2aedfb	0.16692345
212	0x3db317c7	0.087447695
213	0x3cc2925f	0.023751436
214	0xbcc45474	-0.023966052
215	0xbc6d161c	-0.014470603
216	0xbd05a3b5	-0.032626826
217	0x3c85620c	0.016282104
218	0xbc71c1af	-0.01475565
219	0xbcd51e33	-0.026015377
220	0x3dc1e49e	0.094674334
221	0x3d0d10df	0.034439918
222	0x3d283142	0.0410626
223	0x3e309298	0.17243421
224	0xbd8e5b9a	-0.06951065
225	0x3e49932f	0.19685052
226	0x3d845ff8	0.06463617
227	0x3ca1ce73	0.019751763
228	0x3dbae2e2	0.09125306
229	0xbc9c6ad0	-0.0190939
230	0x3e336172	0.17517641
231	0x3ca5f61d	0.020258958
232	0x3becc78e	0.007225937
233	0xbd09bf36	-0.03362962
234	0xbd491985	-0.049096603
235	0xbcbd3e7e	-0.023101088
236	0xbda77f59	-0.081785865
237	0x3da3dd8d	0.08001242
238	0xbcf9e875	-0.030506352
239	0x3e097aee	0.134258
240	0xbb65eeff	-0.003508508
241	0x3d76f2f7	0.060290303
242	0xbc385134	-0.011249829
243	0x3c3b988f	0.011449947
244	0xbd368968	-0.044564635
245	0xbd3e5320	-0.046465993
246	0x3d41a0fc	0.047272667
247	0x3e22b7a8	0.15890372
248	0xbb8885df	-0.0041663493
249	0x3d68c9e9	0.05683318
250	0x3c3cc9be	0.011522708
251	0xbd7c6b55	-0.061625797
252	0x3d6bf77b	0.057609063
253	0x3d71feff	0.059081074
254	0xbd1e3a54	-0.038629845
255	0xbcbd199b	-0.023083499

fc2.weight f4 [10, 256]
0	0xbc89aa1e	-0.016804751
1	0x3e6b2487	0.22963153
2	0xbcd58360	-0.026063621
3	0x3e4f68ab	0.20254771
4	0x3e6c7cb4	0.23094445
5	0x3e4d2396	0.20033106
6	0x3da86d0e	0.082239255
7	0x39fc3433	0.00048104077
8	0x3d4ffab3	0.050776195
9	0xbbdd39d0	-0.0067512766
10	0x3cdb6616	0.026782077
11	0x3e18a855	0.14907964
12	0x3e0149f7	0.12625872
13	0xbcc07f9e	-0.023498353
14	0x3e6b23a8	0.2296282
15	0x3d6765d6	0.056493603
16	0x3df9e9a2	0.12202765
17	0xbcca448b	-0.024690887
18	0xbcb7eaf5	-0.022450903
19	0x3d5301ff	0.051515575
20	0x3de06955	0.109575905
21	0xbd490c41	-0.04908395
22	0xbdb9241f	-0.09040093
23	0x3d22a3fb	0.039707165
24	0x3d386356	0.04501661
25	0xbc1946b8	-0.00935524
26	0x3e0bceac	0.13653058
27	0x3dc1ce56	0.094631836
28	0xbc955248	-0.018227711
29	0xbd3cb780	-0.046073437
30	0xbdc5974f	-0.096480004
31	0x3c6d4847	0.014482564
32	0xbc93cf91	-0.018043311
33	0xbe7b849c	-0.24562305
34	0xbd853498	-0.06504172
35	0x3d15ce12	0.036573477
36	0xbeb2f0d4	-0.34949362
37	0x3d7b952b	0.061421555
38	0xbe57ccb9	-0.21074189
39	0xbb054465	-0.0020334956
40	0xbd1f868c	-0.038946673
41	0x3d46da1c	0.04854785
42	0xbcf67824	-0.030086584
43	0xbeedf2bc	-0.46474254
44	0xbdeccb5a	-0.11562224
45	0x3e1844f0	0.14870048
46	0xbd924bce	-0.07143365
47	0xbd7703bf	-0.060306307
48	0x3de1ecd0	0.110314965
49	0x3c894dc2	0.01676071
50	0xbd3a6d04	-0.04551412
51	0xbc0fd8e5	-0.008779739
52	0xbda291a7	-0.07937937
53	0x3dcbd2a4	0.09952286
54	0xbc480f24	-0.012210641
55	0x3e2791d3	0.16364221
56	0xbbeed88f	-0.0072889994
57	0x3df28522	0.11841799
58	0x3df6df31	0.12054289
59	0x3dab2fb2	0.083587065
60	0x3c20a118	0.009804033
61	0xbd878061	-0.06616283
62	0x3d437da7	0.047727253
63	0xbd3d259e	-0.046178453
64	0xbca7f008	-0.020500198
65	0xbd03b69e	-0.03215658
66	0x3ddee71f	0.108839266
67	0xbe1dc216	-0.15406069
68	0x3d823764	0.06358221
69	0x3c9f2325	0.019425938
70	0xbd00700f	-0.031356867
71	0xbcf342fd	-0.029695028
72	0x3cbf12db	0.02332442
73	0xbce0667f	-0.027392624
74	0x3e20ba09	0.15695967
75	0x3d95b385	0.07309631
76	0x3d447438	0.047962397
77	0x3cb8c7db	0.022556236
78	0x3c28e3a2	0.010308178
79	0x3e188b11	0.148968
80	0x3e05abcb	0.13053815
81	0x3d06c454	0.032902077
82	0xbd7e247d	-0.062046517
83	0xbe8b5bb6	-0.27218407
84	0x3d581f3f	0.052764174
85	0xbc53f9ed	-0.012938005
86	0xbca3d74b	-0.02000012
87	0x3cf33cf7	0.029692156
88	0xbe33d849	-0.17562975
89	0x3c00b491	0.00785555
90	0x3d3f9d9e	0.046781175
91	0x3e095c60	0.13414145
92	0xbc9a7de7	-0.018858863
93	0x3ca1b5bc	0.019739978
94	0x3c242a19	0.0100198025
95	0x3d9a559c	0.0753586
96	0x3d9d5ae0	0.07683349
97	0xbe84a1d0	-0.25904703
98	0xbecb3617	-0.39689705
99	0x3d40d694	0.047079638
100	0x3e00fe1f	0.1259694
101	0xbe887dd3	-0.26658496
102	0xbce128f8	-0.027485356
103	0x3c4d5d22	0.012534412
104	0xbd4366c1	-0.047705416
105	0xbce98b19	-0.02850871
106	0xbc6cc84e	-0.014452053
107	0x3b8d3fff	0.0043106074
108	0x3d6a07f0	0.057136476
109	0x3d09a58b	0.03360514
110	0xbdcd7618	-0.1003229
111	0xbe3e2583	-0.18568997
112	0xbeab48b4	-0.33453906
113	0xbd93fbd0	-0.07225764
114	0x3e88250a	0.2659076
115	0xbd9d3585	-0.07676224
116	0xbd261e35	-0.04055615
117	0x3c187cc5	0.009307091
118	0xbe761225	-0.24030359
119	0xbe0ed9fb	-0.1395034
120	0x3ad768c4	0.0016434421
121	0xbeeae82a	-0.45880252
122	0x3db8bed8	0.090207756
123	0x3d081c44	0.03323008
124	0x3ac6665b	0.0015136705
125	0x3ce1da57	0.027569933
126	0xbe3a7f80	-0.182127
127	0xbcd6f4dc	-0.026239805
128	0x3bec3d68	0.0072094686
129	0x3d506d25	0.05088534
130	0x3cf0baba	0.029385913
131	0x3d0422ab	0.032259624
132	0xbcfb3000	-0.030662537
133	0x3dbafc86	0.09130196
134	0xbe6edf20	-0.23327303
135	0xbd1be234	-0.03805752
136	0x3bceac84	0.0063071866
137	0x3c3830e2	0.011242123
138	0xbde7bb74	-0.11315051
139	0xbe65b5d2	-0.2243264
140	0xbe85cfb8	-0.2613504
141	0xbdad4135	-0.08459703
142	0xbe29318b	-0.16522805
143	0x3d93f27a	0.07223983
144	0xbe159402	-0.14607242
145	0x3c974c5c	0.018469028
146	0xbba4794c	-0.0050193425
147	0xbd0aa5f4	-0.03384967
148	0x3c72b75d	0.014814225
149	0x3d42ebfe	0.04758834
150	0xbd3178e4	-0.04332818
151	0xbc18991d	-0.009313849
152	0x3e58ad36	0.21159825
153	0x3c49720d	0.012295258
154	0xbca66774	-0.020313002
155	0x3e34b73b	0.17648022
156	0xbe46b7e5	-0.19406088
157	0xbec01d4a	-0.37522346
158	0x3d80e220	0.0629313
159	0xbbdbb5a3	-0.0067050024
160	0xbc6cd885	-0.014455919
161	0xb91b4b60	-0.00014810031
162	0x3bb080dd	0.0053864555
163	0x3dd76c21	0.10518671
164	0xbda01c58	-0.07817906
165	0xbd86c47b	-0.065804444
166	0xbe23b7cc	-0.15988082
167	0xbe41576b	-0.18881004
168	0x3d957194	0.07297054
169	0xbd788f06	-0.060683273
170	0xbd184667	-0.037176516
171	0x3d27a28e	0.04092651
172	0x3dc7d568	0.09757501
173	0xbd045b7e	-0.032313816
174	0xbe676087	-0.22595416
175	0xbd52f26e	-0.05150073
176	0x3d13e843	0.036110174
177	0xbd68037c	-0.056643948
178	0x3e40dbdc	0.1883387
179	0xbcdd5662	-0.02701873
180	0xbe2eeb9b	-0.17082064
181	0xbd57f943	-0.05272795
182	0xbe8acef0	-0.27111006
183	0x3e0eeb9e	0.13957068
184	0xbd3b6c5d	-0.04575764
185	0xbcd6f981	-0.02624202
186	0xbeb0c857	-0.34527847
187	0xbd664b3b	-0.05622409
188	0x3e039105	0.1284829
189	0xbd8ed1ef	-0.069736354
190	0xbd48798e	-0.04894405
191	0xbe99476e	-0.2993731
192	0x3e222d91	0.15837695
193	0x3e333b66	0.17503127
194	0xbe099f06	-0.13439569
195	0xbd2407df	-0.04004657
196	0xbe295617	-0.16536747
197	0xbe9678fe	-0.29389185
198	0xbdf1b782	-0.118025795
199	0x3d2ebb5f	0.04265916
200	0x3c92981a	0.017894793
201	0xbca026b8	-0.019549713
202	0x3d283754	0.04106839
203	0xbd180077	-0.03710982
204	0x3da40347	0.080084376
205	0xbdae1671	-0.08500374
206	0x3e2b1329	0.16706528
207	0xbd35bc4c	-0.044369027
208	0xbd6f1270	-0.058367193
209	0x3d29c377	0.041446175
210	0xbdcf0ee6	-0.101102635
211	0xbe95809c	-0.29199684
212	0xbc377e6e	-0.011199577
213	0x3daa40a0	0.083131075
214	0xbcd55555	-0.026041666
215	0x3bde5fd8	0.006786328
216	0xbd495b25	-0.049159188
217	0xbc8e5835	-0.017376045
218	0x3d2a3ab4	0.04155989
219	0x3cf29039	0.029609786
220	0x3e4f2a0c	0.20230883
221	0x3dfba6fa	0.122877076
222	0xbf0c423e	-0.5478858
223	0xbea47665	-0.32121578
224	0xbd1be419	-0.038059328
225	0x3da1b540	0.07895899
226	0x3e079e87	0.13244067
227	0xbbc5fa8c	-0.0060418304
228	0xbe99a51e	-0.30008787
229	0xbcea1379	-0.028573738
230	0x3c94219a	0.018082429
231	0x3e551530	0.20808864
232	0xbc87ed11	-0.016592534
233	0xbce45783	-0.02787376
234	0x3e43664c	0.19081992
235	0x3cb0fe7d	0.021605724
236	0x3d5bdda4	0.05367817
237	0x3df00c1e	0.11721061
238	0xbda8dc45	-0.08245138
239	0xbe24a896	-0.16079935
240	0xbe77c323	-0.24195533
241	0x3e0ed452	0.13948181
242	0xbc286908	-0.010278948
243	0xbc7e95eb	-0.015538673
244	0xbd86ed8d	-0.06588278
245	0x3cb97f00	0.022643566
246	0xbec1fce3	-0.3788825
247	0x3e1d163d	0.15340514
248	0xbc46d243	-0.012135091
249	0xbe2fd6bf	-0.17171763
250	0xbd6035ba	-0.054738738
251	0x3d470bed	0.048595358
252	0xbe0180db	-0.1264681
253	0x3dced480	0.10099125
254	0xbcf6c763	-0.030124372
255	0x3d3fac8d	0.046795417

fc2.bias f4 [10]
0	0xbe9a264f	-0.30107352
1	0xbde16af3	-0.11006727
2	0xbd490ede	-0.049086444
3	0x3dcc10f5	0.09964172
4	0x3e39ad6c	0.18132561
5	0xbdb5394b	-0.088488184
6	0x3d887e73	0.06664743
7	0xbd34fd49	-0.044186864
8	0xbdc9fab5	-0.09862272
9	0x3de26ba4	0.11055687
