saved_models/cifar10_qnn.pt (torch, 683589 bytes, 8 tensors)

conv1.weight f4 [32, 4, 3, 3]
-0.010983225 0.11678271 -0.081155434 0.08420188 -0.0112370355 -0.16419132 0.121897176 -0.5061367
0.4347504 0.040455703 0.0034875204 -0.09519821 -0.14218192 0.029208075 0.13349749 0.06094579
0.08487501 -0.01504758 0.10336469 -0.16651997 0.13996147 -0.044138275 -0.10722731 0.21817547
0.058636434 0.07103321 0.0785011 -0.038958047 0.007667531 -0.014266823 0.10398613 -0.41388154
0.27457094 -0.30652317 0.61546993 -0.2454969 -0.31284043 0.017601686 0.20106658 -0.0036405264
0.45271114 -0.27384502 0.094314836 0.015211929 -0.18425912 0.029498123 -0.3770433 0.06392366
-0.22666466 -0.09325309 0.19762923 -0.16442637 0.1665002 0.19488779 0.10933974 -0.55880183
-0.09576225 -0.08719806 -0.31299484 0.22250417 0.07486471 0.13435712 0.16652308 0.16682784
0.31269464 -0.1938862 0.12478254 -0.40288973 0.04448622 -0.10652876 -0.18012705 0.16400424
-0.1124095 0.22658041 -0.052474212 -0.12438539 0.05409835 -0.12084024 0.05525395 0.082088105
0.06520593 0.0007939218 -0.085750654 0.120799966 0.024820117 0.09607431 0.012062779 -0.03717968
-0.004242263 -0.061462212 -0.02770181 0.12620072 0.065357655 -0.1979076 0.04498198 0.02382993
-0.029764056 -0.16952747 0.08239568 -0.18061484 -0.123127334 -0.1995544 -0.02303368 0.06797055
-0.035627846 0.06708085 0.126717 -0.07266742 -0.20288514 0.09294637 0.09474021 -0.3295303
0.411398 -0.16373561 -0.041789696 0.18684836 -0.081435636 -0.0131832175 -0.18113892 0.16327077
0.12880397 -0.23890303 0.05384719 0.12418128 -0.28724286 0.11705439 0.11777597 0.09863467
-0.1309889 0.20027041 -0.0820548 -0.04958209 -0.020250045 -0.07364201 0.0558923 -0.0539494
0.25092226 -0.20191929 0.24897791 -0.044286035 -0.091946 0.12762828 -0.1016594 -0.12959585
-0.104687914 -0.31496084 -0.09533555 0.26357746 0.4023449 0.24852489 -0.14345506 -0.12455987
-0.055943392 -0.016524194 0.13793983 -0.09999573 -0.047878373 0.15020397 0.15382014 -0.10368888
-0.10274486 -0.15504721 -0.07259381 0.2434262 0.061292678 -0.23267816 -0.011866222 -0.18868648
-0.103424884 -0.060842536 -0.049305934 0.0018241261 -0.16753416 -0.12578245 0.049169373 0.31740594
0.17425504 -0.10734138 -0.34556755 -0.02784069 0.35735542 0.39687392 0.107327715 0.29436564
-0.19388768 -0.4171595 -0.14732532 -0.29117414 -0.2541074 0.016951485 -0.03286626 -0.048867166
-0.099133395 0.028410796 -0.016727222 -0.027758244 -0.049513612 -0.092722885 -0.10198931 0.08545154
0.12942614 0.05067667 -0.071950786 0.072233155 -0.04320655 -0.13992545 -0.096254766 -0.0031927244
-0.0029719798 -0.19197199 -0.15016164 -0.14043787 -0.059625242 0.03252687 0.20005327 0.17437923
0.17693819 -0.026072994 -0.25937116 -0.08621106 -0.36004737 -0.057265133 -0.011681262 0.25490987
0.24144818 0.09231329 -0.057595603 0.07000752 0.15764241 0.033130452 -0.0067173475 0.054775875
-0.20845729 -0.11303655 0.15622315 0.068217464 0.05540213 -0.13164648 -0.12489025 -0.013591912
-0.062234387 -0.0055091125 -0.08389267 0.1141922 -0.22585417 -0.026176443 0.054149307 0.36277488
0.12893261 0.19854553 0.04436642 -0.19223502 -0.10144931 0.27886343 0.14682916 0.0302474
00000000: fcf2 33bc c62b ef3d d234 a6bd 0972 ac3d
00000010: 8b1b 38bc c521 28be 3aa5 f93d 2d92 01bf
00000020: 9b97 de3e e1b4 253d e28e 643b 47f7 c2bd
00000030: 2398 11be c645 ef3c 91b3 083e 4ba2 793d
00000040: f3d2 ad3d 208a 76bc deb0 d33d 3684 2abe
00000050: 0f52 0f3e 56ca 34bd fe99 dbbd 6469 5f3e
00000060: c22c 703d dc79 913d 2fc5 a03d 7992 1fbd
00000070: e93f fb3b 65bf 69bc aef6 d43d 48e8 d3be
00000080: 9094 8c3e 9bf0 9cbe 708f 1d3f 8a63 7bbe
00000090: 9f2c a0be 6931 903c 66e4 4d3e e695 6ebb
000000a0: c1c9 e73e 6a35 8cbe 2328 c13d 743b 793c
000000b0: 6cae 3cbe 0ca6 f13c d20b c1be 68ea 823d
000000c0: c81a 68be 7afb bebd 515f 4a3e 635f 28be
000000d0: 077f 2a3e aa90 473e 83ed df3d a30d 0fbf
000000e0: 001f c4bd e594 b2bd dc40 a0be 22d8 633e
000000f0: ab52 993d ea94 093e 0785 2a3e ebd4 2a3e
00000100: 8319 a03e 1b8a 46be fd8d ff3d 9047 cebe
00000110: 2f37 363d c02b dabd 3a73 38be baf0 273e
00000120: f436 e6bd b204 683e 33ef 56bd c4bd febd
00000130: 3b96 5d3d 167b f7bd f751 623d cf1d a83d
00000140: b08a 853d 311f 503a 0a9e afbd f965 f73d
00000150: 8f53 cb3c 9cc2 c43d f6a2 453c b849 18bd
00000160: ae02 8bbb cdbf 7bbd e8ee e2bc c33a 013e
00000170: 3cda 853d 4aa8 4abe 063f 383d fc36 c33c
00000180: c0d3 f3bc 9c98 2dbe 11bf a83d 19f3 38be
00000190: 2f2a fcbd fd57 4cbe 21b1 bcbc 2534 8b3d
000001a0: 81ee 11bd af61 893d 1ac2 013e a8d2 94bd
000001b0: 1fc1 4fbe ab5a be3d 2807 c23d 32b8 a8be
000001c0: c2a2 d23e 4faa 27be ac2b 2bbd 2d55 3f3e
000001d0: bac7 a6bd 6cfe 57bc 7b7c 39be 7430 273e
000001e0: 30e5 033e ffa2 74be df8e 5c3d c152 fe3d
000001f0: 7f11 93be 36ba ef3d 8734 f13d f900 ca3d
00000200: f421 06be b013 4d3e 590c a8bd 9716 4bbd
00000210: 6ce3 a5bc 9fd1 96bd 53ef 643d 0cfa 5cbd
00000220: e278 803e eec3 4ebe 11f4 7e3e 4665 35bd
00000230: 2f4e bcbd fdb0 023e ce32 d0bd c6b4 04be
00000240: 9e66 d6bd 8c42 a1be 493f c3bd a0f3 863e
00000250: 2700 ce3e 4f7d 7e3e e2e5 12be 3f19 ffbd
00000260: e624 65bd bf5d 87bc 1940 0d3e 90ca ccbd
00000270: 1d1c 44bd 12cf 193e 0783 1d3e d65a d4bd
00000280: e66b d2bd b2c4 1ebe 10ac 94bd b844 793e
00000290: 080e 7b3d 2f43 6ebe 8b6a 42bc 0737 41be
000002a0: 6dd0 d3bd 0636 79bd 05f5 49bd 8417 ef3a
000002b0: 138e 2bbe 1dcd 00be d365 493d 0883 a23e
000002c0: ea6f 323e ccd5 dbbd 3bee b0be 2912 e4bc
000002d0: 4af7 b63e 0f33 cb3e a2ce db3d 18b7 963e
000002e0: 7e8a 46be ee95 d5be 73dc 16be c714 95be
000002f0: 5d1a 82be d7dd 8a3c c59e 06bd f028 48bd
00000300: 7306 cbbd c2bd e83c 8707 89bc 4265 e3bc
00000310: c9ce 4abd 7fe5 bdbd c5df d0bd 3801 af3d
00000320: 4988 043e 5792 4f3d ef5a 93bd faee 933d
00000330: 5af9 30bd 9e48 0fbe 3821 c5bd 073d 51bb
00000340: 8cc5 42bb 4e94 44be f9c3 19be f2ce 0fbe
00000350: 9939 74bd e53a 053d c4da 4c3e 7890 323e
00000360: 492f 353e 0897 d5bc 4ccc 84be 6d8f b0bd
00000370: 2158 b8be d88e 6abd c462 3fbc 8c83 823e
00000380: 313e 773e c00e bd3d 5ee9 6bbd 1a60 8f3d
00000390: 036d 213e ccb3 073d 321d dcbb ab5c 603d
000003a0: d475 55be b57f e7bd f6f8 1f3e 99b5 8b3d
000003b0: 58ed 623d 56ce 06be 76c6 ffbd 9cb0 5ebc
000003c0: 7ce9 7ebd c985 b4bb eccf abbd 9add e93d
000003d0: 5146 67be fb6f d6bc aacb 5d3d a1bd b93e
000003e0: e906 043e 854f 4b3e 90b9 353d 42d9 44be
000003f0: a8c4 cfbd 30c7 8e3e 625a 163e 65c9 f73c

conv1.bias f4 [32]
-0.120234676 0.09498201 -0.11966334 0.05424817 -0.027061505 0.027207382 -0.052818384 -0.12527287
-0.0073776976 0.0564858 0.11499255 -0.08204617 -0.110692196 -0.08227248 0.12513253 0.021041911
0.10019845 -0.03349049 -0.008194367 -0.12847881 0.009440772 -0.10716871 0.042985573 0.10304286
-0.13903347 -0.048921816 0.0320322 -0.12356836 -0.10985308 -0.033264633 -0.08585661 -0.050094146
00000000: 993d f6bd ee85 c23d 0e12 f5bd 5433 5e3d
00000010: 17b0 ddbc 04e2 de3c 1758 58bd 8847 00be
00000020: 9dc0 f1bb a75d 673d 3781 eb3d d307 a8bd
00000030: 97b2 e2bd 797e a8bd be22 003e 1660 ac3c
00000040: d834 cd3d 532d 09bd ab41 06bc f38f 03be
00000050: 78ad 1a3c 457b dbbd a411 303d 2308 d33d
00000060: ca5e 0ebe 3e62 48bd 3234 033d 6911 fdbd
00000070: a7fa e0bd 7f40 08bd 97d5 afbd 852f 4dbd

conv2.weight f4 [64, 32, 3, 3]
-0.12997355 -0.02967192 -0.029555555 -0.21714392 -0.10881284 -0.022616493 0.0023497238 -0.09446825
-0.033360448 -0.29778975 -0.047915064 0.03455403 -0.25321102 -0.19729906 -0.08566888 -0.022123264
-0.17545071 -0.027444547 -0.12037891 0.0059053237 -0.15102158 -0.11369793 -0.038316302 -0.0033405628
-0.14327653 -0.12163072 0.019005489 -0.12060817 0.06574 0.07196249 -0.072022624 0.10385659
0.09642766 -0.26372612 -0.15018646 0.07082819 -0.053884856 0.0617486 -0.07038549 0.040125396
0.21958047 0.0653832 0.05372919 0.13200036 0.05639621 -0.25922054 -0.015615261 -0.03366838
-0.16473253 0.0956234 0.15308985 -0.06934547 -0.08257733 0.015186999 -0.08974077 -0.10120468
-0.09606024 -0.11840857 -0.14459163 0.08415605 -0.15982433 0.050455403 0.17026117 -0.06469967
-0.06058745 -0.06776738 -0.06448106 -0.10613994 -0.04985701 0.016229853 0.116059974 -0.06877695
-0.12639917 0.014428515 0.114745416 -0.09007534 -0.041167036 0.105978005 0.015393724 0.044128265
0.12134402 0.04091633 0.030720795 0.06583609 -0.23843852 0.19031164 0.19355167 -0.016654778
-0.05754375 -0.08078191 0.094185635 -0.12731025 -0.07241209 0.018626258 -0.05834989 -0.0011715908
0.058506124 -0.028942466 0.0038080928 -0.058456875 -0.06309836 -0.13278829 0.053662527 0.08769457
0.10515054 0.0618068 0.20321558 0.104418635 -0.060301725 0.12263204 0.026129631 0.035373654
0.050232254 -0.049747217 0.26942855 0.11899581 -0.025686488 0.020601798 0.02825066 -0.006913542
0.017155288 0.019260952 -0.0010168119 -0.09195068 -0.14052112 -0.040840626 -0.05745783 -0.08959902
-0.12257051 0.010001724 0.19425209 0.09931826 0.048000794 0.1587385 0.11630062 0.027676709
0.025191268 -0.16070381 -0.041462805 0.0882955 0.17286855 -0.05832738 0.08266111 0.083457924
0.022683011 0.010891384 -0.041915182 -0.0039032532 0.047772933 -0.047822807 -0.08955036 0.0042346492
0.02280677 -0.018976923 -0.08259724 -0.13316533 -0.037578586 -0.048330568 -0.05075364 0.028317222
-0.07638229 -0.008923995 0.1184241 0.110246725 0.14759491 -0.034753393 0.1739864 0.1439957
0.10884768 0.100373924 0.09754837 0.08847608 -0.037441257 -0.03815448 0.13514361 0.1771599
0.28707442 -0.09682521 0.36958992 -0.027605241 0.07458708 -0.00715332 0.18311551 0.027678128
0.12049856 0.11509798 0.08968887 -0.11946343 -0.06959903 -0.04746937 0.11188624 0.05732528
-0.14275205 -0.0019793108 0.14024584 -0.08397637 -0.27322093 0.029100653 0.1556161 -0.04870243
0.08782586 0.050567187 0.09576355 0.078584746 0.072006814 0.080300555 0.0061881845 -0.27719247
-0.09043523 0.03479007 -0.057087667 -0.087439656 0.0073875543 -0.055864535 0.013023615 -0.011564766
-0.022437917 -0.022466509 -0.020981902 -0.14025801 0.102975264 0.045909762 -0.11250822 -0.075406566
-0.1432805 -0.10719465 0.019829063 0.02809073 -0.022583202 0.05440963 -0.21461461 -0.097951785
0.13581206 0.08900536 -0.09795494 -0.0064753415 0.014899454 -0.018871088 -0.077583835 -0.07581635
-0.105071954 -0.011202455 -0.079784095 -0.011925625 -0.090782784 -0.15249048 -0.051928315 -0.026678879
-0.12304955 -0.027568953 -0.10593668 -0.14354753 -0.0018867103 0.07123105 -0.09972516 0.16408783
00000000: c917 05be 8712 f3bc 7e1e f2bc fa5a 5ebe
00000010: 44d9 debd 3946 b9bc d3fd 193b 9278 c1bd
00000020: f7a4 08bd e677 98be 9642 44bd 8788 0d3d
00000030: e0a4 81be c408 4abe 2a73 afbd d93b b5bc
00000040: 5aa9 33be 63d3 e0bc 3889 f6bd 7281 c13b
00000050: 67a5 1abe 76da e8bd 8ef1 1cbd 58ed 5abb
00000060: 15b7 12be 8719 f9bd 66b1 9b3c 6b01 f7bd
00000070: b1a2 863d 1261 933d 9980 93bd c4b2 d43d
00000080: dd7b c53d 1c07 87be 7bca 19be 5f0e 913d
00000090: 5eb6 5cbd 1aec 7c3d 4526 90bd 875a 243d
000000a0: b4d9 603e a1e7 853d 2413 5c3d 1a2b 073e
000000b0: b6ff 663d 8eb8 84be 27d7 7fbc dbe7 09bd
000000c0: a5af 28be 33d6 c33d 96c3 1c3e ff04 8ebd
000000d0: 4e1e a9bd e4d2 783c 02ca b7bd 6644 cfbd
000000e0: 3bbb c4bd 3180 f2bd d40f 14be 025a ac3d
000000f0: fda8 23be 53aa 4e3d f258 2e3e 4381 84bd
00000100: 8c2a 78bd a0c9 8abd a50e 84bd e65f d9bd
00000110: dd36 4cbd 78f4 843c dab0 ed3d eeda 8cbd
00000120: c96e 01be 9465 6c3c a5ff ea3d 6b79 b8bd
00000130: c49e 28bd ff0a d93d f535 7c3c d7bf 343d
00000140: 3783 f83d e297 273d 2daa fb3c 12d5 863d
00000150: 3a29 74be 0ee1 423e 6932 463e 9a6f 88bc
00000160: ffb2 6bbd fc70 a5bd 66e4 c03d 9e5d 02be
00000170: ca4c 94bd 1896 983c 4b00 6fbd 1090 99ba
00000180: 1ea4 6f3d c018 edbc 3291 793b 7a70 6fbd
00000190: b739 81bd a7f9 07be 3dcd 5b3d 3699 b33d
000001a0: 2b59 d73d 2129 7d3d bf17 503e 70d9 d53d
000001b0: f1fe 76bd 8226 fb3d cf0d d63c f7e3 103d
000001c0: 56c0 4d3d bdc3 4bbd 8af2 893e 13b4 f33d
000001d0: 786c d2bc 1ac5 a83c ee6d e73c fe8a e2bb
000001e0: 3f89 8c3c 25c9 9d3c 8c46 85ba a350 bcbd
000001f0: c5e4 0fbe 8048 27bd e758 6bbd b17f b7bd
00000200: 3f06 fbbd 45de 233c 05ea 463e 5f67 cb3d
00000210: 7b9c 443d 588c 223e 052f ee3d 44ba e23c
00000220: eb5d ce3c 8a8f 24be e7d4 29bd 45d4 b43d
00000230: 7404 313e b1e8 6ebd 3a4a a93d fdeb aa3d
00000240: b9d1 b93c c771 323c 41af 2bbd b9cd 7fbb
00000250: 8dad 433d d9e1 43bd 2e66 b7bd d0c2 8a3b
00000260: 43d5 ba3c 7e75 9bbc be28 a9bd 7e5c 08be
00000270: 01ec 19bd 46f6 45bd 0ce3 4fbd 85f9 e73c
00000280: 516e 9cbd f335 12bc 5688 f23d 09c9 e13d
00000290: 1f23 173e 9359 0ebd 7e29 323e 9c73 133e
000002a0: 88eb de3d d890 cd3d 71c7 c73d f232 b53d
000002b0: 015c 19bd df47 1cbd 1663 0a3e 6869 353e
000002c0: 6bfb 923e 4c4c c6bd e43a bd3e 6324 e2bc
000002d0: 1cc1 983d 6666 eabb a282 3b3e 3ebd e23c
000002e0: f3c7 f63d 7db8 eb3d ccae b73d 3ea9 f4bd
000002f0: f089 8ebd 3e6f 42bd 9d24 e53d eacd 6a3d
00000300: 982d 12be 53b7 01bb 9b9c 0f3e cefb abbd
00000310: 9de3 8bbe 7e64 ee3c d459 1f3e 337c 47bd
00000320: 0bde b33d 8a1f 4f3d ae1f c43d 0af1 a03d
00000330: 4f78 933d 9e74 a43d 41c6 ca3b 2cec 8dbe
00000340: 1b36 b9bd 0880 0e3d c2d4 69bd 9013 b3bd
00000350: 4c13 f23b 36d2 64bd 0061 553c 257a 3dbc
00000360: b9cf b7bc af0b b8bc 3de2 abbc cc9f 0fbe
00000370: b2e4 d23d e00b 3c3d b66a e6bd c26e 9abd
00000380: 20b8 12be de88 dbbd 8f70 a23c 881e e63c
00000390: 6800 b9bc a2dc 5e3d efc3 5bbe f29a c8bd
000003a0: 5112 0b3e 7148 b63d 999c c8bd 1a2f d4bb
000003b0: d71c 743c 8a97 9abc 46e4 9ebd 9a45 9bbd
000003c0: f72f d7bd 808a 37bc d865 a3bd b263 43bc
000003d0: 53ec b9bd 7726 1cbe c9b2 54bd aa8d dabc
000003e0: 6701 fcbd 49d8 e1bc 55f5 d8bd 20fe 12be
000003f0: 7e4b f7ba 96e1 913d b43c ccbd a406 283e

conv2.bias f4 [64]
-0.14064136 0.019728988 -0.055578385 0.024183389 0.045332 0.02040141 0.07331018 0.07526398
0.094271936 -0.107008144 0.053907193 0.018297562 -0.015813103 0.013707597 0.041818984 0.015696004
0.16455519 -0.057798598 0.12008741 -0.038281664 0.010826156 -0.11882197 -0.16370915 -0.03628594
-0.0006861494 -0.07315727 -0.02900673 -0.053371273 -0.06192799 0.005277978 0.020506319 -0.011656476
-0.13458812 -0.07254736 -0.10458731 0.011483102 0.16766582 -0.06579081 0.01341356 0.085442066
0.06622308 0.04436887 0.02534918 0.06427173 -0.0021722217 -0.16350938 -0.016090235 -0.075091995
-0.06811623 0.18090811 0.015486118 0.057469133 0.112765886 -0.026343338 -0.030265639 0.10104112
0.068987414 -0.044553857 -0.15019959 0.006268316 0.042890094 -0.07102068 -0.047126994 -0.03320241
00000000: 4a04 10be b09e a13c 29a6 63bd 3e1c c63c
00000010: 0cae 393d dc20 a73c a623 963d 0024 9a3d
00000020: a511 c13d 1627 dbbd cacd 5c3d c5e4 953c
00000030: 7b8a 81bc d495 603c 624a 2b3d e894 803c
00000040: 2881 283e 39be 6cbd 63f0 f53d 3ccd 1cbd
00000050: 3060 313c ef58 f3bd 5fa3 27be 91a0 14bd
00000060: b5de 33ba 7bd3 95bd 869f edbc d69b 5abd
00000070: 34a8 7dbd e3f2 ac3b defc a73c cefa 3ebc
00000080: 78d1 09be b693 94bd df31 d6bd 9f23 3c3c
00000090: 97b0 2b3e 55bd 86bd 8cc4 5b3c 40fc ae3d
000000a0: f79f 873d 22bc 353d 15a9 cf3c e6a0 833d
000000b0: d55b 0ebb 016f 27be abcf 83bc d5c9 99bd
000000c0: 8680 8bbd fa3f 393e 7db9 7d3c c164 6b3d
000000d0: cdf1 e63d fccd d7bc a5ef f7bc a6ee ce3d
000000e0: 4649 8d3d 1b7e 36bd eccd 19be 7266 cd3b
000000f0: 86ad 2f3d 4a73 91bd 3c08 41bd 40ff 07bd

fc1.weight f4 [256, 576]
-0.07862696 -0.0054980638 -0.04383914 -0.06361587 -0.031193342 -0.005409153 -0.031128656 0.04243351
-0.050402924 -0.025597349 -0.049316406 -0.05074314 -0.0389011 -0.042314265 -0.052203283 -0.04786282
-0.07891158 -0.0692137 0.011743352 0.052704953 -0.009706494 -0.0009775828 -0.043569565 -0.02409978
-0.006237422 -0.016096076 0.030114867 -0.040340897 -0.07488014 0.0038767706 0.0020662118 0.0032386854
0.008642286 -0.025474133 -0.10877304 0.01947564 -0.025574349 0.020661267 -0.03957336 0.004405857
-0.039469194 -0.029189862 0.01455237 -0.034356244 0.015197184 -0.022840254 0.028820211 -0.039898656
-0.069052085 -0.045298226 0.0061366083 -0.004767752 -0.006549253 -0.012052265 -0.055765852 -0.088844694
0.0065606954 -0.04141143 -0.060844067 -0.03192663 -0.05381797 -0.012753732 -0.010283176 -0.033526663
-0.041808967 -0.045418315 -0.029192798 0.002428976 -0.043610048 -0.02283988 -0.010895839 -0.0961862
0.030925633 0.019769682 -0.044038016 -0.076554954 0.0043146773 -0.01974323 0.018984796 -0.033862505
-0.035689108 0.019594619 0.003496928 0.014450388 -0.042329967 -0.05773166 0.01397241 0.02684925
0.06024541 0.007686434 0.0034173145 -0.038940053 -0.05418349 -0.020011058 -0.003952071 -0.00010960896
0.021937788 -0.035462733 -0.0038975992 0.0006832685 0.0015477908 -0.035037447 -0.020075575 -0.0011490694
0.011743302 -0.055680513 0.03260031 -0.030679824 -0.06585565 -0.045028433 -0.07716371 -0.048872255
-0.0042443657 0.018347349 -0.08485386 -0.05856059 -0.049355876 0.043650925 0.03852545 0.029787347
0.011593472 -0.054747816 0.0069765737 -0.0053406223 -0.00064757065 0.05582992 -0.052142993 -0.052409127
-0.024402736 0.0056381593 -0.052292965 0.009440224 -0.072043665 -0.12232681 -0.06593439 -0.047090095
0.011081842 -0.04781563 -0.015698155 -0.069588155 -0.10042309 -0.041437995 -0.09552426 -0.036831178
-0.04928474 0.06558512 -0.010313533 -0.053353403 -0.013807207 -0.056024827 -0.011111458 -0.059786774
-0.10155381 -0.01987124 0.007852813 -0.02236103 0.022129308 -0.008174996 0.040600594 0.015694529
-0.038912103 0.006502147 -0.028364418 -0.07639719 -0.025995446 -0.024745148 -0.048822664 -0.08170831
-0.07232597 -0.033648863 -0.055959035 -0.10441371 -0.0052324515 -0.008327922 -0.054877564 -0.019776808
-0.10670278 -0.019046951 0.017178174 -0.030987969 -0.043586485 -0.036743086 -0.02443481 -0.009076865
-0.058537282 -0.015054489 -0.036567666 -0.0041806605 -0.03466937 -0.03023545 -0.038995706 0.010796935
-0.016885983 -0.038207754 -0.14649102 -0.03590353 -0.06708726 -0.07706287 -0.0006898668 0.038139433
-0.0079377415 0.023879163 -0.012990454 -0.0046829088 0.0064291507 -0.034769893 -0.05196848 0.0051573724
0.022713684 0.014075157 -0.0009104302 0.008882566 0.029823644 0.002309725 -0.024227723 -0.06383264
-0.07572885 0.004144458 -0.059896257 0.0024597663 -0.028556298 0.0064324667 -0.06326481 -0.011347892
-0.053845406 -0.058531217 0.069860496 0.013846187 -0.02677304 -0.05237427 -0.045640267 -0.031650815
-0.022311285 0.0032811884 -0.021317834 0.015900692 0.051337864 -0.05062482 -0.020754226 -0.017752396
0.011894761 -0.018712493 -0.079802245 -0.040013798 -0.022537753 0.017001083 -0.02062968 0.04043789
-0.0056247413 0.025465732 -0.024977356 0.037339203 -0.02444393 -0.019469624 -0.045832336 -0.093344465
00000000: 2c07 a1bd 1a29 b4bb ac90 33bd 0a49 82bd
00000010: 2e89 ffbc 443f b1bb 8601 ffbc c3ce 2d3d
00000020: 4c73 4ebd 88b1 d1bc 0000 4abd 0ad8 4fbd
00000030: c356 1fbd b951 2dbd 1cd3 55bd ce0b 44bd
00000040: 659c a1bd eabf 8dbd 3067 403c 26e1 573d
00000050: fd07 1fbc 3c22 80ba 0076 32bd e76c c5bc
00000060: 4a63 ccbb ebdb 83bc 74b3 f63c 7f3c 25bd
00000070: c25a 99bd 6b11 7e3b 4869 073b 2040 543b
00000080: 6098 0d3c 21af d0bc 66c4 debd 618b 9f3c
00000090: 4c81 d1bc d141 a93c ad17 22bd 025f 903b
000000a0: 73aa 21bd 941f efbc 106d 6e3c 22b9 0cbd
000000b0: 9cfd 783c 7c1b bbbc 5d18 ec3c c66c 23bd
000000c0: 2e6b 8dbd a28a 39bd 9a15 c93b cd3a 9cbb
000000d0: 1e9b d6bb dd76 45bc bc6a 64bd 35f4 b5bd
000000e0: 1afb d63b 089f 29bd a137 79bd 7fc5 02bd
000000f0: 3b70 5cbd 07f5 50bc c47a 28bc 4153 09bd
00000100: e13f 2bbd 8e08 3abd bc25 efbc 742f 1f3b
00000110: 73a0 32bd b31a bbbc 7684 32bc 45fd c4bd
00000120: c157 fd3c 07f4 a13c 3561 34bd d8c8 9cbd
00000130: 2362 8d3b 8ebc a1bc 0186 9b3c 69b3 0abd
00000140: be2e 12bd e584 a03c b72c 653b 52c1 6c3c
00000150: 3062 2dbd 0878 6cbd 89ec 643c f5f2 db3c
00000160: e4c3 763d 7bde fb3b 06f5 5f3b 9b7f 1fbd
00000170: 82ef 5dbd 3bee a3bc 6080 81bb dddd e5b8
00000180: e0b6 b33c 5f41 11bd dd6e 7fbb 5f1d 333a
00000190: 3edf ca3a 6d83 0fbd 8875 a4bc 5f9c 96ba
000001a0: fb66 403c 4011 64bd e787 053d 4154 fbbc
000001b0: 54df 86bd bc6f 38bd 0208 9ebd 462e 48bd
000001c0: 5214 8bbb 2e4d 963c dcc7 adbd 3bdd 6fbd
000001d0: 6329 4abd 50cb 323d ddcc 1d3d 9804 f43c
000001e0: 8cf2 3d3c 3f3f 60bd be9b e43b 6300 afbb
000001f0: bbc1 29ba eaad 643d e493 55bd f4aa 56bd
00000200: 3fe8 c7bc 4fc0 b83b 2631 56bd 2bab 1a3c
00000210: a18b 93bd 7b86 fabd 9c08 87bd 8be1 40bd
00000220: 9d90 353c 52da 43bd 6b99 80bc 3c84 8ebd
00000230: 9faa cdbd e3ba 29bd 39a2 c3bd 4adc 16bd
00000240: ccde 49bd 7e51 863d 18fa 28bc 1989 5abd
00000250: a037 62bc 4a7a 65bd d50c 36bc fae2 74bd
00000260: 72fb cfbd 03c9 a2bc 16a9 003c 7b2e b7bc
00000270: 8648 b53c 6bf0 05bc cf4c 263d d091 803c
00000280: 4c62 1fbd f60f d53b 7f5c e8bc 2176 9cbd
00000290: 67f4 d4bc 56b6 cabc 46fa 47bd b056 a7bd
000002a0: a31f 94bd 64d3 09bd 4d35 65bd dbd6 d5bd
000002b0: fc74 abbb d671 08bc 4cc7 60bd f902 a2bc
000002c0: fd86 dabd 5a08 9cbc 3eb9 8c3c 7bda fdbc
000002d0: be87 32bd eb7f 16bd 832b c8bc 22b7 14bc
000002e0: cac4 6fbd 1aa7 76bc fac7 15bd ecfd 88bb
000002f0: 7801 0ebd 56b0 f7bc f6b9 1fbd a1e5 303c
00000300: 7954 8abc bc7f 1cbd be01 16be 940f 13bd
00000310: 0c65 89bd 23d3 9dbd 2dd8 34ba 1838 1c3d
00000320: 4d0d 02bc 3c9e c33c ead5 54bc 1673 99bb
00000330: a0ab d23b e06a 0ebd e7dc 54bd 2dff a83b
00000340: 0c12 ba3c 7d9b 663c f0a9 6eba 2f88 113c
00000350: b750 f43c c15e 173b 3879 c6bc b0ba 82bd
00000360: ba17 9bbd 3cce 873b c755 75bd 0834 213b
00000370: e6ee e9bc 71c7 d23b fb90 81bd 82ec 39bc
00000380: 008d 5cbd 6ebe 6fbd 0513 8f3d 1edb 623c
00000390: 2253 dbbc 6786 56bd 4af1 3abd 49a4 01bd
000003a0: 28c6 b6bc 3509 573b bda2 aebc 2b42 823c
000003b0: a747 523d f95b 4fbd c404 aabc 796d 91bc
000003c0: 3ee2 423c f14a 99bc 5c6f a3bd 82e5 23bd
000003d0: 18a1 b8bc db45 8b3c 93ff a8bc 33a2 253d
000003e0: c04f b8bb 839d d03c 509d ccbc fef0 183d
000003f0: a33e c8bc c37e 9fbc b0ba 3bbd 622b bfbd

fc1.bias f4 [256]
-0.0042515695 -0.013723228 0.082725085 0.08140624 0.018102536 -0.020672085 0.0064023845 0.12781891
-0.04287294 -0.03543315 0.14480345 -0.1106061 0.01596832 -0.07044634 0.019705992 0.09558714
-0.046527054 -0.006450586 -0.06020227 -0.018972842 0.022836683 0.119675934 -0.05484971 -0.03339626
0.002587721 0.01652455 -0.058729604 0.00599143 0.043589633 -0.047493476 0.11833844 0.013942657
-0.009585107 0.03914892 0.017481623 0.0074638776 -0.045944575 -0.031826608 -0.03235152 0.045799676
-0.021512337 -0.037373733 -0.014831552 -0.010037205 0.006167868 0.008959817 0.088164754 0.021269761
0.029391222 -0.012552997 -0.0013886738 -0.018199652 -0.01121269 0.14525276 0.043682616 0.010148659
0.09151964 0.06260352 -0.02717322 0.0582349 0.013841436 -0.034549486 -0.031338874 0.07234492
0.12219568 0.00059114833 0.029026216 -0.028976394 -0.021467756 0.052166086 0.09386041 -0.011278269
0.009926128 -0.008170675 -0.04512425 0.033578746 -0.035046827 0.050809868 0.0019445954 0.12320044
-0.06274205 0.036382128 0.045519672 -0.010532993 -0.005186944 -0.021904647 -0.034609422 0.14598806
-0.011082382 -0.0072124014 -0.065654114 0.023297474 0.01053676 0.053553753 -0.0031709971 -0.07628139
-0.06264675 0.065233864 0.048557192 -0.07330162 -0.007499896 0.12982179 0.06579752 0.10715876
-0.02477845 -0.025652122 0.048053622 0.070438944 -0.052680995 -0.018943118 -0.0048366375 0.027090438
0.16469868 -0.019240387 -0.05029989 0.098003805 -0.051191736 -0.009704466 0.0041588945 -0.04288306
0.0060271067 0.032050196 0.08743013 0.0429636 0.105673395 0.01407166 -0.04588193 -0.039028507
0.060472835 -0.010300556 -0.05037019 0.06242626 -0.016492134 0.113661155 -0.028009 0.0431055
-0.051515874 0.13405979 -0.018884582 0.09325606 -0.05210164 0.110987976 0.022088593 -0.029102556
0.06926598 -0.010420855 -0.062234875 -0.046572357 0.0153123075 -0.028726649 -0.0083711315 -0.03957164
0.09987847 0.011761041 -0.009575405 -0.022793341 0.0226871 -0.02958623 0.05299085 -0.04566687
-0.025436627 -0.010109506 -0.035842456 0.10046675 -0.018624445 -0.0059343823 0.11404224 0.0031606017
-0.013020944 0.013172637 -0.044723682 0.12637956 0.051142585 0.020408925 0.040794495 0.04666452
-0.048286293 0.101002425 0.02355781 0.058620147 0.15342729 0.030548053 -0.0042405687 0.026455272
-0.012917142 -0.038838446 -0.0068451483 -0.07283573 0.0902209 -0.011030813 -0.010679926 0.00071731425
-0.05555463 -0.014504021 0.026410175 0.041127026 0.005486982 -0.075922735 -0.04249856 0.1305258
0.0775508 -0.088357896 0.16491741 -0.018160373 0.011379151 0.06642207 0.0031982518 0.08909203
0.022932196 -0.017204532 -0.062894 0.033670023 0.030822366 0.058097206 -0.039673235 -0.058657657
0.005114335 0.15117142 -0.02133656 0.06441099 -0.0141386585 0.11952715 0.050850645 -0.0052292785
0.028181592 0.017762277 -0.049943734 -0.0047571347 -0.052842326 -0.031288043 0.02398783 0.0073732287
0.06798028 -0.017858177 -0.020810058 -0.019932218 -0.0027410511 0.019518144 0.15522654 -0.03987322
0.017760321 0.058694303 0.007715067 0.011849712 0.013188697 0.1766134 -0.012867755 0.0045647146
0.031607106 0.091196515 -0.0049505793 0.06264341 0.078714274 -0.022204172 0.06110582 -0.021824572
00000000: c050 8bbb 64d7 60bc c56b a93d 51b8 a63d
00000010: c54b 943c 8158 a9bc 18cb d13b f6e2 023e
00000020: 899b 2fbd 5a22 11bd 5b47 143e 7385 e2bd
00000030: ffcf 823c 2c46 90bd 766e a13c 31c3 c33d
00000040: 2793 3ebd 705f d3bb a896 76bd ef6c 9bbc
00000050: ff13 bb3c a818 f53d 17aa 60bd 84ca 08bd
00000060: c196 293b 7e5e 873c 748e 70bd c253 c43b
00000070: 0b8b 323d 8588 42bd 6d5b f23d be6f 643c
00000080: da0a 1dbc 9e5a 203d 9f35 8f3c 8b93 f43b
00000090: 6130 3cbd 9e5c 02bd 0783 04bd 7198 3b3d
000000a0: a43a b0bc 3315 19bd 0a00 73bc 1773 24bc
000000b0: d41b ca3b 32cc 123c b98f b43d ec3d ae3c
000000c0: dcc5 f03c 16ab 4dbc 2904 b6ba 7017 95bc
000000d0: 6eb5 37bc 24bd 143e 8bec 323d 9046 263c
000000e0: a66e bb3d 4636 803d 5f9a debc b887 6e3d
000000f0: 31c7 623c c383 0dbd 315d 00bd 9329 943d
00000100: bb41 fa3d 4bf7 1a3a 63c8 ed3c e75f edbc
00000110: 26dd afbc 1bac 553d e339 c03d 7dc8 38bc
00000120: 33a1 223c 4bde 05bc 35d4 38bd de89 093d
00000130: 438d 0fbd 021e 503d cbe1 fe3a 8350 fc3d
00000140: e77e 80bd 6d05 153d d672 3a3d 9392 2cbc
00000150: 3df7 a9bb 6071 b3bc 9cc2 0dbd e57d 153e
00000160: e192 35bc 0256 ecbb aa75 86bd 58da be3c
00000170: 60a2 2c3c 2e5b 5b3d 81d0 4fbb 6b39 9cbd
00000180: f04c 80bd 5599 853d e8e3 463d 291f 96bd
00000190: b0c1 f5bb 01f0 043e dac0 863d 0d76 db3d
000001a0: 2dfc cabc 6624 d2bc e0d3 443d 4b42 903d
000001b0: 07c8 57bd 992e 9bbc a87c 9ebb c4ec dd3c
000001c0: c5a6 283e 049e 9dbc 4207 4ebd 38b6 c83d
000001d0: 6dae 51bd 7bff 1ebc 5647 883b 26a6 2fbd
000001e0: 097f c53b 1147 033d 910e b33d 9afa 2f3d
000001f0: 4b6b d83d d28c 663c b1ee 3bbd 5bdc 1fbd
00000200: 5db2 773d aac3 28bc f950 4ebd aeb2 7f3d
00000210: 831a 87bc 2ec7 e83d 2173 e5bc 658f 303d
00000220: 4f02 53bd f846 093e d7b3 9abc 08fd be3d
00000230: 8768 55bd aa4d e33d 23f3 b43c 7c68 eebc
00000240: 52db 8d3d 3cbc 2abc ffe9 7ebd a8c2 3ebd
00000250: 79e0 7a3c 2654 ebbc 1227 09bc df15 22bd
00000260: 158d cc3d 62b1 403c 29e2 1cbc 1ab9 babc
00000270: 4cda b93c d25e f2bc ef0c 593d 2f0d 3bbd
00000280: 7960 d0bc 57a2 25bc 8acf 12bd 83c1 cd3d
00000290: 4b92 98bc 3575 c2bb fa8e e93d 1922 4f3b
000002a0: cc55 55bc 0bd2 573c 2e30 37bd a569 013e
000002b0: e37a 513d 9e30 a73c 2118 273d 4c23 3f3d
000002c0: d9c7 45bd 5cda ce3d 4ffc c03c ae1b 703d
000002d0: 0b1c 1d3e e93f fa3c 78f4 8abb bab8 d83c
000002e0: 6ca2 53bc 1015 1fbd 444d e0bb e62a 95bd
000002f0: bcc5 b83d 95ba 34bc dbfa 2ebc 250a 3c3a
00000300: 408d 63bd 46a2 6dbc 275a d83c d074 283d
00000310: 24cc b33b 617d 9bbd f812 2ebd 8ea8 053e
00000320: f4d2 9e3d fcf4 b4bd 1ce0 283e 10c5 94bc
00000330: 9e6f 3a3c 4b08 883d c399 513b e275 b63d
00000340: 4ddc bb3c 85f0 8cbc 92ce 80bd 94e9 093d
00000350: 307f fc3c 56f7 6d3d 6780 22bd 0343 70bd
00000360: 2796 a73b aecc 1a3e 02ca aebc e9e9 833d
00000370: d5a5 67bc a7ca f43d c448 503d 5e5a abbb
00000380: 15dd e63c 3282 913c cd91 4cbd bde1 9bbb
00000390: 3271 58bd e427 00bd 2082 c43c 209b f13b
000003a0: 3f39 8b3d 504b 92bc db79 aabc e448 a3bc
000003b0: 35a3 33bb 84e4 9f3c b5f3 1e3e 1a52 23bd
000003c0: 187e 913c 7069 703d acce fc3b 4b25 423c
000003d0: 6815 583c 25da 343e 47d3 52bc 9a93 953b
000003e0: 7476 013d 3dc5 ba3d 7838 a2bb 304b 803d
000003f0: f334 a13d 86e5 b5bc 194a 7a3d 72c9 b2bc

fc2.weight f4 [10, 256]
-0.041102346 0.14377318 -0.1980506 0.22289713 0.1275691 -0.029654339 -0.30750096 -0.0070713013
-0.053105433 -0.053431418 -0.1397536 0.08717426 -0.07048069 0.13682258 -0.031222435 -0.5004813
0.02582915 -0.09523076 -0.043591343 -0.022984587 -0.01626984 -0.043640126 -0.17128411 0.15289171
0.14549272 0.036534347 -0.017673904 0.005314206 0.05573093 0.028483622 0.13766094 0.024671616
0.11979454 0.35935032 0.05202591 0.02305919 0.069542594 -0.024249585 -0.05183331 -0.0020246173
0.021019252 -0.078104146 -0.0010107287 0.048186522 0.049312327 -0.008783539 0.07740114 -0.018484809
-0.36822549 -0.020214578 -0.017766198 0.22564477 0.10466172 -0.3308388 -0.17037196 0.0026061204
-0.30436888 -0.07762536 0.018195739 -0.1792794 -0.38523486 0.021974582 -0.062421393 -0.28160694
-0.2954059 -0.14087003 0.0076606525 -0.011465411 0.09027473 0.12718408 -0.31525573 -0.08538005
0.002869547 0.020902522 0.09633123 -0.0028770526 0.016395768 0.03284351 -0.0053804596 0.09264451
0.11813356 -0.2120247 -0.16769427 -0.058530305 -0.014877243 -0.044177953 -0.15913515 -0.28973764
-0.013566543 -0.01298921 -0.0046848888 -0.051589902 0.08662372 -0.025903268 0.006009594 0.0931743
0.029598398 0.080051154 0.007136887 0.15270504 0.09160498 -0.21562403 -0.1898566 -0.21868345
0.0108777 0.043474324 0.09528411 0.13881911 -0.018340774 0.0069780974 0.08943599 0.015702352
-0.2538865 -0.16200052 0.21324846 0.07839061 -0.008788511 -0.04710031 -0.04118804 0.15100273
0.11015278 -0.051456805 0.07233716 0.1381747 -0.46377483 -0.001700094 0.0013399622 0.0053734183
-0.012965447 0.00036657954 -0.07344149 -0.28698385 -0.24885705 -0.295129 0.19572008 0.053602543
-0.062131442 0.040256698 -0.053712852 0.06872071 0.097279884 -0.396125 0.15444352 0.073453635
0.06485389 -0.015416887 0.05558108 -0.00750498 0.1178274 0.12058945 0.1510761 0.03464996
-0.34492698 0.05024611 -0.0093140295 -0.2240352 -0.1959485 -0.0021824292 0.06158923 -0.03565699
-0.023624526 -0.4340871 -0.04946907 0.13355938 -0.029519442 -0.01717499 0.074991845 -0.002172217
0.01581781 0.0403173 -0.044179298 -0.28358102 0.24868852 0.23367675 0.07157943 0.13477756
0.07710447 -0.15973711 0.029461367 -0.17217302 -0.20751528 -0.32615298 0.11342843 -0.18029487
0.036839146 -0.07226526 -0.00057884987 0.12685257 0.07372595 -0.2933812 0.037890367 0.0980044
0.016053468 -0.02614058 -0.023301192 -0.26139036 0.029893495 0.10891572 0.17218475 -0.43686754
-0.08609995 -0.25952545 -0.128052 0.03636615 -0.014162585 0.16924335 -0.19103038 -0.46106163
0.16023956 -0.03544434 -0.05937643 -0.30454725 0.08771338 0.06561055 -0.2090602 -0.069869444
-0.25158274 -0.023524115 -0.04245819 0.078109235 0.091917776 -0.19527954 0.17267409 -0.021672916
0.07870491 0.07357461 0.0279302 -0.16542983 -0.04050108 0.048160013 -0.018359793 -0.059326347
0.15516393 0.048709232 -0.037377067 0.024738457 -0.14496374 -0.02291646 0.062444575 -0.03372006
0.18291935 0.049918637 -0.13109839 0.031847868 -0.20139986 0.009740907 0.13330963 -0.111457825
-0.44427955 0.1243338 -0.02306709 0.12150023 -0.2493606 0.0048108813 0.018389318 -0.010519519
00000000: ef5a 28bd 4739 133e c7cd 4abe 253f 643e
00000010: 79a1 023e a8ed f2bc c470 9dbe 60b6 e7bb
00000020: 1585 59bd e7da 5abd 911b 0fbe 6b88 b23d
00000030: 2e58 90bd 381b 0c3e 31c6 ffbc 8b1f 00bf
00000040: a797 d33c 5808 c3bd d68c 32bd 2c4a bcbc
00000050: 5448 85bc fdbf 32bd 1a65 2fbe a58f 1c3e
00000060: 0bfc 143e 0aa5 153d ddc8 90bc ca22 ae3b
00000070: 1e46 643d 7c56 e93c fdf6 0c3e 211c ca3c
00000080: d756 f53d c4fc b73e 1f19 553d a0e6 bc3c
00000090: 596c 8e3d 11a7 c6bc 2a4f 54bd 71af 04bb
000000a0: 9130 ac3c 11f5 9fbd 6d7a 84ba 3b5f 453d
000000b0: b9fb 493d d5e8 0fbc 7d84 9e3d 746d 97bc
000000c0: 0d88 bcbe 0b99 a5bc 6b8a 91bc 6c0f 673e
000000d0: e258 d63d b463 a9be fd75 2ebe 72cb 2a3b
000000e0: 3dd6 9bbe 0bfa 9ebd 3b0f 953c 0595 37be
000000f0: 813d c5be 0a04 b43c 93ad 7fbd c92e 90be
00000100: 713f 97be 3c40 10be 3606 fb3b 6bd9 3bbc
00000110: f5e1 b83d 8b3c 023e 3369 a1be bcdb aebd
00000120: 030f 3c3b c43b ab3c 4f49 c53d ef8c 3cbb
00000130: 6b50 863c eb86 063d 914e b0bb 68bc bd3d
00000140: 02f0 f13d 011d 59be 0cb8 2bbe 79bd 6fbd
00000150: aebf 73bc f1f3 34bd 53f4 22be 7e58 94be
00000160: 3546 5ebc b2d0 54bc b283 99bb ef4f 53bd
00000170: c767 b13d 1733 d4bc 21ec c43b 2bd2 be3d
00000180: 5778 f23c dcf1 a33d 8cdc e93b b65e 1c3e
00000190: 649b bb3d 8ccc 5cbe c569 42be 8eee 5fbe
000001a0: 6138 323c 2212 323d 5124 c33d 9926 0e3e
000001b0: 643f 96bc 86a8 e43b 372a b73d 38a2 803c
000001c0: 69fd 81be 77e3 25be ce5d 5a3e 428b a03d
000001d0: b0fd 0fbc 41ec 40bd cab4 28bd 76a0 1a3e
000001e0: c897 e13d 5fc4 52bd 8125 943d ab7d 0d3e
000001f0: e573 edbe b0d5 deba aca1 af3a 8013 b03b
00000200: 076d 54bc 7931 c039 7e68 96bd 8cef 92be
00000210: 62d4 7ebe 261b 97be d86a 483e 578e 5b3d
00000220: 8a7d 7ebd 35e4 243d 0202 5cbd 72bd 8c3d
00000230: ad3a c73d e5d0 cabe 7126 1e3e dc6e 963d
00000240: 1ed2 843d 1c97 7cbc fda8 633d 56ec f5bb
00000250: 7e4f f13d 9af7 f63d b1b3 1a3e 1eed 0d3d
00000260: 459a b0be ddce 4d3d df99 18bc 7c69 65be
00000270: b9a6 48be 1607 0fbb fd44 7c3d 100d 12bd
00000280: 3988 c1bc aa40 debe 14a0 4abd cac3 083e
00000290: c2d2 f1bc 91b2 8cbc 5395 993d c15b 0ebb
000002a0: 5a94 813c c123 253d 5af5 34bd 8831 91be
000002b0: 34a8 7e3e f548 6f3e 3c98 923d 2103 0a3e
000002c0: f3e8 9d3d 2092 23be f758 f13c 204e 30be
000002d0: e37e 54be 86fd a6be 2a4d e83d 389f 38be
000002e0: a5e4 163d cfff 93bd f5bd 17ba a4e5 013e
000002f0: a2fd 963d 1036 96be ee32 1b3d 88b6 c83d
00000300: 9082 833c c524 d6bc 24e2 bebc f5d4 85be
00000310: 34e3 f43c 340f df3d 3351 303e 1aad dfbe
00000320: 2c55 b0bd 85e0 84be 1020 03be acf4 143d
00000330: 300a 68bc 214e 2d3e 789d 43be 4510 ecbe
00000340: d715 243e 162e 11bd b334 73bd 9eed 9bbe
00000350: 13a3 b33d d35e 863d e113 56be b617 8fbd
00000360: 74cf 80be a5b5 c0bc a4e8 2dbd bcf7 9f3d
00000370: 633f bc3d 5cf7 47be 7ad1 303e 668b b1bc
00000380: 0a30 a13d 49ae 963d e0cd e43c 7066 29be
00000390: 76e4 25bd 6f43 453d 4767 96bc 2f00 73bd
000003a0: 4be3 1e3e 5583 473d b218 19bd 4ea8 ca3c
000003b0: 6071 14be 4dbb bbbc e2c5 7f3d 0c1e 0abd
000003c0: 364f 3b3e 7c77 4c3d a83e 06be e972 023d
000003d0: c43b 4ebe 5398 1f3c 5282 083e 0044 e4bd
000003e0: 9c78 e3be b8a2 fe3d 32f7 bcbc 1dd5 f83d
000003f0: 6358 7fbe 99a4 9d3b 32a5 963c 105a 2cbc

fc2.bias f4 [10]
-0.23132963 -0.1624571 -0.031430572 0.09279584 0.17703879 -0.0754824 0.07912031 -0.049903546
-0.19596305 0.082086354
00000000: ade1 6cbe 275b 26be 58bd 00bd bf0b be3d
00000010: a849 353e 8496 9abd d409 a23d a967 4cbd
00000020: 8aaa 48be e41c a83d
