saved_models/cifar10_qnn_2l.pt (torch, 683631 bytes, 8 tensors)

conv1.weight f4 [32, 4, 3, 3]
0	0x3ceca8c6	0.028889071
1	0xbca45772	-0.020061228
2	0xbe8cbe76	-0.2748906
3	0xbdcad68b	-0.09904202
4	0x3e06154c	0.13094062
5	0xbd14d4c4	-0.03633572
6	0xbd99c9aa	-0.075091675
7	0xbe2f9a6a	-0.17148748
8	0x3e9f66ed	0.31133214
9	0x3c2185f3	0.009858596
10	0xbdbd7c93	-0.09252276
11	0xbe3a74bb	-0.18208592
12	0xbdcd973f	-0.100386135
13	0xba377bff	-0.0006999373
14	0x3e611b01	0.21982957
15	0x3d643606	0.055715583
16	0x3eb2a72d	0.3489317
17	0xbdd48d2c	-0.10378489
18	0x3e57bb55	0.21067555
19	0xbd1994fc	-0.0374956
20	0x3dbf1294	0.09329715
21	0xbdd13e11	-0.10216916
22	0x3dc62a88	0.09676081
23	0x3e1c6b8f	0.15275405
24	0x3d665905	0.05623724
25	0x3e510cba	0.20415011
26	0x3e333a21	0.17502643
27	0xbdf15e92	-0.11785616
28	0xbe2b982b	-0.16757266
29	0x3de892c3	0.113561176
30	0x3dbf81af	0.09350907
31	0xbee9692d	-0.45588055
32	0x3d167a46	0.036737703
33	0xbe6dceb3	-0.2322338
34	0x3ede5e1d	0.43431178
35	0xbe2b21f5	-0.16712172
36	0xbcc5486c	-0.024082385
37	0x3d1b42f1	0.037905637
38	0x3d8091c4	0.062778026
39	0xbda9d4a3	-0.0829251
40	0x3dd37620	0.10325265
41	0x3cafc3f0	0.021455735
42	0xbe7ba0bf	-0.24573039
43	0x3eadbfb8	0.33935332
44	0xbe334141	-0.17505361
45	0xbd198259	-0.037477825
46	0xbe46c944	-0.19412714
47	0x3e1b0de2	0.15142015
48	0xbe342a26	-0.17594203
49	0xbd397ce5	-0.045285124
50	0x3e2021a6	0.15637836
51	0xbe46f8ef	-0.19430898
52	0x3e25e71c	0.16201442
53	0x3e6c5e6f	0.23082899
54	0x3d1a4310	0.037661612
55	0xbeac5bda	-0.33663827
56	0x3e7ced94	0.24700004
57	0xbe248e7a	-0.16069975
58	0xbddfe1f9	-0.10931773
59	0x3dd783fb	0.1052322
60	0xbe3beed1	-0.1835282
61	0x3da93c63	0.08263471
62	0x3ced18ae	0.028942432
63	0x3e010fcc	0.12603682
64	0xbd516207	-0.051118877
65	0xbd6ccecf	-0.057814416
66	0x3e72cf9d	0.2371201
67	0xbf123def	-0.57125753
68	0x3e6553a6	0.2239519
69	0xbd1631ec	-0.036668703
70	0xbe9b4f58	-0.30333972
71	0x3e32beca	0.17455593
72	0xbdd81bf0	-0.10552204
73	0x3e8accda	0.27109414
74	0xbe93b396	-0.2884795
75	0xbda718a0	-0.08158994
76	0xba6af6b4	-0.0008963153
77	0x3dcac027	0.098999314
78	0xbe2b5b82	-0.16734126
79	0xbdec4645	-0.1153684
80	0x3de8dede	0.113706335
81	0x3da70ec8	0.08157116
82	0xbd806b52	-0.0627047
83	0xbcadfde8	-0.021239236
84	0x3dd07170	0.101778865
85	0x3ea483bf	0.32131764
86	0xbd04ddfc	-0.032438263
87	0xbdd3a45e	-0.10334085
88	0x3e17d046	0.14825544
89	0x3de7f3a7	0.1132577
90	0x3d3febc1	0.04685569
91	0x3ec8a15c	0.39185607
92	0xbc8dcc15	-0.017309228
93	0xbed522c8	-0.41628098
94	0x3da69549	0.08133943
95	0x3e830e18	0.2559669
96	0x3ce36886	0.027759802
97	0xbe44a7b1	-0.19204594
98	0x3e549acf	0.2076218
99	0xbe2dca40	-0.16971684
100	0xbe87ea29	-0.26545838
101	0x3e369f19	0.17834128
102	0x3e04143a	0.12898341
103	0x3d506d4c	0.050885484
104	0xbdb92c03	-0.09041598
105	0x3e7409cb	0.2383186
106	0x3de955be	0.11393307
107	0xbe2c37b2	-0.16818121
108	0x3deb4f56	0.114897415
109	0xbe27ecdb	-0.16398947
110	0x3e2ff5f8	0.17183673
111	0xbe7b2db1	-0.24529149
112	0x3f1a01f4	0.6015923
113	0xbe693aa2	-0.22776273
114	0x3e12c0fd	0.14331432
115	0xbea8667d	-0.32890692
116	0x3e47ca34	0.19510728
117	0xbdba3d28	-0.09093696
118	0xbdb14893	-0.086564206
119	0x3e2ad977	0.16684519
120	0x3dd9bad7	0.1063134
121	0xbd819b5d	-0.06328461
122	0xbe041f73	-0.12902622
123	0x3d8b88bc	0.068131894
124	0xbd0bd6c8	-0.03414038
125	0x3def8c15	0.116966404
126	0x3d797804	0.06090547
127	0xbd9763a4	-0.07392052
128	0xbe43a3b0	-0.1910541
129	0x3cecb160	0.028893173
130	0x3e952826	0.29132193
131	0xbdc9268e	-0.09821807
132	0xbd143de9	-0.036191855
133	0xbd727b6f	-0.059199747
134	0x3e512d6f	0.20427488
135	0xbe8a66a7	-0.27031443
136	0x3e954f4f	0.2916207
137	0x3c665e89	0.014060625
138	0x3ef5d6d3	0.4801546
139	0xbf09d859	-0.53845745
140	0x3dd46fb8	0.10372871
141	0x3d10cd19	0.035351846
142	0x3e6d0e7d	0.23150058
143	0xbde8fc09	-0.11376197
144	0x3b1a0e6a	0.0023507127
145	0xbe0a8ec5	-0.13531025
146	0xbe12ca31	-0.14334942
147	0x3e93d782	0.28875357
148	0x3e917a26	0.28413504
149	0x3e52cab7	0.20585142
150	0xbda5b601	-0.08091355
151	0xbe03c725	-0.12868936
152	0xbe57d473	-0.21077137
153	0xbda5f5c7	-0.08103519
154	0x3de05139	0.10952992
155	0xbe0c9e81	-0.1373234
156	0x3d845edf	0.06463408
157	0x3e8b61b6	0.27222985
158	0x3e5e4cde	0.2170901
159	0xbe1555cc	-0.1458351
160	0xbdd093ac	-0.10184416
161	0xbe3ab5f1	-0.18233468
162	0xbe36f730	-0.17867732
163	0x3d17ed6b	0.037091654
164	0xbe330d45	-0.1748553
165	0xbd849bbd	-0.06475017
166	0x3dfa09a0	0.12208867
167	0xbe0bdb40	-0.13657856
168	0xbd407057	-0.046982136
169	0x3dcd4960	0.10023761
170	0x3df1f117	0.11813562
171	0x3d868571	0.06568421
172	0xbdb0cb5f	-0.0863254
173	0xbe116218	-0.14197576
174	0x3e839ef2	0.25707203
175	0x3d10363c	0.035207972
176	0x3e01f540	0.12691212
177	0x3cb4c45d	0.02206629
178	0xbe788416	-0.24269137
179	0xbcf18f5e	-0.029487308
180	0x3e1494e1	0.14509918
181	0x3ebb5d0c	0.36594427
182	0x3e305212	0.17218807
183	0x3df1dd2e	0.11809765
184	0xbe009fd9	-0.12560977
185	0xbe01ff47	-0.12695037
186	0xbe6e14f3	-0.23250179
187	0xbe14aec8	-0.14519799
188	0xbe122750	-0.14272809
189	0x3e19e737	0.15029608
190	0x3d59f374	0.05321069
191	0xbdbb1a99	-0.091359325
192	0xbdea633c	-0.11444709
193	0x3c81d542	0.01584876
194	0xbd929fff	-0.07159423
195	0xbd8b3daf	-0.067988746
196	0xbc47d4c1	-0.012196721
197	0xbe0a5eef	-0.13512777
198	0x3d8374fe	0.06418799
199	0x3db109b3	0.08644428
200	0x3e061565	0.13094099
201	0x3cc69de8	0.024245217
202	0xbe4f8eb2	-0.20269278
203	0x3ad00130	0.0015869495
204	0xbdb60f25	-0.08889607
205	0xbe1bfc25	-0.15232904
206	0x3c36e785	0.011163597
207	0xbe48f414	-0.19624358
208	0xbd812134	-0.06305161
209	0xbd96e087	-0.07367044
210	0x3cafddd6	0.021468084
211	0x3d6eadd8	0.05827126
212	0xbdaa0785	-0.083022155
213	0x3db19f2c	0.08672938
214	0x3e18f997	0.14938961
215	0xbe0dc240	-0.13843632
216	0x3d20dad4	0.03927119
217	0xbd94e19f	-0.07269596
218	0xbe22bc27	-0.15892087
219	0xbe0da1f7	-0.13831316
220	0xbdc80898	-0.09767264
221	0x3db13d54	0.086542755
222	0xbbff39cc	-0.0077888723
223	0xbe1702e4	-0.14747196
224	0x3ce031be	0.027367469
225	0x3e018948	0.12650025
226	0xbe1bab3e	-0.15202042
227	0x3caa0ac6	0.02075709
228	0x3e3e739c	0.18598789
229	0xbb30454a	-0.0026896768
230	0xbcc2b96a	-0.023770053
231	0x3e039bfd	0.12852474
232	0xbe938a86	-0.28816622
233	0xbe2b4035	-0.16723712
234	0x3ea2d03d	0.31799498
235	0x3dc0df1a	0.09417553
236	0xbdf50c23	-0.119652055
237	0xbe04443a	-0.12916651
238	0xbe31089d	-0.17288442
239	0xbcffbdf4	-0.031218506
240	0x3ee61a15	0.44941774
241	0x3e880bb7	0.26571438
242	0xbdf36245	-0.11883978
243	0xbcb4e502	-0.022081856
244	0xbe7ce96f	-0.24698423
245	0xbe0173da	-0.1264185
246	0x3e2900ac	0.16504163
247	0x3e25c803	0.1618958
248	0xbeac2f25	-0.33629718
249	0x3cfe4f88	0.031043783
250	0x3e83ea8b	0.2576488
251	0xbe3b41b6	-0.18286785
252	0xbe6ba801	-0.23013307
253	0x3d0f0eff	0.03492641
254	0x3dc94515	0.098276295
255	0x3d8b8bb0	0.06813753

conv1.bias f4 [32]
0	0xbd8713f2	-0.06595601
1	0x3d64f69d	0.05589925
2	0xbb565f33	-0.0032710552
3	0x3d887b6b	0.06664165
4	0xbb1e06e4	-0.0024112994
5	0xbe1a0aec	-0.15043229
6	0xbe3092c8	-0.17243493
7	0xbd6846b5	-0.056708056
8	0xbdf90ba0	-0.121604204
9	0x3d42373f	0.047415968
10	0x3dcbaab9	0.09944672
11	0xbd2561d4	-0.0403765
12	0xbe47aa09	-0.19498457
13	0x3b4913a6	0.0030681877
14	0xbe397995	-0.18112786
15	0xbd423001	-0.04740906
16	0x3e0b5d13	0.13609724
17	0x3d936d14	0.071985394
18	0xbd2a23a4	-0.041537896
19	0xbe1a866d	-0.15090342
20	0xbc7fc491	-0.01561083
21	0xbd51fcc1	-0.051266436
22	0xbe48d38e	-0.19611952
23	0xbd890db5	-0.066920675
24	0xbd48514f	-0.048905667
25	0xbe1d5e62	-0.15368035
26	0x3e1d3fb1	0.15356328
27	0xbc553b00	-0.013014555
28	0xbdf0096c	-0.11720547
29	0xbcd66eda	-0.026175905
30	0x3d8920b0	0.06695688
31	0xbe2f24f8	-0.17103946

conv2.weight f4 [64, 32, 3, 3]
0	0xbd9d5196	-0.07681577
1	0xbdb12c12	-0.08650984
2	0x3b4d6502	0.0031340723
3	0xbe28ebc0	-0.16496181
4	0xbdea2035	-0.11431924
5	0xbe07bd40	-0.13255787
6	0xbda8966d	-0.082318164
7	0xbe388e53	-0.18023042
8	0xbe39b7af	-0.18136476
9	0xbd3622c5	-0.044466753
10	0xbcc83f4b	-0.024444243
11	0x3d377b61	0.044795398
12	0xbe05c596	-0.13063654
13	0xbc6ef9f8	-0.014585964
14	0x3d2e4c74	0.04255338
15	0xbe29db17	-0.16587482
16	0xbe835b39	-0.25655535
17	0x3d8306cd	0.063977815
18	0xbd26ad2d	-0.040692497
19	0x3d85984d	0.0652319
20	0x3d8bf210	0.06833279
21	0x3d838b22	0.06423022
22	0xbe2bd90f	-0.1678202
23	0xbdd36de1	-0.10323692
24	0xbe14c4f4	-0.14528257
25	0xbdc6937e	-0.09696101
26	0xbd985ef8	-0.07439989
27	0xbaecfdcf	-0.0018081012
28	0xbb6dadd3	-0.0036266937
29	0x3bea0028	0.007141132
30	0x3da74e88	0.081692755
31	0x3d02d969	0.03194562
32	0xbdca466b	-0.098767124
33	0xbd5135e9	-0.051076803
34	0xbe1b29b1	-0.15152623
35	0xbc1990a8	-0.009372868
36	0x3e207129	0.15668167
37	0x3e7d58f0	0.24740958
38	0x3d3c95cc	0.046041295
39	0x3e2ec3ae	0.17066833
40	0x3e3fa67b	0.18715851
41	0x3e4b430c	0.19849795
42	0x3e44f244	0.19233042
43	0x3e9b5f75	0.30346265
44	0x3d097fdc	0.0335692
45	0xbe11a39e	-0.14222571
46	0xba2ac91b	-0.00065149524
47	0xbd8f3998	-0.06993407
48	0xbd35015f	-0.04419076
49	0xbd689c4a	-0.056789674
50	0xbc52cc0d	-0.012866032
51	0xbceceece	-0.028922465
52	0x3ccce72b	0.025012573
53	0x3dee7289	0.116429396
54	0x3ddb667c	0.10712907
55	0xbd2fbae6	-0.04290285
56	0xbd6c26ca	-0.05765418
57	0x3dbfe3ca	0.09369619
58	0xbda160c0	-0.07879782
59	0x3d57e954	0.052712753
60	0xbda54edb	-0.08071681
61	0x3dc51de5	0.096248426
62	0x3e38af30	0.18035579
63	0xbd45dad4	-0.048304394
64	0xbe8ec59a	-0.27885133
65	0xbe5cb847	-0.21554671
66	0x3daa0b93	0.08302989
67	0x3c817878	0.015804514
68	0xbdb2c15f	-0.08728289
69	0x3d93575c	0.07194397
70	0x3e0ce8c5	0.1376067
71	0xbd072641	-0.032995466
72	0xbca0121a	-0.019539881
73	0xbc8284c3	-0.015932446
74	0xbca3cee6	-0.019996118
75	0xbdf30c22	-0.118675485
76	0x3d57b692	0.052664347
77	0xbdb673d8	-0.08908814
78	0xbd5df8e4	-0.05419244
79	0xbda65e9b	-0.08123513
80	0xbd2fb6d8	-0.042898983
81	0x3de7cfd3	0.11318936
82	0x3e0e7e7d	0.13915439
83	0x3d9981f6	0.07495491
84	0x3dc2f441	0.09519244
85	0x3d9c7ff9	0.07641596
86	0xbd1ad4fc	-0.037800774
87	0x3e447288	0.19184315
88	0x3e963e2b	0.29344305
89	0x3e0834fb	0.1330146
90	0xbd99e44c	-0.07514247
91	0x3d82dcc9	0.06389768
92	0x3dc921a5	0.0982087
93	0xbd89b783	-0.06724455
94	0xbe1f01a5	-0.15527971
95	0x3ca0452a	0.01956423
96	0x3c56a32c	0.013100427
97	0x3be5918e	0.007005877
98	0x3c1fcdcb	0.009753655
99	0x3d5b0991	0.05347592
100	0x3e23baba	0.159892
101	0x3d2d59c8	0.04232195
102	0x3d5361f2	0.05160708
103	0x3e04b7c3	0.12960725
104	0x3e14f0fa	0.1454505
105	0x3e278b24	0.16361672
106	0x3d1c7e6a	0.038206495
107	0x3d481314	0.04884632
108	0xbdc5938e	-0.096472844
109	0xbcf7dc2a	-0.03025635
110	0xbe46acd6	-0.19401869
111	0x3dc7fa90	0.09764588
112	0x3d9ee569	0.077586
113	0xbce200b8	-0.027588233
114	0xbbfe6a0b	-0.007764106
115	0x3ddaf4b8	0.10691208
116	0x3d532a02	0.051553734
117	0xbc199f83	-0.009376409
118	0x3e20a8a3	0.1568933
119	0x3d940644	0.072277576
120	0x3da65bfd	0.08123014
121	0x3e145004	0.14483649
122	0xbd774295	-0.060366232
123	0x3e8a2b3b	0.26986107
124	0x3e2a6753	0.16640978
125	0xbde03c42	-0.10948993
126	0xbd2e6e4f	-0.042585667
127	0xbe0d2234	-0.13782579
128	0xbd4329b7	-0.047647204
129	0xbcaa4a1e	-0.020787295
130	0x3ce74899	0.02823286
131	0xbd06b1b5	-0.03288432
132	0x3cfba14b	0.030716559
133	0x3d88ae3f	0.0667386
134	0x3d482e26	0.048872136
135	0xbc70ca38	-0.01469665
136	0xbe5118ba	-0.20419589
137	0xbd8b3b03	-0.06798365
138	0xbd55dad6	-0.05221065
139	0xbd1cdca5	-0.03829636
140	0xbac0788f	-0.0014684367
141	0x3dc357c4	0.09538224
142	0x3d8725ff	0.06599044
143	0xbc160da9	-0.00915853
144	0x3d99d48c	0.07511243
145	0xbd24f18e	-0.040269427
146	0xbd80be0c	-0.062862486
147	0x3b00daec	0.0019661738
148	0x3d0602ec	0.03271763
149	0x3dc0d383	0.09415343
150	0xbe24a472	-0.16078356
151	0xbe38bdc8	-0.18041146
152	0xbe89d87b	-0.26922974
153	0xbd05fde8	-0.032712847
154	0x3d3a6b5f	0.045512553
155	0x3dd0caa0	0.10194898
156	0x3d1dec80	0.038555622
157	0xbd92f57a	-0.07175727
158	0x3d73c69d	0.059515584
159	0x3ceabf5a	0.028655697
160	0xbd585395	-0.052814085
161	0x3c94dccf	0.018171696
162	0xbd0c732e	-0.03428953
163	0xbd9fc1f5	-0.07800666
164	0xbb761f5b	-0.003755531
165	0x3b87178b	0.0041226796
166	0xbd48a4df	-0.04898536
167	0x3c5d3ef4	0.013503779
168	0x3b500cf9	0.0031746014
169	0xbe2c9dde	-0.16857097
170	0xbe57fee3	-0.21093325
171	0xbe5f296f	-0.2179315
172	0xbe414073	-0.18872242
173	0xbdd719d7	-0.105029754
174	0xbd95ee7f	-0.0732088
175	0xbd844acd	-0.064595796
176	0x3db70054	0.089356095
177	0xbe147135	-0.1449631
178	0xbb07fbb0	-0.0020749383
179	0x3da2dd3e	0.07952355
180	0x3c51d491	0.012807027
181	0xbd21b147	-0.039475705
182	0x3dafb379	0.085791536
183	0xbdb6338c	-0.088965505
184	0xbda1e3ae	-0.079047546
185	0x3dc797e4	0.09745768
186	0x3cd0fd9b	0.025511554
187	0xbd212758	-0.03934416
188	0xbdb39b95	-0.08769909
189	0x3e177d4c	0.1479389
190	0x3dd4de26	0.10393934
191	0x3ddd045f	0.10791849
192	0x3dfc9534	0.12333146
193	0x3c25beea	0.010116318
194	0x3d8b7790	0.06809914
195	0x3cb25933	0.02177105
196	0xbe94efd2	-0.29089218
197	0xbdafccb7	-0.08583968
198	0x3cabb5c3	0.020960694
199	0x3cb812bc	0.02246987
200	0xbd9482b8	-0.07251495
201	0x3e0d4cd0	0.13798833
202	0x3c8b7b0a	0.017026443
203	0xbd567e8f	-0.05236679
204	0x3c3e2ec8	0.011607833
205	0xbc46d59d	-0.01213589
206	0xbd9013af	-0.07035004
207	0xbd5e856e	-0.054326467
208	0x3ce900f6	0.028442841
209	0xbc8804d6	-0.016603868
210	0x3c1a829f	0.009430557
211	0x3d0938a6	0.03350129
212	0x3e211fb7	0.15734755
213	0xbaf304d4	-0.0018540868
214	0x3db35209	0.08755881
215	0xbdb453f1	-0.08805073
216	0x3df0a0ba	0.11749406
217	0x3e279a49	0.16367449
218	0x3cac6f37	0.021049125
219	0x3d1aff18	0.037840933
220	0x3d9f5e6b	0.07781681
221	0x3cd84076	0.026397925
222	0x3d14b576	0.036305867
223	0x3e110e7a	0.14165679
224	0xbc6efe76	-0.014587035
225	0xbd67cbbf	-0.05659079
226	0xbe0a9964	-0.13535076
227	0xbd864db6	-0.06557791
228	0xbe1576a3	-0.14596038
229	0xbe1ed340	-0.15510273
230	0xbe98a5a2	-0.29813868
231	0xbc8ed09f	-0.017433463
232	0x3d262478	0.040562123
233	0x3d76d09a	0.06025753
234	0xbd38a890	-0.04508263
235	0xbd8fb484	-0.070168525
236	0xbd1d3568	-0.03838101
237	0x3d07a10b	0.033112567
238	0x3c6712fb	0.014103646
239	0xbe30247d	-0.17201419
240	0xbd1d3d84	-0.038388744
241	0x3c7e6e9d	0.015529302
242	0x3c380e2a	0.011233846
243	0x3ddfdfec	0.109313816
244	0xbb8a37b1	-0.0042180647
245	0x3dea3ecf	0.11437761
246	0xbe163852	-0.14669922
247	0xbdcf6ddf	-0.10128378
248	0xbc24edd1	-0.0100664655
249	0x3e007b86	0.1254712
250	0xbe2eb475	-0.17061026
251	0xbe58b5a0	-0.21163034
252	0xbe3ab307	-0.18232356
253	0x3b9af3c0	0.0047287643
254	0x3da183d8	0.07886475
255	0xbda34542	-0.07972194

conv2.bias f4 [64]
0	0xbdf9e4a4	-0.12201813
1	0xbca5ed71	-0.020254822
2	0xbd7d2638	-0.061804026
3	0xbd44aefb	-0.048018437
4	0xbd4f4eef	-0.050612386
5	0x3dcb8d1d	0.099390246
6	0x3d41b581	0.047292236
7	0xbcfe69e8	-0.03105636
8	0x3c924c8b	0.017858764
9	0xbda7b716	-0.08189218
10	0x3d0a83fd	0.03381728
11	0xbc80fb2e	-0.015744772
12	0xbd950683	-0.07276633
13	0x3e3339c0	0.17502499
14	0x3e021dfc	0.1270675
15	0xbc8aaae0	-0.016927183
16	0x3b7c3f7c	0.0038489988
17	0xbda8ab8f	-0.08235847
18	0x3ddae26f	0.1068772
19	0xbdc28be7	-0.094993405
20	0xbe22763e	-0.15865418
21	0xbba8476b	-0.005135467
22	0xbcb029cf	-0.02150431
23	0x3d202454	0.039097145
24	0xbe12b8cf	-0.14328311
25	0xbdd25105	-0.102693595
26	0xbc66d794	-0.014089484
27	0x3d3b4906	0.045723937
28	0xbe0808d9	-0.13284625
29	0xbc13feed	-0.009032947
30	0x3db209dd	0.086932875
31	0x3df64ffc	0.120269746
32	0xbdfb040c	-0.12256631
33	0x3c5fbb30	0.013655469
34	0xbe1b713d	-0.15179916
35	0xbd8d0bfa	-0.0688705
36	0xbd9c13e1	-0.07620979
37	0xbc1679d1	-0.009184317
38	0x3d2711f3	0.040788602
39	0xbd52199e	-0.05129396
40	0xbc29f82f	-0.010374113
41	0xbe0e2200	-0.13880157
42	0x3e04716a	0.12933889
43	0x3d454cb0	0.048168838
44	0x3e0d238c	0.13783091
45	0xbe2516ee	-0.16122028
46	0x3c87ce88	0.016577974
47	0x3cf349dd	0.029698307
48	0x3d680ddf	0.056653854
49	0x3e0fc0e6	0.14038429
50	0x3d11f966	0.035638236
51	0xbe235e58	-0.15953958
52	0x3d86c53a	0.06580587
53	0xbca44526	-0.020052504
54	0x3d2d17bb	0.04225896
55	0x3e314b99	0.17313994
56	0x3d2f416e	0.042787008
57	0xbe26084a	-0.162141
58	0xbdfb29c2	-0.12263824
59	0xbce0d783	-0.027446514
60	0x3d7c4438	0.061588496
61	0x3c7c63b3	0.0154046295
62	0xbd370f87	-0.044692542
63	0xbd8f4b38	-0.06996769

fc1.weight f4 [256, 576]
0	0xbddf7708	-0.10911375
1	0xbcf5f3f1	-0.030023547
2	0x3df45acb	0.1193138
3	0xbd8680d8	-0.06567544
4	0x3e0c8c82	0.13725474
5	0x3d7475a2	0.059682496
6	0xba71b026	-0.00092196686
7	0x3db5d643	0.08878758
8	0x3de3865d	0.11109612
9	0xbdbf5d77	-0.09343999
10	0xbe1b8db2	-0.15190771
11	0x3d99dce8	0.07512838
12	0xbddcf171	-0.10788239
13	0xbe5a00a1	-0.21289302
14	0xbe1034ee	-0.14082691
15	0xbd55ece6	-0.052227877
16	0xbd88af44	-0.06674054
17	0x3c98023d	0.018555755
18	0xbdb58dc6	-0.08864932
19	0xbddddd1c	-0.10833189
20	0x3b9f9ae1	0.004870758
21	0x3cbede54	0.023299374
22	0xbcdb96f8	-0.026805386
23	0x3e5e5925	0.21713693
24	0x3d837d84	0.064204246
25	0x3e00ff17	0.12597309
26	0x3e9624b8	0.2932489
27	0xbe388cdc	-0.18022484
28	0xbd8b8c27	-0.06813841
29	0x3e0a22ee	0.13489887
30	0x3da7fcd2	0.082025185
31	0xbda7170c	-0.08158693
32	0x3e6cc278	0.23121059
33	0x3d5ba30e	0.053622298
34	0xbd83215c	-0.06402847
35	0x3d71432e	0.05890196
36	0x3c2385c3	0.009980622
37	0x3d14622f	0.036226448
38	0xbb10ca5f	-0.0022093279
39	0x3d7c02cd	0.06152611
40	0x3cef27b5	0.029193738
41	0x3d6596a2	0.056051858
42	0x3cb6cb8e	0.02231386
43	0x3ce086dd	0.027408058
44	0x3dc3f76f	0.095686786
45	0x3db0fc59	0.086418815
46	0xbbaff22e	-0.0053694462
47	0xbdc823da	-0.09772463
48	0x3e09d3fc	0.13459772
49	0xbd04659a	-0.032323457
50	0xbd04b303	-0.03239728
51	0x3e5f33a4	0.21797043
52	0x3bcb9049	0.0062122685
53	0xbd671117	-0.056412783
54	0xbe2df693	-0.16988592
55	0x3d27d844	0.04097773
56	0x3d6bfd52	0.057614632
57	0x3e7e0920	0.24808168
58	0x3e505c96	0.20347819
59	0xbd7b5508	-0.06136039
60	0xbcce50f7	-0.025185091
61	0x3cb57fa0	0.022155583
62	0xbd69d9c6	-0.05709245
63	0x3d1ced1c	0.038312063
64	0x3c6988aa	0.014253775
65	0x3d71d159	0.05903754
66	0xbd5cae40	-0.053877115
67	0xbe0e5691	-0.1390021
68	0xbdb61b79	-0.08891959
69	0x3dd59cc9	0.10430295
70	0x3da9f5a4	0.08298805
71	0x3cfd8e5f	0.030951677
72	0xbdf9ea17	-0.12202852
73	0xbdff46e7	-0.124646954
74	0x3dfb5144	0.122713596
75	0xbd1af494	-0.037830904
76	0xbc8d7ffa	-0.017272938
77	0xbe6e097b	-0.23245804
78	0x3c6929e0	0.014231175
79	0xbd1d2bac	-0.038371727
80	0xbde3f8f9	-0.11131472
81	0x3cd6fd14	0.026243724
82	0x3d158adb	0.036509376
83	0xbd0595a2	-0.032613404
84	0xbd55ec24	-0.052227154
85	0xbc55f8a7	-0.013059772
86	0xbdb257f4	-0.08708182
87	0x3e2af24f	0.16693996
88	0x3d47e1a8	0.048799187
89	0x3e3b366b	0.18282478
90	0xbc9348b4	-0.017979003
91	0xbcb6d77c	-0.022319548
92	0x3e2168a2	0.1576257
93	0xbcbdc28d	-0.023164058
94	0xbca8f6ba	-0.02062546
95	0x3dcee724	0.1010268
96	0x3dbc6d06	0.09200482
97	0x3d39190e	0.04518991
98	0x3d86f7e2	0.06590249
99	0x3c433812	0.011915224
100	0xbcca3561	-0.024683656
101	0xbdee1a89	-0.11626155
102	0x3c22eeed	0.00994466
103	0xbdd89a17	-0.10576265
104	0x3e2f9ae7	0.17148934
105	0xbe118a1f	-0.14212845
106	0xbd4ab4f4	-0.049488977
107	0x3e5b73f1	0.21430947
108	0xbc5b14b4	-0.013371635
109	0xbcad7830	-0.021175474
110	0xbce04912	-0.027378593
111	0xba583700	-0.0008247942
112	0xbcd86968	-0.02641745
113	0x3c8c1a7b	0.01710247
114	0xbcfe64ab	-0.031053862
115	0xbc2656eb	-0.010152559
116	0xbbb285e0	-0.005448088
117	0x3d505559	0.050862644
118	0xbd27eeba	-0.04099915
119	0xbdd8a8b3	-0.10579052
120	0xbe360972	-0.1777704
121	0xbeacbd4b	-0.3373817
122	0xbe830a7f	-0.25593945
123	0xbe2b65bc	-0.16738027
124	0xbdfa19b0	-0.12211931
125	0x3dd878a3	0.10569885
126	0x3d02b5e4	0.031911746
127	0x3d2e1320	0.042498708
128	0x3d308dc1	0.043103937
129	0x3c7d797b	0.015470858
130	0xbe000bf9	-0.12504567
131	0x3bda51bc	0.0066625755
132	0xbd2f414f	-0.042786893
133	0x3badef3e	0.005308061
134	0x3cc666fa	0.024219025
135	0x3ca03bea	0.01955982
136	0xbbf48b48	-0.0074628927
137	0x3d94f09e	0.072724566
138	0xbd06d8e9	-0.032921705
139	0xbe0c8dcf	-0.1372597
140	0xbe18c0ec	-0.14917344
141	0xbe54eff1	-0.20794655
142	0x3db77c74	0.089592844
143	0x3d140307	0.0361357
144	0xbe0a0bfe	-0.13481137
145	0x3d9df57c	0.07712838
146	0x3ce1bd96	0.027556222
147	0xbe9a5313	-0.30141506
148	0xbdea4cb7	-0.114404134
149	0xbd72ecc8	-0.059307843
150	0xbd0688b5	-0.032845218
151	0xbc3a0a83	-0.011355045
152	0xbe198b73	-0.14994602
153	0x3e03bb32	0.12864378
154	0x3e0461de	0.12927958
155	0x3db83831	0.08995093
156	0x3e133c8f	0.1437857
157	0xbd8f8313	-0.07007422
158	0x3d326caa	0.04356066
159	0xbd8eb642	-0.06968357
160	0xbe0cc812	-0.13748196
161	0xbd65ad46	-0.05607345
162	0x3d68b2df	0.05681121
163	0x3cd9f3ba	0.026605476
164	0x3dd3be01	0.10338975
165	0x3cdbef47	0.026847495
166	0xbdb324b6	-0.087472364
167	0xbdc9e8cd	-0.09858856
168	0xbdfb6bb7	-0.12276404
169	0x3bdf8b0d	0.006821996
170	0xbe2f9026	-0.17144832
171	0x3d7e3648	0.062063485
172	0x3c049d60	0.008094162
173	0xbc136eaf	-0.008998557
174	0x3e0ee661	0.1395507
175	0xbd3157b4	-0.04329653
176	0x3e3fb884	0.18722731
177	0x3c062411	0.00818731
178	0x3d28b72e	0.04119032
179	0xbda4d5b2	-0.08048572
180	0xbdb54b08	-0.08852202
181	0xbdc948a2	-0.09828307
182	0x3e2a0da5	0.16606767
183	0xbd67e7b6	-0.05661746
184	0xbe0e3713	-0.13888197
185	0x3dc23baf	0.0948404
186	0xbd499f6d	-0.049224306
187	0x3dc181fd	0.094486214
188	0x3e28fea2	0.16503385
189	0xbda3bc11	-0.07994855
190	0xbd5896f0	-0.05287832
191	0x3d861bcc	0.065482706
192	0xbd8f796c	-0.07005581
193	0xbdbbfb8a	-0.09178837
194	0xbd5e5768	-0.054282576
195	0x3da0cc98	0.07851523
196	0x3c1e1e60	0.009650797
197	0xbde95860	-0.11393809
198	0x3be54089	0.0069962186
199	0xbb86d89f	-0.0041151787
200	0xbcf6d4f8	-0.030130848
201	0xbcd9014a	-0.026489872
202	0x3b5fdb1b	0.0034157697
203	0xbd89b3c1	-0.067237385
204	0x3da8d81d	0.08244345
205	0x3e1096d0	0.1412003
206	0xbdb4c05b	-0.088257514
207	0x3c73b376	0.01487433
208	0x3d318974	0.043343976
209	0xbdd05bee	-0.10173784
210	0x3d5835cb	0.052785676
211	0x3cd13ed8	0.025542662
212	0xbe163da6	-0.14671955
213	0x3e013d2b	0.1262099
214	0xbe6f5092	-0.23370579
215	0xbeb57bcb	-0.3544601
216	0xbc86e6f9	-0.016467558
217	0x3d252f21	0.04032815
218	0x3d83e3d2	0.06439938
219	0xbd2b9e0f	-0.041898783
220	0x3c9656ae	0.018351879
221	0x3dfbc3ce	0.12293206
222	0xbc75ab77	-0.014994494
223	0x3c7caf4a	0.015422652
224	0x3df934f4	0.12168303
225	0xbd95b8d3	-0.07310643
226	0xbcd9e007	-0.026596082
227	0xbd0b26d1	-0.033972565
228	0xbe062d8b	-0.13103311
229	0xbdd1b973	-0.1024045
230	0xbc4846b9	-0.012223893
231	0xbdb6cbf0	-0.08925617
232	0xbe29417e	-0.1652889
233	0x3d499400	0.04921341
234	0xbd2d276a	-0.042273916
235	0x3e2338c0	0.15939617
236	0x3d0e5602	0.034749992
237	0xbdaf1927	-0.08549719
238	0xbde85663	-0.11344602
239	0xbe369888	-0.17831624
240	0x3e091c74	0.1338976
241	0xbced7765	-0.028987596
242	0x3e1ee059	0.1551527
243	0xbd3f12f9	-0.046648953
244	0x3d21f341	0.039538626
245	0x3db11266	0.08646087
246	0xbe014618	-0.12624395
247	0x3c89c399	0.016816901
248	0xbd9cc4de	-0.07654737
249	0xbd806cc7	-0.06270748
250	0xbd71ef93	-0.059066366
251	0x3d5703e0	0.05249393
252	0x3ddffc75	0.10936824
253	0xbc481758	-0.012212597
254	0x3d0b0830	0.033943355
255	0x3d822fa2	0.063567415

fc1.bias f4 [256]
0	0x3d928c96	0.07155721
1	0xbcbb948a	-0.022897977
2	0xbcb503e8	-0.02209659
3	0x3b3e79c3	0.0029064275
4	0x3cd23a19	0.025662469
5	0x3df87e1f	0.12133431
6	0x3d9b5760	0.07585025
7	0x3bbb42bc	0.0057147425
8	0x3d962289	0.07330806
9	0xbcf139c2	-0.029446486
10	0x3e06c96b	0.13162772
11	0xbd7a7f99	-0.061156843
12	0x3dc0b5a0	0.09409642
13	0xbd486905	-0.04892828
14	0x3e09fa12	0.134743
15	0x3cfd3cf7	0.03091286
16	0x3dc624fa	0.096750215
17	0xbdafc1a2	-0.085818544
18	0xbcd75cf2	-0.026289437
19	0xbd2277f5	-0.03966518
20	0x3c9ecefc	0.019385807
21	0xbc267cc2	-0.0101615805
22	0xbdb94546	-0.09046416
23	0xba8aa60e	-0.0010578053
24	0x3d9170f3	0.071016215
25	0x3d0140d2	0.031555958
26	0xbd9e6422	-0.077339426
27	0xbd0a173a	-0.033713557
28	0x3d7726fa	0.060339905
29	0x3cecc3d9	0.028901981
30	0x3e0f43b1	0.13990666
31	0x3d9bb9c6	0.07603793
32	0xbd1d8da7	-0.03846517
33	0x3df15d98	0.1178543
34	0x3c5c8122	0.013458522
35	0x3c0e8c32	0.008700417
36	0xbd78c4a7	-0.060734417
37	0xbda5e361	-0.0810001
38	0x3df48950	0.11940253
39	0x3cb7cb59	0.02243583
40	0xb93a2a4b	-0.00017754098
41	0xbd8d73eb	-0.06906875
42	0xbd8e7cf7	-0.06957429
43	0xbcbb8857	-0.02289216
44	0xbcba879a	-0.022769738
45	0x3bdbf1a7	0.006712157
46	0x3d72b0a1	0.059250478
47	0x3b6463b3	0.0034849464
48	0xbcde585a	-0.027141739
49	0x3dddce5f	0.10830378
50	0x3b50b066	0.0031843423
51	0xbd02fcc5	-0.03197934
52	0xbcb16060	-0.0216524
53	0x3d6354d1	0.05550081
54	0x3c9b5060	0.018959224
55	0xbb8f5959	-0.0043746647
56	0x3d12ea41	0.035867933
57	0xbd0f532b	-0.034991425
58	0x3daf819c	0.08569643
59	0xbc92ba82	-0.0179112
60	0x3c6a97da	0.014318431
61	0xbccb9ea3	-0.024855917
62	0x3da913b1	0.08255709
63	0xbbf2962d	-0.0074031563
64	0xbc42f0e6	-0.011898255
65	0xbd04e7c0	-0.032447577
66	0x3cdc4a9a	0.026891042
67	0xbcb375c0	-0.021906734
68	0xbdc09667	-0.09403687
69	0x3d9150a4	0.07095459
70	0xba381dfd	-0.00070235116
71	0xbcb817a8	-0.022472218
72	0x3cc779a5	0.024349997
73	0xbb4d4c5a	-0.0031326027
74	0xbb2b35e3	-0.0026124648
75	0x3e14cfa2	0.1453233
76	0xbd087e08	-0.033323318
77	0xbc006423	-0.007836374
78	0xbd040f2f	-0.032241043
79	0xbd129853	-0.0357898
80	0xbd5b8cc5	-0.053601045
81	0x3d1123ce	0.035434537
82	0x3c3832f5	0.011242618
83	0xbc3851d6	-0.01124998
84	0xbbd40424	-0.00647022
85	0xbd1fdfd5	-0.039031822
86	0xbd3f24b9	-0.04666588
87	0x3e018e8a	0.1265203
88	0x3bc8580d	0.006114012
89	0x3bdb8c63	0.006700085
90	0xbd3547dc	-0.044257984
91	0x3de57977	0.11204808
92	0xbd26f7ef	-0.04076379
93	0x3db9ec54	0.09078279
94	0xbbeab047	-0.007162127
95	0xbd77965e	-0.060446136
96	0x3d9f9b4b	0.07793292
97	0x3d903ab3	0.07042446
98	0x3d616f9b	0.055038076
99	0xbd15309f	-0.03642332
100	0x3c6a2377	0.014290682
101	0xbce92a09	-0.028462427
102	0x3d8f4971	0.0699643
103	0x3d095c80	0.03353548
104	0x381f6bd8	3.800899e-05
105	0xbca80867	-0.020511819
106	0x3d7d6a4a	0.061868943
107	0xbd937d26	-0.072016045
108	0xbd84f6e3	-0.064924024
109	0x3c6758c3	0.014120284
110	0xbd032276	-0.032015286
111	0xbaef950e	-0.0018278675
112	0x3dc74013	0.09729018
113	0xbcf2a8f7	-0.029621584
114	0x3d3a54ef	0.045491155
115	0xbd0e9c93	-0.03481729
116	0xbd843f8e	-0.064574346
117	0xbbccd127	-0.006250519
118	0x3afb4fb7	0.0019173537
119	0xbd8aae4c	-0.06771526
120	0xbc831ae0	-0.016004026
121	0x3c748d0b	0.014926205
122	0xbcdaebe4	-0.02672381
123	0x3d4028ea	0.04691402
124	0x3e06b57a	0.13155165
125	0x3c74dc29	0.014945068
126	0xbd928bf9	-0.07155604
127	0x3e0b37e8	0.13595545
128	0xbc662c0e	-0.014048589
129	0x3c0cdf72	0.008598195
130	0x3e088b25	0.1333433
131	0x3cb4e8fb	0.02208375
132	0xb9b91deb	-0.0003530824
133	0x3cde2073	0.027115082
134	0xbc1dcbfa	-0.009631151
135	0xbb811bae	-0.0039400673
136	0xbd412041	-0.0471499
137	0x3d46416f	0.048402246
138	0x3e206ea2	0.15667203
139	0x3d451693	0.04811723
140	0xbd441988	-0.04787591
141	0x3d761a68	0.060083777
142	0x3e143b91	0.14475848
143	0x3c77d4d6	0.015126428
144	0xbc77cfa0	-0.015125185
145	0xbc074bc8	-0.008257814
146	0xbd14d5ba	-0.036336638
147	0x3d31a492	0.043369837
148	0xbd139e48	-0.03603962
149	0xbd172c38	-0.036907405
150	0xbd65bef0	-0.056090295
151	0xbd23f776	-0.04003092
152	0x3d727363	0.059192073
153	0xbcb8308e	-0.02248409
154	0xbc813b81	-0.015775444
155	0xbaef9064	-0.0018277285
156	0xbcba4db8	-0.022742137
157	0xbd00aecb	-0.031416696
158	0xba6a905b	-0.0008947902
159	0xbc859352	-0.0163056
160	0xbcdc326f	-0.026879517
161	0xbd7dcf96	-0.061965548
162	0xbd853df6	-0.06505959
163	0xbd64949f	-0.0558058
164	0x3e44d780	0.19222832
165	0xbbc272ff	-0.0059341188
166	0x3d0aaf8b	0.033858817
167	0x3d575231	0.05256862
168	0xbd0dc93c	-0.03461574
169	0xbccdde03	-0.025130277
170	0xbd736b70	-0.059428632
171	0x3ddbbb53	0.10729089
172	0x3d1fd5f3	0.039022397
173	0x3da526fa	0.08064075
174	0xbcd81487	-0.026376976
175	0x3d5dae57	0.05412134
176	0xbd2b8c4e	-0.04188185
177	0x3d8f937e	0.07010554
178	0x3cb62f11	0.02223924
179	0x3d822247	0.06354194
180	0x3e33fdfd	0.17577358
181	0x3c1808b0	0.009279415
182	0x3a0afcfc	0.000530198
183	0xbbc19003	-0.00590706
184	0x3ca043e3	0.01956362
185	0xbbf8c5a0	-0.007591918
186	0x3db2d13e	0.08731316
187	0xbdaa5a01	-0.08317948
188	0x3d226216	0.039644323
189	0x3d9e5267	0.07730561
190	0xbca443cb	-0.020051857
191	0xbd82d3a4	-0.063880235
192	0xbc9275b2	-0.017878387
193	0x3e0f52ca	0.13996425
194	0x3c9632d4	0.018334784
195	0xbc8717ad	-0.016490782
196	0x3c1c071d	0.00952318
197	0x3d2367e8	0.039894015
198	0xbd2666b2	-0.04062528
199	0x3deaaeba	0.11459108
200	0x3c1d1c66	0.00958929
201	0xbd272278	-0.040804356
202	0x3e4aaade	0.19791743
203	0xbd724a66	-0.059152983
204	0xbd454c16	-0.048168264
205	0x3baedc45	0.005336317
206	0x3c87507c	0.01651787
207	0xbce00ab8	-0.027348861
208	0x3cbe1aa1	0.023206057
209	0xbcdebf66	-0.027190875
210	0xbd332750	-0.043738663
211	0xbc1dd9b3	-0.009634423
212	0x3d6bf33f	0.057605024
213	0x3dc0fab1	0.094228156
214	0xbd3d3d92	-0.046201296
215	0x3db5cfaa	0.088774994
216	0xbd8d3293	-0.06894412
217	0x3ddeb0c6	0.108735606
218	0x3cf5c157	0.029999418
219	0xbc04395a	-0.008070314
220	0x3d3978df	0.045281287
221	0x3c5bd243	0.0134168295
222	0x3d8cd129	0.06875832
223	0xbc6450d6	-0.013935288
224	0x3b7b5ef1	0.003835615
225	0x3d8033bc	0.062598675
226	0xbd049f36	-0.032378398
227	0xbc413865	-0.011793231
228	0x3d8d4296	0.06897466
229	0xbd134347	-0.035952833
230	0x3cb37c5c	0.021909885
231	0xbb2fe16c	-0.0026837243
232	0x3da8f663	0.082501195
233	0xbbb49abf	-0.0055116112
234	0xbd99787c	-0.07493684
235	0xbc20df83	-0.009818914
236	0xbd0b2c66	-0.03397789
237	0xba82b1e1	-0.0009971225
238	0x3d9e2111	0.07721151
239	0xbcf143a3	-0.029451197
240	0xbbc5bb07	-0.0060342583
241	0xbd34bd76	-0.044125997
242	0x3d8fc17f	0.07019328
243	0x3de19052	0.11013855
244	0xbd1b08ec	-0.037850305
245	0x3e06a9db	0.13150732
246	0x3d1ccb9e	0.038280122
247	0xbd32de09	-0.04366878
248	0x3c2993e4	0.010350201
249	0x3e000012	0.12500027
250	0xbbb16520	-0.0054136664
251	0x3df9ccd6	0.121972725
252	0xbc824e11	-0.015906366
253	0x3d92cea3	0.07168319
254	0xbc647fa8	-0.013946451
255	0xbcdae6ff	-0.026721476

fc2.weight f4 [10, 256]
0	0xbe30506e	-0.17218181
1	0x3e9c149e	0.3048448
2	0x3c96bee6	0.018401574
3	0x3e26d856	0.16293463
4	0x3db62b33	0.08894958
5	0xbe3aa999	-0.18228759
6	0xbe9f3b22	-0.31099802
7	0x3e0516a3	0.12996916
8	0xbe6fc4ef	-0.23414968
9	0xbd56b736	-0.052420817
10	0xbc4154da	-0.011800015
11	0xbd8b1d18	-0.067926586
12	0xbe7e257a	-0.24818984
13	0x3d28d2ec	0.041216776
14	0xbe762d83	-0.24040799
15	0xbede3cb7	-0.43405697
16	0xbd7a5190	-0.06111294
17	0xbdc08dff	-0.094020836
18	0x3ab03bf6	0.0013445604
19	0xbb2855eb	-0.0025685977
20	0xbc3d8589	-0.011567482
21	0x3d3c1b2f	0.04592436
22	0xbc2b4065	-0.010452365
23	0x3d307a91	0.04308564
24	0x3e4745df	0.19460247
25	0xbdf407dc	-0.119155616
26	0x3a80321a	0.0009780556
27	0xbcf18525	-0.029482434
28	0x3d0e5fcc	0.034759328
29	0x3e214951	0.15750624
30	0xbe40288d	-0.18765469
31	0x3e1e4734	0.1545685
32	0x3c8c6880	0.017139673
33	0x3de640bc	0.11242816
34	0x3d1bea58	0.038065284
35	0x3d847ec7	0.06469493
36	0x3def1849	0.11674554
37	0xbeb175b6	-0.3466012
38	0xbe50b555	-0.20381673
39	0x3dd56e06	0.10421376
40	0x3c963b30	0.01833877
41	0xbcb4c994	-0.022068776
42	0x3c6b1f52	0.014350729
43	0x3c055f9e	0.008140473
44	0x3bdaf97a	0.006682572
45	0xbbeb3052	-0.007177391
46	0x3d7ac515	0.06122311
47	0xbc8b983f	-0.01704037
48	0xbebcf8b1	-0.36908486
49	0x3d8a89d0	0.06764567
50	0xbc85c632	-0.016329858
51	0x3e17dfa1	0.14831401
52	0x3e17e605	0.14833839
53	0xbec920be	-0.39282793
54	0x3d9c8d8d	0.07644186
55	0x3e3da037	0.18518148
56	0x3db2ec24	0.087364465
57	0x3c586ba1	0.0132092545
58	0x3d304ed4	0.043043926
59	0xbc4ce56b	-0.012505869
60	0xbe9f600f	-0.31127974
61	0xbd48bb37	-0.049006667
62	0xbdd81e24	-0.10552624
63	0xbbadec48	-0.005307708
64	0xbd63c122	-0.055604108
65	0x3c486457	0.012230954
66	0x3d468489	0.04846624
67	0xbb10835e	-0.0022050957
68	0x3e44649a	0.19179001
69	0x3e234125	0.1594282
70	0xbd1e7783	-0.038688194
71	0x3e4ce37a	0.2000865
72	0xbc9bcaf6	-0.019017678
73	0x3d2158c7	0.039391305
74	0x3b1bfb59	0.0023800938
75	0x3d8b7011	0.06808484
76	0x3b9162d8	0.004436832
77	0x3b822fcd	0.0039729835
78	0x3d0c032e	0.03418272
79	0xbce7e2fc	-0.028306477
80	0xbd353aea	-0.044245638
81	0xbe867686	-0.262623
82	0xbd3da433	-0.04629917
83	0xbee10874	-0.43951762
84	0xbcf47baa	-0.029844124
85	0xbd47446e	-0.048649244
86	0xbd03d8e5	-0.03218927
87	0xbddc2c18	-0.10750598
88	0x3c2c7c8e	0.010527743
89	0x3ba6e2b5	0.0050929436
90	0x3bd2e515	0.006436
91	0xbebc6877	-0.3679845
92	0x3e2e1669	0.17000736
93	0x3de3d5c9	0.11124761
94	0xbc7505ae	-0.014954967
95	0x3d78d918	0.06075391
96	0x3e2b1c3f	0.16709994
97	0x3e0b4d3f	0.13603686
98	0xbd6b448c	-0.05743842
99	0x3e497d0f	0.19676612
100	0x3de7b7b8	0.113143384
101	0xbb0637b6	-0.0020479984
102	0xbe1dbf49	-0.15405001
103	0x3b538b0c	0.0032278923
104	0x3d7620c9	0.06008986
105	0x3d168cbd	0.036755312
106	0x3def61fe	0.116886124
107	0x3d214663	0.039373767
108	0xbd72b945	-0.059258718
109	0x3d55e0a7	0.0522162
110	0xbe829c19	-0.25509718
111	0x3e1faed2	0.15594032
112	0xbe541ae9	-0.2071339
113	0xbd514dce	-0.05109959
114	0x3db0241a	0.08600636
115	0xbac6e144	-0.0015173336
116	0x3c07e87f	0.0082951775
117	0x3dd1793d	0.102282025
118	0xbd2b52e1	-0.041827086
119	0x3d94c70a	0.07264526
120	0x3d39cac1	0.045359377
121	0xbd2e3003	-0.042526256
122	0xbcf6b3ae	-0.030114975
123	0x3e11f127	0.14252149
124	0xbed91a9a	-0.42403108
125	0xbb0cbefb	-0.0021476138
126	0x3c49e1ed	0.012321931
127	0x3dc3f2a5	0.09567765
128	0x3d9d4d1b	0.07680722
129	0x3b94f487	0.0045457515
130	0xbed254a8	-0.41080213
131	0xbe97b40b	-0.2962955
132	0xbe9e109f	-0.30872056
133	0xbcffb350	-0.031213433
134	0x3d9a2020	0.075256586
135	0x3c59a43f	0.013283788
136	0xbda3a397	-0.07990187
137	0x3db02259	0.08600301
138	0xbd0ec25a	-0.034853317
139	0x3dc73628	0.09727126
140	0xbbc57795	-0.006026218
141	0xbeaaa8ea	-0.33331996
142	0x3e730278	0.2373141
143	0x3dcd3455	0.10019747
144	0xbc524829	-0.012834587
145	0xbc1c92bc	-0.009556469
146	0x3ba95850	0.0051679984
147	0x3e0cbdf1	0.13744332
148	0x3a80d510	0.0009829123
149	0x3df3cd68	0.119044125
150	0x3ded3840	0.115829945
151	0x3d0c2779	0.03421733
152	0xbe93f804	-0.28900158
153	0x3e1c71ad	0.15277739
154	0xbe05e99c	-0.13077396
155	0xbeb060bb	-0.344488
156	0xbdfba7de	-0.122878775
157	0x3bd41370	0.0064720437
158	0xbdf25cfd	-0.11834142
159	0xbd810fda	-0.063018516
160	0xbc5e65de	-0.013574092
161	0xbf116c50	-0.56805897
162	0xbceae3eb	-0.028673133
163	0x3e16faf2	0.14744166
164	0xbea7258e	-0.3264584
165	0xbc8cb04d	-0.01717391
166	0x3d6274d6	0.055287205
167	0x3dce3b8b	0.10069951
168	0x3c0204b8	0.007935695
169	0x3e637b9e	0.22215125
170	0xbd4bb9c0	-0.049737692
171	0xbec5add2	-0.38609177
172	0x3de39c7d	0.11113832
173	0x3ceefc58	0.029173061
174	0x3bf7d0a9	0.007562716
175	0x3def2b53	0.11678185
176	0x3cab6e27	0.020926548
177	0xbe5634a5	-0.2091852
178	0x3da3e0c5	0.08001856
179	0xbe3a1865	-0.18173368
180	0xbe8604f7	-0.26175663
181	0xbea400bd	-0.32031813
182	0x3dc9fc5e	0.09862588
183	0x3ddab338	0.106787145
184	0xbcb7c93c	-0.022434823
185	0xbdecc721	-0.11561418
186	0x3d6efa1d	0.058343995
187	0x3e100a10	0.14066339
188	0x3dc34ef5	0.09536544
189	0xbdec84d6	-0.11548774
190	0x3d118a5b	0.035532337
191	0x3d25b6c0	0.040457487
192	0xbd14d795	-0.036338408
193	0x3d0085af	0.03137749
194	0xbcd1f47f	-0.02562928
195	0xbec19528	-0.3780911
196	0x3d38dad1	0.045130555
197	0xbe640a4d	-0.22269554
198	0x3e3b78fb	0.18307869
199	0xbef6c11c	-0.48194206
200	0xbcf54a2a	-0.02994259
201	0xbd5bafd6	-0.053634487
202	0xbec1f467	-0.37881777
203	0x3d0fb2a2	0.035082467
204	0x3de81066	0.11331253
205	0x3c8fa5bf	0.017535089
206	0xbeb4284c	-0.35186994
207	0xbd30b31c	-0.043139562
208	0x3dfc3b5a	0.12316008
209	0xbc8295e2	-0.01594061
210	0xbd24fbba	-0.040279128
211	0xbd29af71	-0.04142708
212	0x3ddaa87d	0.10676668
213	0x3dfd8443	0.123787425
214	0xbc33a0db	-0.010963644
215	0xbd293e06	-0.041318916
216	0xbe9ce9d2	-0.3064714
217	0x3d8aa0d4	0.06768957
218	0x3dd4d622	0.10392405
219	0x3cce3d07	0.025175584
220	0x3d5b1d47	0.053494718
221	0xbd1d426e	-0.03839343
222	0x3e36a80d	0.17837544
223	0xbd25a635	-0.04044171
224	0x3d30ef59	0.04319701
225	0xbdb321cf	-0.08746683
226	0x3d2cd8fb	0.042199116
227	0xbe575182	-0.21027187
228	0xbe13e61e	-0.14443251
229	0x3d0ef898	0.034905046
230	0xbd0691ad	-0.03285377
231	0xbd43a176	-0.047761403
232	0x3dabf8af	0.08397042
233	0x3e1ac1b8	0.1511296
234	0xbda4926a	-0.08035739
235	0xbcb216dd	-0.021739418
236	0xbd1310f2	-0.035904832
237	0xbd228a72	-0.039682813
238	0xbd932d70	-0.07186401
239	0x3cc4f6b2	0.024043415
240	0x3d5f53a6	0.054523133
241	0xbc86eca3	-0.016470259
242	0xbe9b46d5	-0.30327478
243	0x3e47d3d9	0.19514407
244	0xbccfecb9	-0.025381433
245	0x3d67f61c	0.056631193
246	0x3e090644	0.13381296
247	0xbe96c4c4	-0.29446995
248	0xbd854aad	-0.06508384
249	0x3d324207	0.04352
250	0xbd1a283b	-0.037636023
251	0x3de6cd90	0.11269677
252	0xbc0c88b7	-0.008577517
253	0x3e09a336	0.13441166
254	0x3ce9dbdc	0.02854722
255	0xbca10d8a	-0.019659776

fc2.bias f4 [10]
0	0xbe68d692	-0.22738102
1	0xbe2d1142	-0.16901115
2	0xbda8d39d	-0.08243487
3	0x3dcbbb44	0.099478275
4	0x3e4460e1	0.19177581
5	0xbdca4d7e	-0.09878062
6	0x3ccf684d	0.02531829
7	0xbc709cc0	-0.01468581
8	0xbd661560	-0.05617273
9	0x3d18ee07	0.037336376
