saved_models/fmnist_qnn.pt (torch, 683575 bytes, 8 tensors)

conv1.weight f4 [32, 4, 3, 3]
000000 04 d3 97 3e da 70 00 be 45 78 a2 be f0 7f 31 3e
       0.2965318 -0.1254305 -0.31732383 0.1733396
000010 8d 11 18 3d 27 98 d9 3d 0b 34 31 3e b9 84 6b be
       0.037126113 0.10624724 0.17305009 -0.22999848
000020 d4 e4 9c bd 93 f9 57 bd 7e aa 84 3c 3d 1e cc bc
       -0.07660833 -0.052728247 0.016194578 -0.024916762
000030 5f f9 80 3c 4a fc 7b be 8c d2 6e 3e e1 f3 0d be
       0.01574391 -0.2460796 0.23322505 -0.13862564
000040 89 47 1b 3e 3f 42 5c 3e 35 ea 1b 3e 93 e4 b1 bd
       0.15164007 0.21509646 0.15226062 -0.08686175
000050 57 ca f9 bb 50 67 c1 3d be 04 be be f6 b4 81 be
       -0.0076229977 0.094435334 -0.37112993 -0.25333375
000060 b7 48 ee 3d 64 c8 a6 be 27 68 8d bd 83 bf 1a be
       0.11634963 -0.3257476 -0.06904631 -0.15112118
000070 7f 71 0d bd 33 8a 54 3e ce 0c 1c 3d a2 08 a1 3e
       -0.034532066 0.20755844 0.03809815 0.314519
000080 6e c2 03 bd 00 57 c4 bd 24 16 68 3e 5b 36 ad be
       -0.032167844 -0.095869064 0.22664696 -0.33830532
000090 3d 10 7c 3d 02 46 3b be b7 f5 eb bd 34 8a 17 be
       0.061538924 -0.18288425 -0.11521476 -0.14798814
0000a0 1e 61 76 bc c5 5f 57 3d 21 de 76 be 7d 4e 77 bc
       -0.015037803 0.052581567 -0.24108173 -0.015094397
0000b0 c2 d6 0b be 6a 42 b8 3e 42 fd 89 3e 09 b2 89 3d
       -0.13656142 0.3598817 0.26951033 0.06723411
0000c0 fe 24 cb 3e 0d 8d 77 3e ec 24 43 bd 2e db 53 bd
       0.3967666 0.241749 -0.047642633 -0.051722698
0000d0 c3 ea c9 bc 82 7e a6 3d b6 f3 4a bd a2 6b 5f 3e
       -0.024648076 0.08129598 -0.049548827 0.21818402
0000e0 99 82 55 3e a5 c6 ce be d4 27 80 3e a5 16 ce 3d
       0.208506 -0.4038593 0.25030386 0.10062913
0000f0 9f 4b 3f be 62 96 16 bd 95 4d 52 be 5f f0 96 3d
       -0.18681191 -0.03676451 -0.20537408 0.07370066
000100 19 cc 69 3e 10 75 8f 3e dc f8 99 bd d6 4c a0 3e
       0.22831763 0.28019 -0.07518169 0.3130862
000110 ba 75 a4 3e da f0 62 bd 70 a0 16 be a9 17 97 bc
       0.32121068 -0.055405475 -0.1470964 -0.0184439
000120 2d 99 96 bd 55 35 93 bd f2 b7 ab bd df 47 a6 bd
       -0.07353435 -0.07187907 -0.08384694 -0.08119177
000130 a6 ce 32 be bd 73 59 bd bb 05 57 3e 63 f4 d2 3d
       -0.17461643 -0.053088892 0.2099828 0.10300519
000140 19 3a 49 3d 63 3b cb be b3 77 52 3d 94 28 f1 bd
       0.049127672 -0.39693746 0.051383685 -0.11775318
000150 84 63 d2 bd d1 c9 97 be 01 ff 54 bd a2 fb ee 3e
       -0.10272887 -0.2964616 -0.052001003 0.46676356
000160 cf 08 b8 3e 5f 0e 4e 3e 3e 00 bc be 4e 40 7f be
       0.3594422 0.2012267 -0.36718935 -0.24926874
000170 c0 47 6f 3c 9b a8 0c 3e 56 ea 1e 3e 3b 1d 87 be
       0.014604509 0.13736193 0.1551908 -0.2638949
000180 1a d9 65 3e 1c 3d c5 3e dd e6 5d 3e 0f c1 a6 bc
       0.22446099 0.38523185 0.21670099 -0.02035573
000190 82 82 89 3d b2 c5 b7 bd 07 7a ea bd df 22 24 3d
       0.067143455 -0.08973254 -0.11449056 0.04007232
0001a0 1a 1f 51 3e 0c b1 3e 3e 7f ab 4a bd 5f a7 53 be
       0.2042202 0.18622226 -0.049479958 -0.20669316
0001b0 6e d9 b1 3d 70 95 7f 3e 58 47 4f be 35 22 22 3c
       0.086840495 0.2495935 -0.20242059 0.009895851
0001c0 16 34 02 3e 97 68 ac be 56 27 39 be aa 34 a2 3e
       0.12715182 -0.33673546 -0.18081412 0.31680804
0001d0 d9 7d e5 bd f3 cb af be da d5 11 bd e3 f1 3c bd
       -0.11205644 -0.34335288 -0.035604335 -0.04612912
0001e0 01 86 85 3d 2a e4 95 3d c1 24 14 3e 3e f7 43 be
       0.065197 0.073189095 0.14467146 -0.19137284
0001f0 4d 28 39 3e fa 58 f4 bd 0e 7f 9a bd 4b 64 3d 3e
       0.1808178 -0.119310334 -0.07543765 0.1849529
000200 2f 06 dc be 1c 87 e7 bd 06 c9 e0 3e cb d3 4c be
       -0.42973468 -0.11305067 0.4390337 -0.20002668
000210 c3 53 49 be e7 b6 47 3e 13 21 10 3d 69 81 74 3c
       -0.19660859 0.19503365 0.035187792 0.014923432
000220 cf 40 01 3e 63 0a 9b be 7a e8 d0 bd 40 09 4d 3e
       0.12622379 -0.30281362 -0.102005914 0.2002306
000230 ae 44 8f bc 67 26 7f be a4 bd a1 3e 72 ba 6b bd
       -0.017488804 -0.24916993 0.31589997 -0.057550855
000240 37 b5 30 bd 13 0d 7e 3d c7 11 d4 bc d0 88 58 be
       -0.04314157 0.062024187 -0.025887383 -0.2114594
000250 26 5e aa 3d 3d e4 81 3e 6a 53 4b 3d 73 bb 66 bd
       0.08318739 0.25369444 0.049640097 -0.05633111
000260 89 88 20 bc a9 db 82 3c 3d 20 b7 3e 20 0d 4d 3e
       -0.0097981775 0.015973883 0.35766783 0.20024538
000270 c5 ca 87 be e8 90 7e 3d 61 62 db 3e 60 f1 84 be
       -0.26521888 0.062149912 0.42848495 -0.25965405
000280 8e 41 1b be 29 dd 14 bd 35 e0 6d be 71 28 18 3d
       -0.15161726 -0.036343727 -0.2323006 0.037147943
000290 0c 61 c6 3e 7b 45 c6 be 7c c5 9a be ea b5 48 3e
       0.38745916 -0.38724884 -0.30228794 0.19600645
0002a0 d0 9f 9c bd a0 54 79 be 7b 5e 0f be af 68 08 be
       -0.07647669 -0.24348688 -0.14000885 -0.13321184
0002b0 c8 70 d0 bd f0 7a 91 bd af 94 a4 bc 9b ab ef 3a
       -0.10177761 -0.071035266 -0.02009043 0.0018285395
0002c0 f1 26 97 3e 5c 9b 77 bd fe bd 02 be 6f 92 f5 bd
       0.29521897 -0.060450897 -0.12767789 -0.119908206
0002d0 e3 6b ed 3c 33 97 82 be 70 86 a1 3e 31 ef ba 3d
       0.028982108 -0.2550598 0.3154788 0.091276534
0002e0 be 41 03 3e 2f 45 f3 be 33 99 8a be c1 f4 2b 3e
       0.12818047 -0.4751372 -0.27070007 0.16792585
0002f0 94 07 e3 bd 12 75 7d bd 51 de e8 3e 58 df 8f bd
       -0.1108543 -0.061879225 0.45482114 -0.07025021
000300 b0 cf d5 3e 26 a3 59 be 95 24 99 be 2a 7e 50 be
       0.41760015 -0.21253642 -0.29910722 -0.20360628
000310 b5 4c 6b be 1e 3d 14 3e 2f 0c d2 bd 77 88 23 3d
       -0.2297848 0.1447644 -0.1025623 0.039925065
000320 28 f2 77 3e 84 9a dd bd e1 78 99 3d c1 7f 79 3d
       0.24213469 -0.10820487 0.07493759 0.06091285
000330 3d 4a a8 bc 50 c5 4b 3d 26 37 d9 bb 80 9f 6e 3e
       -0.020543212 0.04974872 -0.0066288887 0.23303032
000340 f2 61 0b 3f db 32 a9 be bf df 80 be f3 ac 7c bd
       0.5444633 -0.33046612 -0.25170705 -0.061688375
000350 78 c9 c3 bd 3d 90 34 be 82 b2 81 bd 9f 31 0f 3e
       -0.095599115 -0.17633148 -0.06332876 0.13983773
000360 bb 18 d3 3c b3 3f 33 3d 0f 0e 0b 3e 6a 5f e3 bd
       0.025768628 0.04376192 0.13579582 -0.11102183
000370 4c af d6 3d 46 76 2b bd 05 ac 1e bd 77 46 f0 bc
       0.10482654 -0.04186084 -0.03873827 -0.029330475
000380 be 99 8c 3e 59 35 ed 3e ee 6d 85 bd 4b 82 66 be
       0.27461046 0.46329764 -0.06515108 -0.2251064
000390 f8 4c 60 3e 8a 2a d7 be d2 3a b5 3d a9 74 2b be
       0.21904361 -0.42024642 0.0884911 -0.16743721
0003a0 12 b4 00 3e 6d dd 77 bd a6 d3 1b 3e 24 cd eb 3e
       0.12568691 -0.060513902 0.15217456 0.46054947
0003b0 e1 1b 84 be 16 af de 3d a3 af a8 be 70 cd cd bd
       -0.2580252 0.10873239 -0.329465 -0.1004895
0003c0 1e ba 97 be 13 0b ba be 25 87 2c 3d e1 1c 8a 3e
       -0.29634184 -0.36336574 0.04212107 0.26975158
0003d0 90 94 d7 3e 24 93 38 3e f3 c7 24 be 98 8c 60 be
       0.42105532 0.1802488 -0.160919 -0.21928632
0003e0 e0 2b 4f 3d 1c 3b 7f be 60 04 34 be 1f 3d 9b 3d
       0.05057895 -0.24924892 -0.17579794 0.07580017
0003f0 50 6e 97 bd af 55 3b be 3a b6 98 3e 43 68 8f be
       -0.07394087 -0.18294404 0.29826528 -0.28009233

conv1.bias f4 [32]
000000 46 f8 5f bd 93 f6 8b be b5 2e 3b bd c5 26 ae bd
       -0.05468013 -0.2733656 -0.04569884 -0.085034885
000010 f3 29 3d bd 5a 00 a2 bd 88 75 1b be cd 93 06 bd
       -0.046182584 -0.07910223 -0.15181553 -0.032855798
000020 57 68 71 3d 55 4d b7 bd c7 18 f4 bb c4 23 ab bb
       0.058937397 -0.08950297 -0.0074492428 -0.0052227695
000030 d6 91 db bd df c0 3c be 6b b4 5e 3c 2b fb 8c bc
       -0.107211754 -0.1843295 0.01359282 -0.01720961
000040 41 f1 ae be 0c e5 e9 3c bc 31 f9 bc 1b cd 22 bd
       -0.34168437 0.0285516 -0.030419223 -0.039746385
000050 df ff ee bd 14 fc b8 be 16 af 35 be f5 0d a7 bd
       -0.11669897 -0.3612982 -0.17742571 -0.08156959
000060 1d 7b f2 3b 43 56 d3 3d 72 68 0c be cf e5 17 3e
       0.00739993 0.103191875 -0.13711718 0.14833759
000070 73 90 32 be 42 bf a5 be 05 c6 d0 3d 49 a5 8b 3d
       -0.17437916 -0.3237248 0.10194019 0.06818635

conv2.weight f4 [64, 32, 3, 3]
000000 93 a0 65 3d c6 ab 8a bc dd 3f 65 3d ef c2 74 be
       0.05606134 -0.016927611 0.055969108 -0.23902486
000010 53 6b ee 3d 18 7d e8 3d eb 0f cf bd f2 22 b6 3c
       0.11641564 0.11351985 -0.10110458 0.02223346
000020 62 e9 04 bc 0f 46 c6 3d 46 66 8e 3d e0 b7 6b bd
       -0.008112283 0.09681331 0.06953101 -0.057548404
000030 24 7f 4f 3e 04 a0 fb bd bc c0 d9 3d 8e bb 3c 3e
       0.20263344 -0.1228638 0.10632464 0.18430921
000040 7b d2 32 3d 42 d3 54 3d c4 a7 48 3e 15 0e 71 bc
       0.04365776 0.051959284 0.19595248 -0.01471283
000050 2d b5 11 3e b1 e5 fd 3c 71 9e 96 bc 7b 85 cc 3b
       0.1422927 0.030993314 -0.018386098 0.006241498
000060 89 8d b8 bc 4b 5b 60 3d 38 0d ce 3d 3e c9 2e be
       -0.022528427 0.054774564 0.10061115 -0.17068955
000070 07 9c 1f bc f0 d5 88 3d 0b 0e 8d be 3e 15 2e be
       -0.00974179 0.0668143 -0.27549776 -0.17000291
000080 40 4b f2 3d 88 11 50 be bb a5 12 be 21 9e 08 3e
       0.11830759 -0.20319188 -0.14321034 0.13341571
000090 6b 69 ab ba ab ca 8e be 08 b0 95 3d 29 20 01 3e
       -0.0013077682 -0.27888998 0.07308966 0.12609924
0000a0 2d ee 88 bd 14 9b 94 3d 21 f9 50 be 80 ce 12 3e
       -0.066860534 0.07256141 -0.20407535 0.14336586
0000b0 86 ba a1 3d ab a4 37 3b 77 31 3f 3e 0b 11 1c be
       0.07896905 0.0028021734 0.18671213 -0.15240876
0000c0 bd 44 70 3d 48 c8 26 3e a3 a7 7c bd 86 44 42 3e
       0.058659304 0.16287339 -0.06168331 0.18971452
0000d0 25 5f 15 be d8 e2 14 bd b6 52 dc 3b 5d b6 51 3e
       -0.14587076 -0.036349148 0.006723727 0.20479722
0000e0 84 82 95 bd ca 14 b7 bc c3 01 07 3e b0 ea 81 be
       -0.073002845 -0.02234878 0.13184266 -0.25374365
0000f0 46 ba 03 3e 35 07 26 bd 76 0d 17 bd 5c 4a 1c be
       0.12864026 -0.040534217 -0.03687807 -0.15262741
000100 37 02 89 be d8 20 64 3e 0e b7 ed bd dc 54 e4 bd
       -0.26759502 0.22278154 -0.116071805 -0.11148998
000110 99 a9 03 bb e8 2a 36 be 26 e0 d3 bd 13 86 da bc
       -0.0020090102 -0.17789805 -0.10345487 -0.02667526
000120 0a 82 69 3d 35 7a 8c 3d a0 07 8d bd 87 0b 76 bd
       0.05700878 0.06859247 -0.0688622 -0.060069587
000130 a7 5d 9d bd d1 53 75 be 2b a4 ba bd 4b 6d 39 bc
       -0.076838784 -0.23957755 -0.09113344 -0.011317561
000140 a6 82 86 bd 2e 62 01 3e bc 44 c6 be 19 3a c1 3c
       -0.06567888 0.12635109 -0.38724315 0.023587273
000150 f3 73 91 bc 66 b9 e0 3c d3 02 26 3e 0f a7 7d be
       -0.017755484 0.027432155 0.16212015 -0.24770759
000160 e9 d9 21 3e 7c 02 1f bd 76 a2 af bd b7 d6 95 3d
       0.15805782 -0.03882073 -0.08575909 0.07316344
000170 42 8a 18 3d 61 3d 58 3d b5 96 af 3b ef 85 bb bd
       0.037241228 0.05279291 0.005358542 -0.09156405
000180 6a 4d 11 be 91 44 64 3c fd 18 d2 bd 90 6c 80 3e
       -0.14189687 0.013932363 -0.102586724 0.25082827
000190 0c 05 61 bd 61 f1 38 3e 33 f1 7d 3d be 60 71 bd
       -0.054936454 0.18060829 0.061997604 -0.05893015
0001a0 35 15 20 3e 3f 45 cd bc bc eb 0c 3d ca 4b 91 bd
       0.1563309 -0.025057433 0.0344045 -0.07094534
0001b0 88 52 c9 bd 2c e2 22 3e ac 42 80 ba 33 39 af 3e
       -0.09830195 0.1590659 -0.0009785495 0.34223327
0001c0 65 a1 8d bd 10 cb 91 3d 8e 48 a7 be 3c 3b 4b 3c
       -0.06915549 0.07118809 -0.32672542 0.012404259
0001d0 ae f3 9b 3c 06 f0 a1 bc 1b 83 ad bd 7b a8 8e bd
       0.019037094 -0.019767772 -0.08472272 -0.06965729
0001e0 a0 31 32 be b8 06 13 3d 37 e1 ef bd d0 c0 e4 bd
       -0.17401743 0.03589508 -0.11712878 -0.111695886
0001f0 22 8f 6c bd 21 2f 7a bc 23 15 07 3e e6 66 bb bd
       -0.05775369 -0.0152700255 0.13191657 -0.09150486
000200 d3 b5 09 be 08 55 6f bd bc 0e 0b be c7 2a ee 3d
       -0.13448267 -0.0584307 -0.1357984 0.11629253
000210 82 f8 29 3d bb 94 0f be 67 20 ca bd 58 d3 38 bd
       0.04149676 -0.1402158 -0.098694615 -0.045123428
000220 4d 46 e9 bd cd a0 3b 3d 60 00 6b bc 37 b1 43 be
       -0.11390362 0.04580765 -0.014343351 -0.19110571
000230 b8 6e 6b bc 39 4a 8c 3d fc a1 e8 bd 04 66 c2 bc
       -0.014369659 0.06850094 -0.11359021 -0.023730285
000240 09 bd a1 3d a5 eb 27 3c 84 c7 13 be 52 d8 25 3e
       0.07897384 0.010249053 -0.14431578 0.16195801
000250 c2 a7 bf bd 4f 51 62 3d 4b 1a 5f 3b 07 9e 02 be
       -0.09358169 0.055253323 0.0034042771 -0.12755595
000260 94 11 37 3e fc 38 97 bd 85 03 cb 3b cb c7 50 be
       0.178778 -0.07383916 0.006195488 -0.20388715
000270 4a 70 26 bd d7 57 be 3c 6c f7 58 be 05 9c 37 bd
       -0.04063443 0.023235245 -0.21188134 -0.044826526
000280 14 b6 13 be 0f 7c 84 bc 82 5f 14 bd 51 ef bb 3c
       -0.14424926 -0.016172437 -0.036223896 0.022941263
000290 25 ba a8 bc 37 87 e9 3d 0e e5 b8 3d 65 7e 5e be
       -0.020596573 0.11402743 0.09028064 -0.21727903
0002a0 74 51 d1 3c 92 19 2c 3d d2 08 f8 3c d2 6f d0 bd
       0.025551535 0.042016573 0.030277643 -0.10177578
0002b0 01 72 29 3d 93 6c b8 bd 66 09 d9 bc 5e 53 ac bd
       0.04136849 -0.09005084 -0.02649374 -0.084143385
0002c0 b7 88 4a 3e 86 4a 24 bd c8 2c 5d bd f5 6e 8b 3e
       0.19778715 -0.040110134 -0.053997785 0.2723309
0002d0 d3 82 76 3d b7 47 7e 3d 36 07 7c be 01 02 8a bd
       0.060183357 0.06208011 -0.24612126 -0.067386635
0002e0 da 0e 96 3c d1 c9 3a be 8b 7f 2a be 54 b9 28 bd
       0.018317629 -0.1824105 -0.16650216 -0.041192368
0002f0 1f 44 a5 bd 46 08 ef 3d f8 10 6f 3d 7a 06 d4 bd
       -0.08069634 0.116715 0.058365792 -0.10352798
000300 8a 29 de 3d d7 70 fa ba b5 ce 41 bd 8f 7c 41 bd
       0.10847767 -0.0019107115 -0.04731627 -0.04723793
000310 3c e9 8d bd 06 e3 3b 3e 48 52 70 3e 21 63 05 3d
       -0.069292516 0.18348321 0.23468888 0.03256524
000320 40 e7 b4 bd 11 fa 6b 3d 65 d7 0c bd 38 d4 81 be
       -0.0883317 0.05761153 -0.034385104 -0.25357223
000330 17 42 1e 3e 95 53 2e be 1d d2 78 3c c1 48 2c 3e
       0.15454899 -0.17024072 0.015186814 0.16824628
000340 2c 57 0a 3d b8 62 a0 3a 5e 67 48 bd 5a f3 f9 bd
       0.03377454 0.0012236452 -0.048926704 -0.12204619
000350 17 a1 66 3e ba cb 14 bd 19 5d 29 bd 96 79 e8 bc
       0.22522388 -0.0363271 -0.04134855 -0.02837829
000360 1b 50 3d bd fc 94 26 3e 43 4f cc bb e0 31 7b be
       -0.046218973 0.1626777 -0.0062350347 -0.24530745
000370 be 90 75 3d 6f cf 33 bd 7f ef cf bb 84 31 11 be
       0.05995249 -0.043898996 -0.006345689 -0.14179045
000380 00 d6 ed 3a b6 3b 05 be 63 cf fc bd f5 1c 0a 3e
       0.0018145442 -0.13011059 -0.123442434 0.13487609
000390 c5 29 86 be 25 95 b2 bc 15 d6 8d 3d b2 37 af be
       -0.26203743 -0.021799633 0.069255985 -0.3422218
0003a0 80 88 c1 3d ec a6 38 bd 83 25 3d 3d e4 d7 1c be
       0.094498634 -0.045081064 0.046178352 -0.1531673
0003b0 15 c5 da 3c 54 6c 99 3d f6 54 35 be 3f 3f 40 bd
       0.026705304 0.07491365 -0.17708191 -0.046935316
0003c0 0f 78 b1 bd 6f 6b 4c bd fd fe 51 bd de 2d e8 3d
       -0.086654775 -0.049907144 -0.051268566 0.113368735
0003d0 e3 27 85 bd 75 02 2c 3b cd 9e 1b 3d 7e fe b9 bd
       -0.065017484 0.0026246582 0.03799324 -0.09081744
0003e0 33 d9 03 3d 7e d3 05 3c 8e 39 df bd 35 2a fb 3d
       0.03218956 0.008168099 -0.108996496 0.1226391
0003f0 f2 5c b0 3d c8 e9 d5 3b 6d 1e 0e bd 76 66 8e 3d
       0.08611478 0.006528113 -0.034696985 0.069531366

conv2.bias f4 [64]
000000 d0 82 89 bd bd 8f aa bd 9b d2 73 bd 91 e9 0a 3d
       -0.06714404 -0.08328197 -0.05952702 0.033914153
000010 55 07 21 3d e4 53 16 3d ba 5f c9 bc 66 1a 91 bd
       0.039313633 0.036701098 -0.024581779 -0.07085113
000020 3a 45 1e be 99 76 c0 bd 4c ff 08 bd 1b 49 9a bd
       -0.15456095 -0.09397621 -0.033446595 -0.07533475
000030 56 bb f2 3c 54 f9 64 bb 26 a1 20 bd 0e 93 20 be
       0.029630344 -0.003493865 -0.039216183 -0.15681097
000040 ba 9a 83 3c e1 3d 73 bd fc 86 95 3d 64 00 42 bd
       0.01606499 -0.059385184 0.07301137 -0.047363654
000050 77 a3 a3 bc aa 22 1f bd 8a 5d 4d ba 1b e6 87 3d
       -0.019975407 -0.038851418 -0.0007834068 0.06635686
000060 3c 6f 85 3c 90 56 80 3c a9 1b 1c be ea 5c 1a 3d
       0.016288392 0.015666276 -0.15244927 0.037686266
000070 6e fb 29 be 74 52 1c 3d 0d 4c a6 3d 17 48 90 bd
       -0.16599819 0.03816457 0.08119974 -0.07045
000080 8e db 9d bd 0a b3 f5 bc b7 3e 0e be 64 e0 36 bd
       -0.07707892 -0.029992599 -0.13891111 -0.04464759
000090 55 66 2f 3c 7d 6c b8 bb 30 79 cf 3d ed 73 47 bd
       0.01070555 -0.005628167 0.101305366 -0.04869454
0000a0 1c f0 db bd d8 87 17 bd 35 bc 0d bd f3 3f 86 bd
       -0.107391566 -0.036994785 -0.034603316 -0.06555166
0000b0 70 6a 51 be 8d ee 6b bc aa 4c 15 3d 3b 53 fe bc
       -0.20450759 -0.014400137 0.036450066 -0.031045547
0000c0 31 ac 02 3e 8d 96 17 b9 48 25 b9 bd 30 73 0d be
       0.12760998 -0.00014456567 -0.09040314 -0.13813472
0000d0 81 2a ae bd 96 49 b5 3d 68 92 1c bc ea 60 40 3b
       -0.08504201 0.08851926 -0.00955639 0.002935464
0000e0 d9 68 df 3c a2 14 e8 bc 90 e7 cb bd 17 30 17 be
       0.027271675 -0.028330151 -0.099562764 -0.14764439
0000f0 da 48 2d be b5 02 ee bd 87 27 92 bd e9 d4 8b bd
       -0.16922322 -0.1162161 -0.071364455 -0.06827719

fc1.weight f4 [256, 576]
000000 eb 11 4c 3c 5e 9c 85 bc 03 81 ca 3c b0 94 11 3d
       0.012455444 -0.016309913 0.02471972 0.03554219
000010 84 ff b7 bd bb 16 f2 3d 76 07 ef 3d aa 2b 41 be
       -0.089842826 0.11820742 0.11671345 -0.18864313
000020 5f 18 14 be f8 a5 44 bc 75 64 51 bd 4a 26 ab 3c
       -0.14462422 -0.012002461 -0.051121194 0.020892281
000030 e4 15 b4 bd 08 aa 0f ba 14 15 e6 bd 58 34 69 bc
       -0.08793238 -0.0005480354 -0.11234489 -0.014233671
000040 79 e5 fc 3d c5 38 8d 3d 37 04 4f bd ad da b6 3d
       0.12348456 0.068955936 -0.05054113 0.08928428
000050 67 36 1a 3e e1 98 8d bd 0b d1 a8 bd b2 af a2 3d
       0.15059815 -0.06913925 -0.08242997 0.079436675
000060 53 48 f8 bb a1 22 c3 bd a4 8c 8b bd 12 46 76 bd
       -0.007576981 -0.09528089 -0.068139344 -0.060125418
000070 6c e0 94 3e ff da 9c bd 6a 31 1f be ab d2 89 bc
       0.2907747 -0.07658958 -0.15546194 -0.016824087
000080 0d af 70 bd c9 a1 24 3e 9e d0 2a 3e b0 75 7c 3a
       -0.05876069 0.16077341 0.16681144 0.0009630574
000090 59 b5 35 3d 86 75 75 bc 8d 06 e5 3d 4e db 6a 3d
       0.0443624 -0.014981633 0.1118289 0.05733805
0000a0 7e 48 11 be 78 fc 7b bd af c5 ff 3c ed c7 8c 3c
       -0.1418781 -0.06152007 0.031222193 0.017185176
0000b0 1c ba 68 3d f3 a7 84 bd 38 c1 82 3d 84 3d dc bd
       0.056818113 -0.06477346 0.0638451 -0.10753921
0000c0 47 b2 25 be 9e ca 3d 3e 2a 45 06 bd a2 8b 12 3d
       -0.16181289 0.18534324 -0.032780804 0.035777695
0000d0 0a 82 38 3e 00 65 1d 3c ff 46 aa bb 3a 91 4d bb
       0.18018356 0.0096066 -0.0051964517 -0.003136708
0000e0 5f 13 a6 3c 12 23 83 bc 88 61 9a 3d c4 39 a0 bc
       0.020272909 -0.016007934 0.07538134 -0.019558795
0000f0 6c 1a 9d bc c0 65 7d bc ff 06 57 be b6 f4 62 bc
       -0.019177638 -0.015466154 -0.20998763 -0.013852289
000100 b2 48 fe 3b 4d d1 57 3d 5e 64 ca bd 0f fc 3e be
       0.007760131 0.05268984 -0.09882425 -0.1865084
000110 15 1a 65 3d 62 39 1c bc 57 ec 4d be bc a0 0e 3e
       0.055933077 -0.0095351655 -0.20109688 0.13928503
000120 1c 17 73 bc 35 4a 6a bd 3e 8c 58 bc 6c 54 85 3d
       -0.014837053 -0.057199676 -0.01321703 0.06510243
000130 b6 6a e4 3d eb 37 ee 3b 3e a0 12 3e c2 8d ab 3d
       0.11153166 0.0072698495 0.1431894 0.083766475
000140 38 72 eb 3d be a7 da 3d d6 4d 44 3d 25 d4 63 3e
       0.11496395 0.106765255 0.047925793 0.22248895
000150 e2 21 46 bc f6 1b 06 bd 6d 09 c5 bd 4b 1f 09 be
       -0.012093039 -0.03274151 -0.096209385 -0.13390844
000160 65 38 c6 bd de 60 ba bd 3c 48 64 3d 1a 09 ab 3d
       -0.09678725 -0.09100507 0.05573295 0.08351345
000170 b7 d5 67 bd dc 30 bf 3c 67 db cc bb 55 aa 01 3e
       -0.0566003 0.023338728 -0.0062517407 0.12662633
000180 bf 31 d3 3d 64 70 49 be f2 8a 00 3e 71 9d ea 3d
       0.10312223 -0.1967178 0.12553003 0.11455811
000190 00 58 ef bd 77 26 9b 3c f9 a0 0c 3e cd d5 1d be
       -0.116867065 0.01893924 0.13733281 -0.1541359
0001a0 7f 7e d5 bd 3c ab 26 3d 4a 2e 43 be 4f c2 93 3d
       -0.10424518 0.040690646 -0.19060627 0.07214796
0001b0 1a f8 58 3d 23 f2 cb bd be 90 7e 3d d4 52 e7 bd
       0.052970983 -0.09958293 0.062149756 -0.11295095
0001c0 d6 ea 30 be 08 98 23 3d 2c 42 c2 bc c7 6d 0b 3b
       -0.17277083 0.03993991 -0.023713194 0.002127515
0001d0 f0 ad 33 be ca e3 e7 3d 86 dc a8 bd 0d c4 6f 3e
       -0.1754682 0.11322744 -0.082451865 0.23414631
0001e0 3c a4 04 be 58 a0 17 3d 08 c8 2c 3e e6 ef 10 bc
       -0.12953275 0.03701815 0.16873181 -0.008846259
0001f0 db c8 27 bd db af af bd e2 ab ac bd c8 d5 1e 3e
       -0.040963035 -0.08578464 -0.084312215 0.15511239
000200 6d 6c 42 bd e8 2c da bd 54 48 b2 bd 8e 8a 18 be
       -0.047466684 -0.106530964 -0.08705202 -0.14896604
000210 bf e6 52 3e 12 33 53 be ac dd 21 3e 40 b3 ba 3d
       0.20595835 -0.2062495 0.15807217 0.091162205
000220 76 eb c6 3b 6e 1c db bc 6a 61 da bc aa 42 22 be
       0.0060705496 -0.026746955 -0.026657779 -0.15845743
000230 6b c0 54 3c 55 85 d0 3b 92 33 4f bd 89 65 73 3d
       0.012985329 0.0063635507 -0.05058629 0.059423003
000240 54 01 e8 bc d9 55 cc bc dc 29 02 3e c7 71 11 3d
       -0.028320946 -0.02494328 0.1271128 0.035508897
000250 80 41 55 be 7f 7b 0e 3e 8f e1 1a bd ef 7a 60 be
       -0.20825768 0.13914298 -0.037812766 -0.21921895
000260 ad a9 4a 3d 82 b2 8a 3d ba 9d 61 be bf 3f 9d 3d
       0.04947822 0.06772329 -0.22032824 0.07678174
000270 25 30 f4 bc ed fb c2 bd cf be b4 3d da d9 11 3e
       -0.029808113 -0.09520707 0.08825456 0.1424326
000280 a9 ab 52 3d df 1b c7 3d 4c a2 79 be a6 41 b7 bd
       0.05143324 0.09722113 -0.24378318 -0.08948068
000290 f6 92 38 3e 54 e4 0d bd 9a b4 aa bd 94 fe 6d 3d
       0.18024811 -0.03464158 -0.08335228 0.058104113
0002a0 05 18 84 bb 07 34 c0 bc ec 0b 27 3e 83 53 0a bd
       -0.0040311837 -0.023462309 0.16313142 -0.03377105
0002b0 46 4e 21 be db af 80 3c 9e fe 20 be 97 c7 db bd
       -0.15752515 0.015708854 -0.15722129 -0.10731428
0002c0 59 fc 05 be c8 c6 0a 3e a2 c3 81 3d 57 1e 5c 3d
       -0.13084544 0.13552392 0.06336142 0.05373987
0002d0 ff a5 90 39 06 e9 bc be 5f 71 2a bc fc 2a a4 3c
       0.00027589497 -0.36896533 -0.010403006 0.020040028
0002e0 9b 79 4a be 5a f1 af 3d d2 cc 13 3e 17 1b 5f bd
       -0.19772951 0.08590956 0.14433601 -0.054469194
0002f0 80 be 1b bd 95 6b fb bc 25 f9 8e 3d 79 f3 02 3e
       -0.03802347 -0.030690948 0.06981114 0.1278819
000300 ad 69 42 bd 3b 16 29 be a0 05 9c 3d 21 fb 4f 3d
       -0.04746406 -0.16512387 0.076182604 0.050776605
000310 1a d7 43 be 3f da 48 3d 9f db 0d 3d 84 df 05 3d
       -0.19125023 0.04903626 0.034633275 0.032683864
000320 fd 55 25 3d ba 5f 50 bd 1d 29 42 bd 11 cb 77 3b
       0.040365208 -0.050872542 -0.04740249 0.0037810246
000330 22 4f ae 3d b0 ab 13 be ea 64 84 3c fd 3a ab 3d
       0.08511187 -0.14420962 0.0161614 0.083608605
000340 a7 71 d9 bd 5e 37 19 3e b8 7e 98 bb 13 2e 91 3b
       -0.106173806 0.14962527 -0.004653778 0.0044305413
000350 86 50 d1 3c be fa 24 3d 34 5e ad 3d 13 22 4e 3e
       0.025551092 0.04027819 0.084652334 0.20130186
000360 24 b0 85 3e e8 cc 3d be 41 10 98 3d 3e 55 2b 3e
       0.26110947 -0.18535197 0.07424975 0.16731736
000370 70 91 5d bd 6e 7b 1e be 67 12 75 3d c3 40 7a 3e
       -0.054093778 -0.15476772 0.059832003 0.24438767
000380 f0 1e f9 bd f0 83 37 bd 2c 2a a3 bd 01 e6 c6 3c
       -0.12164104 -0.04480356 -0.07967028 0.024279596
000390 bb 69 fc 3a f5 8e df bc e7 5d cd bb 78 fe 19 bd
       0.0019257584 -0.027289847 -0.0062672975 -0.037596196
0003a0 d4 8e 78 bb da 56 61 be b8 55 40 bd b5 d3 c9 3d
       -0.003792693 -0.22005787 -0.046956748 0.09854833
0003b0 19 73 fa bc 42 7c 59 3d d9 ea 03 3d 71 fc ee bd
       -0.030572461 0.053097017 0.03220639 -0.11669243
0003c0 25 98 1a be 6e 3e e6 bc 87 e3 0c be 07 96 02 3b
       -0.15097101 -0.02810594 -0.1375867 0.001992585
0003d0 96 2f 11 3e bd 41 60 3d aa b2 10 bd 60 42 dc bd
       0.14178309 0.054750193 -0.035326637 -0.107548475
0003e0 19 b2 d8 bc 0c 0a e8 bc 36 d6 9f 3c bc 2f 01 bd
       -0.026452111 -0.028325103 0.019511323 -0.031539664
0003f0 9a 5e 12 3e 48 c0 8d bd 4a a1 1a 3d 20 69 77 3d
       0.142939 -0.0692144 0.037751473 0.06040299

fc1.bias f4 [256]
000000 e7 e6 fc 3c 23 2a 9a bc b3 81 55 bb a2 21 8a 3c
       0.030871822 -0.01881892 -0.0032578527 0.01686174
000010 c6 a1 d0 bc 8d 9f de 3c b1 ea 2d bd 16 c2 13 bc
       -0.025467765 0.02717569 -0.042460147 -0.009018442
000020 22 94 fd bc 69 91 be 3c 43 03 8e bd 75 26 07 bc
       -0.030954424 0.023262696 -0.06934216 -0.008248915
000030 55 a8 19 bd 8f 3d 2b bd d5 a2 23 3c fa ba ee ba
       -0.03751405 -0.041806754 0.009987553 -0.0018213682
000040 e8 5a 21 3c 07 37 8c 3d 10 a1 eb 3c 73 f9 90 ba
       0.009848334 0.06846433 0.028763324 -0.001106067
000050 d6 f4 ac 3c e8 59 d2 bc 44 3f 1e 3c c4 de 22 bd
       0.02111284 -0.025677636 0.009658638 -0.039763227
000060 5c 95 c7 ba ef 8b 70 3d 52 0c a8 bc 93 59 51 bc
       -0.0015227008 0.0587272 -0.020513687 -0.012777704
000070 85 34 98 bb 7f 96 3a bd 12 30 2b 3d 9c 71 fe 3a
       -0.0046449327 -0.04555368 0.04179389 0.001941252
000080 89 55 7e bc 1b 89 06 3d 8a 94 b0 3d 0d 54 d7 bc
       -0.015523323 0.032845598 0.086220816 -0.026285196
000090 c3 f1 0e bc 72 ec 77 bd 51 2a 1e bd a7 fa e6 3c
       -0.008724633 -0.060528226 -0.038614575 0.028195692
0000a0 b8 b9 33 bd 9e 20 3c bd 49 ee 65 bc 27 1c 42 3c
       -0.043878287 -0.045929544 -0.014033862 0.011847532
0000b0 31 d5 06 3d 47 60 3f 3d a1 bf 69 3d 66 0c 02 bd
       0.03291816 0.046722677 0.057067517 -0.031750105
0000c0 59 52 da bc 73 1c e9 bc 1d 3a 35 3c 9d 2b 3c 3d
       -0.026650595 -0.028455948 0.011061219 0.04594003
0000d0 00 f5 d4 3d 68 1a c2 bc 3e 55 d2 bc d2 8c a2 bd
       0.103982925 -0.023694232 -0.025675412 -0.079370156
0000e0 2e 1b aa 3c 4a 4d 95 3c 00 cb a7 3d 05 1b 31 3c
       0.020764913 0.01822533 0.08193016 0.010809665
0000f0 a7 5a f5 3c 30 18 9a bc 79 f4 f8 bc 65 64 ea bc
       0.029950453 -0.018810362 -0.030390011 -0.028612325
000100 ae 01 8f 3b de 1a de 3b 1e 3c 0b bd 85 af ee 3c
       0.004364214 0.006778105 -0.03399288 0.029136429
000110 24 2a 9a bc da 15 24 bd a0 d8 47 ba 61 40 4a bd
       -0.018818922 -0.0400599 -0.0007623527 -0.049377803
000120 0e b3 c9 bc f3 54 98 3d 4a 71 e7 bc 52 1a 20 3c
       -0.024621513 0.07438078 -0.028252263 0.0097719
000130 c6 6e a3 3d c6 bd 3b 3d 56 7c 9e bc 1b 27 58 bd
       0.07980113 0.04583528 -0.019346397 -0.05277167
000140 aa bf 21 bd f8 8c 25 3d e5 7d 8f 3d e3 8d 49 3d
       -0.039489426 0.04041764 0.07006434 0.04920758
000150 81 63 bc 3d fc 97 16 3c d9 e0 5c bd 32 24 a5 3d
       0.09198666 0.009191509 -0.05392537 0.08063544
000160 62 b8 85 bd 81 9b 4e 3b b2 84 ff 3c 41 1d 0c 3d
       -0.06529309 0.0031525793 0.031191204 0.034207586
000170 4b 04 41 3d 59 32 46 3d 10 fa 05 3d 1c 3e c3 ba
       0.047123235 0.04838786 0.03270918 -0.0014895829
000180 7f 15 a9 bc a9 9c e8 bb c9 17 8e 3d f0 9e 25 bd
       -0.020640133 -0.0070987535 0.069381304 -0.040434778
000190 46 68 fa 3c a7 fb 7a bc 2f db f7 3c e4 9b ed 3c
       0.0305673 -0.015318788 0.030255882 0.029004999
0001a0 7f b5 8c 3d 77 97 0a bd f3 b2 66 3d ad e8 89 3d
       0.06870555 -0.033835854 0.056323003 0.067338325
0001b0 d2 4b c0 3d 9a 67 cf 3c c4 f8 dd 3b 21 1c 0c 3c
       0.093894616 0.025317956 0.00677404 0.008551628
0001c0 96 6d 1b bd 73 8a 4c bd ce 72 ba 3d de b0 a9 3b
       -0.037946306 -0.049936723 0.091039285 0.005178555
0001d0 ec c9 55 bd 89 e6 51 bd 9e 88 b7 3c 2f 8a 14 bc
       -0.05219452 -0.051245246 0.022404011 -0.009066149
0001e0 3c 20 16 bd ea e4 18 bd b9 99 af 3d 74 3c b5 3c
       -0.036651835 -0.037327684 0.08574242 0.022123553
0001f0 fb 49 bf 3c e3 f2 df 3d 00 a9 d7 3c 36 b8 f3 39
       0.023350706 0.10934999 0.026325703 0.0004648582
000200 da ab 2e bb 7d d7 9f 3d 9e 08 a4 bd 21 37 d8 bc
       -0.0026652724 0.07804773 -0.08009456 -0.026393475
000210 32 89 1a 3d 31 a0 0d 3d b5 b0 5a 3d 12 83 5f bc
       0.037728496 0.0345766 0.053391177 -0.013642089
000220 ea 2d 91 3c c3 00 0c 3c 7c b4 1e 3c a5 29 8b 3c
       0.017722089 0.0085451035 0.0096865855 0.016987631
000230 ad 91 4e bd 3c 44 4b 3c 1f 6c 0d bc 0a d9 e4 bc
       -0.050431896 0.012406405 -0.008631735 -0.027935524
000240 8f 63 ba bc 6e ce 0c 3c de f4 18 bc c3 00 8e 3c
       -0.022752551 0.008594139 -0.009335725 0.017334348
000250 77 00 76 bd 39 03 a2 3d fe d6 15 bd 81 10 1a bd
       -0.060059037 0.07910771 -0.036581986 -0.037613396
000260 82 fa 27 bb 6e fd ad 3c 08 a2 df bc a6 c6 60 3d
       -0.0025631492 0.021239009 -0.027298942 0.054876946
000270 37 86 9d bc af 65 cf 3d 6d 43 b9 3b dd 02 23 bc
       -0.019229038 0.101268165 0.0056537897 -0.009949413
000280 43 c0 9c bc 3d 41 73 bd de e4 c9 bc b7 be df bc
       -0.019134646 -0.059388388 -0.024645265 -0.02731262
000290 e7 c4 ce bc 57 25 90 3c f7 fe 4f bb b8 e9 a2 3d
       -0.025240375 0.01759593 -0.0031737664 0.079547346
0002a0 69 2a 50 3c 03 e0 b0 3c 5a a6 31 bd 54 4a cd b9
       0.012705424 0.021591192 -0.043371536 -0.00039156026
0002b0 10 10 0a 3b a6 5d a7 bd b3 a4 67 3c 79 f9 54 3d
       0.0021066703 -0.08172159 0.014138388 0.05199573
0002c0 3a b9 49 bc 95 50 30 3d 63 d3 ae 3d ac 78 a4 bc
       -0.012312228 0.0430456 0.085364126 -0.020077072
0002d0 90 6f 0a 3d e6 76 37 bb 88 ad ac 3c f0 94 2a bd
       0.0337978 -0.0027994453 0.02107884 -0.041645944
0002e0 cb bb a7 3d e3 3d 19 bd 50 32 2d 39 4c 04 b6 3c
       0.081901155 -0.037412535 0.00016517309 0.022218846
0002f0 84 fc ec bb 78 1f 32 bd 44 a4 04 bc 88 4a 53 bc
       -0.0072322506 -0.043487042 -0.008095805 -0.012896188
000300 d2 63 29 3c 2b bf 2e bc d6 3b 0b 3d 50 1c a0 bd
       0.01033874 -0.010665695 0.03399261 -0.078179
000310 08 e9 83 3c 3d 06 ed 3d 10 5c dd bc d7 3c 4e 3c
       0.016102329 0.115734555 -0.027021438 0.012587748
000320 bd ca cc 3c 05 29 60 3d 6f 44 96 3d e6 1f 68 3d
       0.024999017 0.05472662 0.073372714 0.056671046
000330 ee 2b 56 bc 14 f1 87 bc aa a0 18 bd 2b bd 60 3b
       -0.013071997 -0.016594447 -0.037262596 0.003429244
000340 0e 38 b8 3b 7d e9 a4 3b f0 d9 88 3d 78 96 63 bd
       0.0056219166 0.005032717 0.06682193 -0.05556342
000350 88 f2 6b bd bb dc 7f 3c 80 b0 f8 3c 61 85 88 bb
       -0.057604343 0.015616591 0.0303576 -0.0041662906
000360 bf 07 73 bd a5 62 5c 3c f7 be c1 bc 74 6c 2e 3d
       -0.05933356 0.013451253 -0.02365063 0.042583898
000370 11 00 65 3c e7 5d 0c bc f2 9a 6a bd 0c db 48 bd
       0.013977067 -0.00856731 -0.057276674 -0.049037024
000380 be 4f 78 3d 46 7d 6a 3d 7b 47 8a 3d 69 69 5b 3c
       0.060622923 0.057248376 0.06751915 0.013391831
000390 2b 4b 87 3d 2b 2b 2c 3c cb d8 96 bd e8 b9 68 bd
       0.06606134 0.010508339 -0.07365569 -0.05681792
0003a0 a2 a1 b0 3c 0b c3 b3 bc ce 3b 8e 3d f8 3b d4 bc
       0.021561448 -0.02194359 0.069450006 -0.025907502
0003b0 e3 b5 54 bd 4c 16 a6 3d 9f 4e 83 bd 15 bd 42 bc
       -0.051931273 0.081097215 -0.0641148 -0.011885901
0003c0 bf 1c b3 3c ed b4 24 3d 05 49 0c bd 2a d5 35 bd
       0.021864293 0.040211607 -0.034249324 -0.044392742
0003d0 ad c1 2b 3d 93 b5 a0 3d d7 01 8d bc 86 f5 80 bd
       0.04193275 0.078471325 -0.017212791 -0.0629683
0003e0 b6 69 39 bb 1e 7e 86 ba d9 53 7a 3c df f8 07 bb
       -0.0028291768 -0.0010260975 0.01527878 -0.0020747704
0003f0 87 b5 bd 3c 73 2f 22 bd 5d dd 21 bd ac b8 bc ba
       0.023157848 -0.039596032 -0.03951775 -0.0014398298

fc2.weight f4 [10, 256]
000000 f3 af 08 3e 67 a9 70 3d 5e 30 2c 3e 05 35 7d 3c
       0.1334837 0.058755305 0.16815326 0.015454535
000010 d8 58 2e bd 57 da 94 3d 40 b1 59 3e 6c 52 70 bd
       -0.042565197 0.072682075 0.21259022 -0.058672354
000020 5e 37 ff bc 42 f9 83 3d 13 f6 a1 3c 8a 97 26 be
       -0.03115433 0.064440265 0.019770658 -0.16268745
000030 74 37 27 bd 42 e4 7a bc 53 10 9b ba 4e 76 34 bd
       -0.04082437 -0.01531321 -0.0011830427 -0.044058137
000040 f6 0f 1f bc 76 db 42 3d 20 a2 7d be 1a af 23 3d
       -0.009708395 0.047572576 -0.24768877 0.03996191
000050 79 3c 07 3d e8 9c aa bc ae 3a 25 bc 7d 73 52 bc
       0.033016656 -0.020826772 -0.010084791 -0.012844917
000060 d1 cc a4 3b 8e 0a 86 be 24 71 45 3e 88 1f 0d bc
       0.005029299 -0.26179928 0.19281441 -0.008613475
000070 5b 00 81 3d ae 7e 09 3d 92 18 cf 3d ad af f6 bc
       0.06298896 0.033568077 0.10112108 -0.030113066
000080 36 5a af bc b0 8b 41 bc 61 24 77 3d 91 f0 26 be
       -0.02140532 -0.011813089 0.060337428 -0.16302706
000090 8e 35 2a 3d e9 99 c1 bc 31 84 b0 3c bd 0e ff 3d
       0.04155498 -0.02363296 0.021547409 0.12453983
0000a0 00 08 8e 3d f6 2c 56 3c e3 b7 24 3e 17 a5 96 bd
       0.0693512 0.013072243 0.16085772 -0.07355707
0000b0 dd c3 09 be a1 20 5e bd 72 75 0f be 30 28 f6 bc
       -0.13453622 -0.054230336 -0.14009646 -0.03004846
0000c0 fd 5c c2 3c 12 84 ac 3d a5 a6 ea 3d e7 08 8a 3c
       0.02372598 0.08423628 0.11457566 0.016849948
0000d0 9f 1f 12 be 90 66 04 3e fa 0d 53 3d b5 38 67 bc
       -0.14269875 0.1292975 0.051527 -0.014112641
0000e0 0c 3a 62 be dc b0 39 bd a4 b7 41 3d 5e 22 63 bd
       -0.22092456 -0.045334682 0.047294274 -0.055452697
0000f0 4f 5a 7f be 38 77 a0 3d e5 70 4d be 44 2b fe bb
       -0.24936794 0.07835239 -0.20062597 -0.0077566225
000100 61 24 e3 3c de b5 71 be 90 87 d1 bd 9f 7d 5b be
       0.027727308 -0.23604533 -0.102309346 -0.2143464
000110 17 a7 65 3d 81 cc 07 bd 01 27 2e 3e 33 47 0a 3d
       0.056067552 -0.033154014 0.17007066 0.033759307
000120 22 98 08 bd f3 c8 f0 bd ed 39 a3 3d a0 f7 5c bb
       -0.03334821 -0.11757078 0.07970033 -0.0033716932
000130 0c fb 2a be 39 d8 2d 3e 26 20 2d bd 8b 84 0f be
       -0.1669733 0.16977014 -0.042266987 -0.14015405
000140 57 15 61 be a3 b4 b3 3d 40 f8 7f 3d 12 c7 5f be
       -0.21980797 0.08774688 0.06249261 -0.21853283
000150 30 5c 16 3e 77 6b a9 3d 15 75 ed 3b fd e7 b6 bd
       0.14683604 0.082724504 0.0072466233 -0.08930967
000160 92 7b 51 bd b5 4a 61 3d fc 51 10 be eb 5b 44 3d
       -0.051143236 0.055002887 -0.14093775 0.047939222
000170 f7 bc 86 3d c6 64 78 be 1a 5e 6e be fd e3 6f 3d
       0.06579011 -0.24257192 -0.23278084 0.058567036
000180 81 41 ae ba 8a 3e e1 bc f5 8e 95 be 15 3b 7f 3c
       -0.0013294668 -0.027495641 -0.2921063 0.015578051
000190 f8 8d 9b 3d 1e 95 6c 3d cb 9b 19 3e 81 24 9e 3d
       0.07595438 0.057759397 0.15000837 0.07721806
0001a0 1f 2b c2 be 64 91 4f bc 89 a0 5d be 90 ee bc 3d
       -0.37923524 -0.012668941 -0.2164327 0.0922519
0001b0 06 62 6a bd e1 bd 01 3e 0b 19 53 3a 28 bc a1 3d
       -0.05722239 0.1267009 0.0008052743 0.07897216
0001c0 ef 38 c1 b9 1b 21 82 3c 62 99 40 bd db 23 ca bd
       -0.00036854247 0.015884927 -0.047021277 -0.0987012
0001d0 c3 cc 97 be aa b8 55 bd fd 7b 68 3c a4 85 f2 3d
       -0.29648408 -0.052178062 0.014189717 0.11841896
0001e0 7b 63 0c 3d cf e9 1f bd 9d 0f 59 be 33 c1 2e bd
       0.03427456 -0.039041337 -0.21197362 -0.042664718
0001f0 b0 8f c6 3d 94 2e 31 be 59 ac 45 be 9b 73 36 be
       0.09695375 -0.17302924 -0.19304027 -0.17817537
000200 d6 87 8e be 94 b9 6b be 37 99 3a bd 8a 19 9e 3d
       -0.2783801 -0.23020011 -0.045556273 0.07719715
000210 72 3c 1a 3e 4e b5 61 3d 7d 92 4d be 35 a6 8b bb
       0.1506212 0.055104546 -0.20075412 -0.004261757
000220 8e b5 40 bc 1d 6e a8 be fc d8 2e be 4a db 10 3d
       -0.011762036 -0.3289651 -0.1707496 0.03536538
000230 3b 51 6e bd ac 5a 2a bd ea 5b 8a be 5c 1a ba bc
       -0.058182936 -0.041590378 -0.2702325 -0.022717647
000240 52 99 a5 bd 6b 27 08 3b f6 b2 46 bd f9 8c 5b bc
       -0.08085884 0.0020775448 -0.048510514 -0.01340031
000250 ea f9 1b 3d 91 0d 80 3d 57 96 c8 3c 2d 79 26 3e
       0.038080133 0.062525876 0.02448575 0.16257162
000260 a3 2c ec 3c 4b 3f a5 bd 22 22 17 be e8 e5 cb 3d
       0.028829878 -0.08068713 -0.14759114 0.099559605
000270 53 5f b3 3d 44 1e aa 3d 55 c1 ac bc 6f 99 15 3e
       0.08758416 0.08306554 -0.021088282 0.14609312
000280 67 cf 71 3d 77 1f e9 bc 43 15 0e bd 7c c4 c0 3d
       0.059035685 -0.028457386 -0.034688246 0.094124764
000290 13 33 be bc 78 41 cb 3c 47 ed 92 3c 1c 61 12 be
       -0.023217713 0.024811491 0.017935408 -0.14294857
0002a0 93 f2 81 bd c7 e8 09 be 05 f0 9b bc 61 9a e2 bc
       -0.063450955 -0.13467704 -0.019035349 -0.027661504
0002b0 74 56 43 3d e1 29 f0 3d 28 81 0b be 90 73 b5 3d
       0.04768987 0.11726738 -0.13623488 0.088599324
0002c0 d8 86 c9 bd a3 1e 6c 3d a7 3e 5b bd 84 78 5c 3c
       -0.098401725 0.057646405 -0.053526547 0.013456468
0002d0 3a 92 d7 bc e5 f3 67 bd 70 36 51 bd 16 9e 85 bc
       -0.026314843 -0.05662908 -0.051077306 -0.016310733
0002e0 18 8e 7b be ca 73 84 3c 9a 6c bf bc e6 82 0f be
       -0.24565923 0.016168494 -0.023367215 -0.14014778
0002f0 75 d8 c0 be 84 f5 1b bd e9 5d a5 3d f5 77 26 3d
       -0.37665144 -0.03807594 0.080745526 0.040641744
000300 76 04 c8 3d 99 78 05 3c 4c da cd 3d e4 c3 97 bd
       0.09766476 0.0081464285 0.100514024 -0.0741041
000310 72 50 c0 3d 24 6b f2 bd 01 bb 00 be 6a a0 6f be
       0.09390344 -0.11836842 -0.12571336 -0.23401037
000320 d0 0d 4f 3d 3f b6 15 bd 30 88 90 be d6 f7 b1 3d
       0.050550282 -0.036550757 -0.28228903 0.08689849
000330 2f 8e 6b bd f8 93 25 3d e1 55 e3 bc 54 8a 22 bd
       -0.057508644 0.040424317 -0.027750911 -0.0396827
000340 ac 5d 36 be 72 80 86 be f9 7a 0a be de 92 e2 bc
       -0.1780917 -0.2626987 -0.13523473 -0.027657922
000350 86 66 05 bd 6d 01 81 bd c3 b6 1e be bf 12 56 bc
       -0.032568477 -0.062991 -0.15499406 -0.013065993
000360 71 60 29 3d 76 f1 94 bc c3 b0 38 3d da 5b e0 bc
       0.04135174 -0.018181544 0.045090448 -0.027387548
000370 7a 9a e2 3d d5 90 fb bd 00 5f d4 bd d3 1a 5e bc
       0.1106462 -0.12283484 -0.10369682 -0.0135562
000380 02 82 a7 be 49 73 f3 3d 60 4a 0e 3e 2e 02 01 3d
       -0.32716376 0.11887223 0.1389556 0.03149622
000390 6c ce b4 bd 6b d1 56 be 91 51 73 be 5a a5 31 bd
       -0.08828434 -0.20978324 -0.23761584 -0.043370582
0003a0 fc 09 30 be 40 17 3a be db 7f 0b be c4 44 9c bb
       -0.17191309 -0.18172932 -0.13622992 -0.0047689397
0003b0 23 c5 cd 3c 2a 48 ea 3d 34 ec b0 bb 91 0d 81 3d
       0.025118416 0.114395455 -0.0053992514 0.06301416
0003c0 d1 82 07 be 8d 24 b1 3d de af 62 bb 21 84 ab bd
       -0.13233496 0.0864955 -0.0034589688 -0.08374811
0003d0 c5 ad 7c 3d bb 55 a9 3c cd 06 a9 3b 22 c4 26 bd
       0.061689157 0.020670762 0.0051582814 -0.04071439
0003e0 4d 64 02 be 4b 8d 19 bd 8b 12 bd bd cb 50 70 3d
       -0.12733574 -0.037488263 -0.092320524 0.0586708
0003f0 a4 f6 b5 bb 79 64 87 3d 81 22 e6 3a fc 18 2b 3d
       -0.0055530835 0.066109605 0.001755789 0.041771874

fc2.bias f4 [10]
000000 13 cf ac 3d 25 81 b5 bd 63 12 10 ba ca b5 47 3d
       0.08437934 -0.08862523 -0.0005495904 0.048757352
000010 65 6f a6 3c 47 b0 b5 bd dd f6 b1 3d 93 96 fa 3c
       0.020316789 -0.08871513 0.086896636 0.030589378
000020 11 9c 18 3d 37 e4 81 bc
       0.03725821 -0.015855892
