saved_models/fmnist_cnn.pt (torch, 684213 bytes, 10 tensors)

feature_extractor.weight f4 [4, 1, 2, 2]
00000000: 60ba b53d ec2c 9abe fa4a 37bf 6ab8 bcbe
00000010: 7d72 2a3f 8409 673f d6a8 d53e 0457 cabd
00000020: b8f2 2fbf 832d bebe 9fb6 25bd 679a 55bf
00000030: 9bcb 5b3f c586 05bf 6769 813f 4419 0dbf
0.08873439 -0.30112398 -0.7159878 -0.36859447 0.66580945 0.90248895 0.41730374 -0.09879878
-0.68729734 -0.37144098 -0.040457364 -0.83438724 0.8585755 -0.52158767 1.0110291 -0.5511668

feature_extractor.bias f4 [4]
00000000: 470f ff3e cbba 633e 6c07 61bd 9014 7b3c
0.49816343 0.22239225 -0.05493872 0.015324727

conv1.weight f4 [32, 4, 3, 3]
00000000: ddeb 4fbd 9ccd 95bd 36cf 27be 53eb 2abe
00000010: ebd5 0dbe 00cc 0abe 89a4 2d3d b390 45be
00000020: 309b 763e fcdf cc3d a443 223d 4495 1d3e
00000030: 61a9 98bd 36be 443d 8f5d 1f3c 5e5e b4bd
00000040: 955f 8c3c 169f a2bd 8ca3 cdbd 209d 40bd
00000050: 66d5 00be d0bd 9abd 229e 2bbe 7758 f73b
00000060: 8076 eabd 3fd1 3c3e 61d1 363e 066b ab3d
00000070: 2c19 3a3d 02ec 123d 071d fa3c 1566 f73b
00000080: 3025 963d 3cc0 c7bc 0218 4fbd e52a bb3d
00000090: 4875 bd3d c493 55be 4621 42bd b6fe ec3d
000000a0: 7ca8 b9bd a0e4 fcbd fba9 acbd d9c8 38be
000000b0: 2a21 0bbd d732 743c cb1b 3ebe a2eb e93d
000000c0: b3a5 613d f5aa e2bd 8497 0fbe cf87 db3d
000000d0: a213 813b 7006 5f3d 6673 d4bd c2c5 abbd
000000e0: 4506 d7bd c318 e13c 4dce ca3d 3dbc 4ebd
000000f0: d3f9 7bbd 3dd5 58be d894 ae3d d38f a5bb
00000100: f279 9f3d 26f1 ffbd f348 2f3d e079 1e3d
00000110: aa5b 463e f2ba 253e da94 7bbd 6d02 1cbc
00000120: c9ed 203e cc4a 753b 4aec 163e d644 95be
00000130: 46c4 943e de4e b03d c8ed 043e 1f46 18be
00000140: 41d5 7b3b b3cd 4ebe 8a47 c33d dc28 f03b
00000150: 38d9 5e3e 8660 07be 4df0 14be a6af 2cbe
00000160: a630 6abc 8b71 053e 3b7a 1cbe 8f66 20be
00000170: d1e0 cebd eb33 90be ab17 fb3a 425b 533d
00000180: f228 3ebc c49c 00bd 8318 113d 2c1d abbe
00000190: b50b b53d a323 933d 71da 863e a64b 76be
000001a0: 676b 94bd 93bd 93bd d39f 26be 9130 41be
000001b0: e476 12b9 6168 1b3d f907 ab3d c78c 08be
000001c0: 2d9e ce3d e046 efbd f4af fe3d 5106 aa3d
000001d0: b2ae 4cbe 5651 aebd 44b5 fd3c 021a 0b3e
000001e0: e6ab 5e3d d019 1cbe 3cc7 0e3e b17e 393d
000001f0: 6691 30be c7b8 973d 7c9a b1bc eba4 50be
00000200: 98dd 8f3d d197 0e3d b0d3 5e3e 54c4 efbd
00000210: 08ca 1bbe ae1d 263e bb99 8fbb a913 e93d
00000220: 35f4 d3be cb0f 3e3e f54c 483e 38bc f8be
00000230: 804e 283e 9332 8b3e ee06 d6be 3a00 603e
00000240: 2b9c 923e 32a4 82be 2be1 8bbc e544 073c
00000250: f669 86bd 2dcd a6bd b87b c13d fd30 11be
00000260: 149a 223d 5438 a5be 1ad2 a03e 5ca4 92bd
00000270: 6b17 343e b0fc d1bd 7c64 88bd f5b8 4fbd
00000280: b17d 333e d8da 23bd 81df 273e cc09 92be
00000290: 085b 173e 36e2 2cbe 2e9c 85be 162f 143d
000002a0: 2a45 05be c3f4 cb3b 71dd 943e f151 a4be
000002b0: f36f f83e a77e c2be 8503 f6bd 34c6 fabc
000002c0: 0022 48be e893 b93c f83e b6bd e09b 4cbe
000002d0: 3fba 6b3e d5db df3d 6357 4d3e 7e81 cc3e
000002e0: 8b41 383e 95eb 653e 32f2 c03e 4b08 a53e
000002f0: 8abd 303e 6153 5abc 62a8 44be 03e4 53be
00000300: d2fc 36bd e94c 31be 82e1 9bbe d884 383d
00000310: 2367 a3bd 43f6 28bd 37cf fa3b 9590 b93d
00000320: 820b eb3e 9fdf 943e 5b5d 683e 96aa a53e
00000330: 1627 bd3e 24e1 dd3e 1355 623d ea5b dabc
00000340: c622 423e e1bb 31be c4e5 2abe 78b2 1abd
00000350: 2c84 47be 6b32 fdbd 1137 cabc 98ad c2bc
00000360: 582e 2abe 3d69 dd3c 00e2 a83d d143 abbe
00000370: 0672 4dbe 974b a43d 945d 5bbe a7cb 043d
00000380: bc9b 673d 7693 f93d 9655 e03c daf8 0cbe
00000390: b344 483e 3a3f 893c a52e 5cbe 3f16 7d3e
000003a0: b091 c8bd e925 5ebe 39af 663d 22df 03be
000003b0: 05db 5b3d 6f21 0bbe 24d5 093e c71f 513e
000003c0: da6a 4fbb a11d d23d 74c7 2f3e 7368 1ebc
000003d0: df19 463e ee94 dcbc e5b4 f3bc 29da db3e
000003e0: 2ca0 03be dcdb 1e3e 2e94 9e3e c8be 91bc
000003f0: fb9c 2dbd 26b4 5ebd 0040 0db8 5b90 00bd
-0.050762046 -0.073146075 -0.16387638 -0.16691332 -0.13851134 -0.13554382 0.04239324 -0.1929348
0.24082637 0.10003659 0.03961529 0.15388972 -0.074541815 0.04803296 0.009726896 -0.088070616
0.01713542 -0.079404995 -0.1004096 -0.047024846 -0.12581405 -0.07555735 -0.16759542 0.0075483876
-0.11448383 0.18439196 0.17853309 0.083700225 0.045434162 0.035869606 0.03053142 0.007550011
0.07331312 -0.024383657 -0.050560005 0.09139041 0.09250885 -0.2085715 -0.047395013 0.1157202
-0.09065339 -0.12348294 -0.08430859 -0.18045367 -0.033967175 0.014904699 -0.1856529 0.114218965
0.055089664 -0.11067764 -0.14022642 0.10719263 0.003939108 0.0544495 -0.10373573 -0.08387329
-0.10499243 0.027477628 0.0990263 -0.050472487 -0.061517548 -0.21175094 0.085244834 -0.0050525456
0.07786931 -0.12497167 0.04279418 0.038690448 0.19370905 0.16184595 -0.061421253 -0.009522063
0.15715708 0.0037428616 0.14738575 -0.2915408 0.29055995 0.08608793 0.12981331 -0.14870499
0.003842667 -0.20195656 0.09535129 0.0073290896 0.2176255 -0.13220415 -0.14544792 -0.1686388
-0.014293825 0.13031594 -0.15281002 -0.15664123 -0.10101474 -0.2816461 0.0019156834 0.051600702
-0.011606442 -0.031399503 0.035423767 -0.33420694 0.088401236 0.071845315 0.26338533 -0.24052295
-0.07247048 -0.07213893 -0.16271906 -0.18866183 -0.00013967935 0.03794134 0.0835113 -0.13334952
0.100887634 -0.1168344 0.12435904 0.08301986 -0.19988516 -0.08511607 0.030970223 0.1358414
0.054363154 -0.15244222 0.1394319 0.045286838 -0.17242965 0.0740829 -0.02168011 -0.20375411
0.070246875 0.034812752 0.2176044 -0.117073685 -0.15213788 0.1622226 -0.00438234 0.11380703
-0.41397253 0.18560712 0.19560607 -0.485811 0.16436195 0.27187023 -0.41802162 0.21875086
0.28634772 -0.25515896 -0.017075142 0.008256172 -0.06563179 -0.08144603 0.094474256 -0.14178844
0.03969772 -0.32269537 0.31410295 -0.07160255 0.17587058 -0.102532744 -0.06659791 -0.0507135
0.17528416 -0.040003628 0.16393854 -0.285231 0.1478082 -0.16883168 -0.26095718 0.036177717
-0.13014665 0.006224246 0.29075196 -0.32093766 0.4852291 -0.37987253 -0.1201239 -0.030612089
-0.1954422 0.022653535 -0.08898729 -0.19981337 0.23020266 0.109306015 0.20052867 0.39942545
0.17993753 0.22453149 0.3768478 0.3223289 0.17259803 -0.013325543 -0.19204858 -0.20692448
-0.044674702 -0.17314495 -0.30445486 0.045048565 -0.07978656 -0.04125048 0.0076540965 0.0906078
0.45907217 0.2907686 0.22691862 0.3235671 0.36943883 0.4333583 0.055256914 -0.026655156
0.18958578 -0.17356826 -0.16689211 -0.037767857 -0.19484013 -0.12363132 -0.02468446 -0.023764417
-0.16619241 0.02702772 0.08246231 -0.33450177 -0.20063028 0.0802223 -0.21422416 0.03242078
0.056545004 0.12186329 0.02738456 -0.13766804 0.19557457 0.016753782 -0.21502168 0.24715517
-0.09793413 -0.21694149 0.05631945 -0.12878087 0.05367567 -0.13586973 0.13460213 0.20422278
-0.0031649382 0.102595575 0.17165929 -0.009668457 0.19345807 -0.026926484 -0.029749343 0.4293988
-0.1285407 0.15513557 0.30972427 -0.017791167 -0.042386036 -0.05437102 -3.3676624e-05 -0.031387668

conv1.bias f4 [32]
00000000: f2f1 93ba 4e85 41be 7a03 15be 871e a2bd
00000010: 6492 503d c69b 1c3e d368 973d 6f6a b63c
00000020: ab52 293e 2c93 aebd ff71 4b3e 1c30 a23d
00000030: 5300 edbc 1b65 08be eea1 023e 00bb fc3d
00000040: 63a7 7dbd 60d3 bcbd 4890 23be 41de 0f3e
00000050: 85f8 e7bd 072c 993c 14ab 523d a5aa 7a3d
00000060: 381e d03d c9f6 33be 25d3 8a3d 865e f03d
00000070: 4c1b 213d 3129 2c3d bf93 823d 4c8c 133e
-0.0011287315 -0.18898508 -0.14552107 -0.07915979 0.05092086 0.15293798 0.073930405 0.022267548
0.16535442 -0.085241646 0.19867705 0.079193324 -0.028930819 -0.13319819 0.12757084 0.12340355
-0.06192721 -0.09220004 -0.15973008 0.14049627 -0.11326698 0.018697752 0.051432684 0.061197896
0.10162014 -0.1757461 0.06778554 0.11736779 0.039332673 0.04203147 0.063758366 0.14408988

conv2.weight f4 [64, 32, 3, 3]
00000000: 24e9 b73b 5a6b 063d b30a 2a3c ac82 f63c
00000010: 2f56 de3d 964a 8cbd f317 0f3c 69e6 0abe
00000020: c476 1abe 5815 d4bc 98a8 5c3c 1544 4cbc
00000030: 242c fbbb 6826 9dbc 16d7 ffbd 8b39 d2bc
00000040: 82a6 84bd aed2 00be 6368 203e f970 ccbd
00000050: a998 203d d9c9 e73c 3ea7 b33d eda6 0a3e
00000060: 0e9d 053c 6e36 d73c 27d8 25be 7a08 65be
00000070: 3cbe 8cbe 438c 4bbe 3df2 59bd 730d 9c3d
00000080: 2126 56bd 9b94 28be 9551 683e 751e aa3d
00000090: b08b 8cbe 3449 aebc 9d34 843d 0522 81bd
000000a0: c2e7 903c cd00 a7bc bc1e a8bd 0109 edbb
000000b0: fd06 ccbd e9b3 153e 19df 643d 8436 76be
000000c0: 611b 09bd 450e 32bd b00f 5fbe 5ac8 e83d
000000d0: 3739 edbd 4351 d9bd 9c13 06bf 90c2 3ebc
000000e0: d0b7 b63d 9360 2abf 12d2 993e 09f9 463e
000000f0: a62f 683e 17cd 5d3e df55 fcbd 6a70 49bc
00000100: 6460 06bb 50a6 673d 6348 6b3d a6c6 5cbd
00000110: 7181 3e3d 4680 083a 129d 3ebd 1e6f 8b3c
00000120: 3b12 643e 3487 26ba 7e93 76bd 4b00 4dbd
00000130: b908 8cbe e451 9ebe 3258 97bb cff5 983c
00000140: cb70 ea3d a9ec 163d 6ebf 80bd 7507 3a3b
00000150: a1bb ffbd a723 a93d 1c46 fd3d 9e93 6cbe
00000160: fffb 5a3e 9d85 553e 61e9 333e 2e41 aa3b
00000170: f461 dcbc fe2f eabd ddc7 80be ee06 9ebe
00000180: 61de 8ebd 7913 0a3d c14f 3ebe 0b5a cebb
00000190: 4fa3 bfbd f4ab a53e f1a7 48be 1409 adbc
000001a0: 7b55 08bd 0eb9 2ebe 74c9 983e cfe8 f63d
000001b0: 065a 27be b617 103e bb20 4e3e b113 82be
000001c0: 9137 133e 3540 5d3c efdb 053d 0f8b e63d
000001d0: 5127 8bbe 2b88 8e3e 5901 04bd a5f7 eb3d
000001e0: 217e 12bd 3212 dd3d 5a13 23be 80b8 e7bb
000001f0: d09e 273e c16e 44be 76cb b63e f30e 18be
00000200: a195 65be 562f 6b3d 2c01 e3bc 17dd 1cbe
00000210: 32a6 80bc ff1e 9a3d 64f8 803e f06c a73e
00000220: ad00 81be ac6e 653d 796b 7fbe bf2c 003e
00000230: f899 803d 3ffe 08bd 3165 e43c a459 16bd
00000240: c166 6fbc 1c02 b3bd bb66 d1bd 6b3f f3bc
00000250: f2d0 793b 8c5f 393b f21d b2bd 4cf2 aabd
00000260: a8db 3abd de81 db3d 9ebc 7dbd eaad 11bd
00000270: ad3f 19bd c73f 8d3d 518f 5cbc 06d5 a0bd
00000280: 7780 42be cb41 03be 0ab3 10be dbb4 d73d
00000290: a61b ab3d c8f4 9abd 10b5 45bd 4df5 59bd
000002a0: 9532 9ebd 71ee f0bd 5021 1ebe 4f42 e13d
000002b0: 3cad 19be 826f 2cbc 5153 c33d 8488 6fbe
000002c0: 6574 69bd bcb4 3d3e d926 01be 4b5b 993e
000002d0: 3bb0 b9bc f414 423d 3dec b03d 5049 12bb
000002e0: 2799 2b3d 6c2e ae3c 6e8a 91bd d2f7 023d
000002f0: 7781 bd3d 649b 8a3c 2e85 d63d fefd d83d
00000300: 58b8 2d3d c7ab 4fbd 8235 abbd 74ad b63d
00000310: 2e35 3dbe f9a2 d3bd 24a3 1fbd 0fc9 06be
00000320: ab2f 91bc 0042 213d e788 50bc da8a 5c3b
00000330: 336c 00ba 8582 bebd ceae 7ebb d1b3 02be
00000340: 4fbf 5c3d b7f3 613e 7e94 4dbe ef02 8abd
00000350: 9432 6a3d 6312 dbbd ebcf 5bbe 5aed e3bd
00000360: 8804 80bd 8d00 5a3c 84a4 16be 11f2 023e
00000370: 1872 7f3c a35a 1bbe 21c0 da3c c505 7c3d
00000380: af48 193e b5c7 febd aa62 75be 6955 4a3c
00000390: 27f2 d2bd 7611 aebd db47 5d3d 8a30 40be
000003a0: e659 103e 3e9f 0f3e 0b60 b13c de0b b03d
000003b0: 1875 4b3d 2d4f 8e3d fcc6 03bd e1a0 a0bd
000003c0: 89d1 2a3c da96 f7bc 0eed 1fbe 97f0 4c3e
000003d0: 5d25 89be 0373 4ebe 1e02 5abd 2bfa 93bd
000003e0: 5f27 8c3c 6413 40be eaa5 4b3e 2b4c 263d
000003f0: 1075 8f3d 3718 e63d 7e5a 6e3e 04d3 b5bd
0.0056125093 0.032817222 0.010378527 0.030091606 0.10856282 -0.06850164 0.008733737 -0.13564457
-0.15084368 -0.025889084 0.01346793 -0.012467404 -0.007665174 -0.019183353 -0.12492196 -0.025662204
-0.06477071 -0.12580368 0.1566482 -0.09982485 0.039208088 0.02829449 0.08772133 0.1354024
0.008155121 0.026271071 -0.16195737 -0.22366515 -0.27488887 -0.19877724 -0.053209532 0.07619753
-0.052282456 -0.16462938 0.22687371 0.083065905 -0.27450323 -0.02127514 0.06455348 -0.06305317
0.017688636 -0.020386124 -0.08208987 -0.0072337394 -0.099622704 0.14619412 0.055876825 -0.24044234
-0.033473376 -0.04347064 -0.21783328 0.11366339 -0.115831785 -0.106112026 -0.5237367 -0.011643067
0.08921778 -0.6655361 0.30043083 0.19430937 0.22674426 0.21660267 -0.12321066 -0.012294868
-0.002050423 0.056555092 0.05744208 -0.053900383 0.046510164 0.00052071025 -0.046536513 0.017020758
0.2227258 -0.00063525443 -0.060199253 -0.050049108 -0.27350405 -0.30921853 -0.004618668 0.018671898
0.11447295 0.03684679 -0.06286512 0.0028385792 -0.12486959 0.08258753 0.12366888 -0.23103186
0.21385191 0.2085175 0.17569496 0.0051957583 -0.026902176 -0.11434935 -0.25152484 -0.30864662
-0.06976009 0.033709977 -0.18585111 -0.006297355 -0.093573205 0.32357752 -0.19595315 -0.021122493
-0.033284646 -0.1706278 0.29841197 0.120561235 -0.16342935 0.14071545 0.20129673 -0.25405648
0.14376666 0.013504078 0.03268045 0.11256992 -0.27178434 0.27838263 -0.032227848 0.11521844
-0.035764817 0.10794486 -0.15925351 -0.0070715547 0.16369176 -0.19182874 0.35702103 -0.14849453
-0.2242036 0.05741819 -0.02771052 -0.15318714 -0.015704248 0.07525443 0.25189507 0.327003
-0.25195828 0.056013748 -0.24943341 0.1251707 0.06279367 -0.033445593 0.027880283 -0.03670658
-0.014611901 -0.08740637 -0.102246724 -0.029693326 0.0038118926 0.002828571 -0.08697118 -0.08346996
-0.045619637 0.107181296 -0.061947457 -0.035566248 -0.03741424 0.0689693 -0.013461904 -0.07853131
-0.18994318 -0.12818067 -0.14130798 0.10532542 0.08354883 -0.075662196 -0.048268378 -0.053212453
-0.077244915 -0.11764229 -0.15442395 0.109989755 -0.1500749 -0.010524632 0.09537376 -0.2339192
-0.056995768 0.18525976 -0.12612475 0.29952464 -0.022667041 0.047383264 0.08638809 -0.002232153
0.041894104 0.02126237 -0.071064815 0.03197462 0.09253209 0.0169198 0.10474621 0.1059532
0.042412132 -0.05070093 -0.08359815 0.08919802 -0.18477318 -0.10333819 -0.038973942 -0.13162635
-0.017722925 0.039369583 -0.012727953 0.0033652098 -0.00048989354 -0.093022384 -0.0038861516 -0.12763907
0.053893384 0.22065626 -0.20076177 -0.06738841 0.05717714 -0.10696866 -0.21466033 -0.111292556
-0.06250864 0.013305795 -0.14711195 0.12787654 0.015591167 -0.15171294 0.026702942 0.06152894
0.14969133 -0.12440435 -0.23963419 0.012349465 -0.10300093 -0.08499424 0.054023605 -0.18768516
0.14096794 0.1402559 0.021652242 0.085960135 0.049672216 0.06948695 -0.03217219 -0.07843185
0.010425934 -0.030223299 -0.15617773 0.20013653 -0.26786318 -0.20161061 -0.053224675 -0.0722545
0.017108617 -0.18757397 0.1988751 0.040599983 0.0700475 0.11235087 0.23276708 -0.08878139

conv2.bias f4 [64]
00000000: 3e66 b73c 5c63 4dbc e710 793c 8df3 a73b
00000010: c33b d5bb a22e 75bd 66f8 e1bd e4c4 ea3d
00000020: 27dd 0bbd 9ee0 043c cbc9 ad3c 5229 d6bc
00000030: c719 093c fa27 473d 26d3 34bd 8cf0 8bbc
00000040: 20d8 a73d 935f 4dbd f847 11bd a1a5 24bd
00000050: 3870 c9bd 230e 00bd 87ca f43d 4b74 b23d
00000060: 186a 37bc 4311 91bc 4191 4b3d e0d4 8dbd
00000070: 076b f8bd 0500 6bbd d0e6 76be 8fb0 8a3d
00000080: 1a85 95bd da8f a1bb ab54 c0bc c8d8 c73c
00000090: 822a 333e a0f6 9f3d 48ba 7bbd 68a3 cc3d
000000a0: bdf2 9abd ba54 1abd c547 abbd ed53 453e
000000b0: 8df2 8ebb 201b 98bc b34d 0fbd dcb9 a43b
000000c0: 4f17 2f3d b250 e73b 4698 073e 0d79 debd
000000d0: e566 f6bc db1d 843e efb8 4d3e 172f 0cbe
000000e0: c0e0 f43d 543f 59bc e3a4 0bbe 7d3e 16be
000000f0: a623 183e 5383 bdbd 8961 7fbc d572 043e
0.02238762 -0.012535896 0.015201784 0.005125469 -0.0065073683 -0.059858926 -0.11033706 0.11463335
-0.034146454 0.008110194 0.021214386 -0.02614275 0.008367962 0.04862211 -0.04414668 -0.017082475
0.081955194 -0.050139975 -0.035469025 -0.04019702 -0.09835857 -0.03126348 0.119526915 0.087135874
-0.011194728 -0.017708426 0.04969907 -0.06925368 -0.12129789 -0.057373066 -0.24111485 0.06771957
-0.07300778 -0.0049304785 -0.023477873 0.024395362 0.17496684 0.07810712 -0.06145695 0.09992105
-0.0756583 -0.037678458 -0.08363298 0.19270296 -0.0043624104 -0.018567622 -0.03498621 0.005027039
0.04274684 0.00705918 0.13241681 -0.10862932 -0.03007836 0.25804028 0.20090078 -0.13689838
0.1195693 -0.0132597275 -0.13637118 -0.14672275 0.14857349 -0.09253564 -0.015587219 0.1293443

fc1.weight f4 [256, 576]
00000000: 61cb e03d 776d 1e3d bb0b f7bd 2f3c cab9
00000010: 02e3 3c3d 30d2 dbbd 1bac 96bc 68a8 9bbd
00000020: 5f92 69bc 2ef2 debe db10 0fbd 86ab 43bd
00000030: 40b5 ecbd 26ab e33c c7a1 2e3d c3aa 6ebe
00000040: 0316 fe3c e61a fbbc 584b bb3d e5a5 823d
00000050: c5ca ed3d 1dac 94bb ceaa 15bd bb7f 16be
00000060: 35bf e53d 69c2 3bbc a9cf 083e 1667 10bd
00000070: 5942 ca3d 5759 6f3d ea9d f2bb 6035 1cbe
00000080: ebf8 78bd e190 ee3d 2a33 0c3d 2b1d 433e
00000090: e318 7c3d 9ee3 2c38 3b13 b3bd a997 8abd
000000a0: f4bb f5bc bd80 353e 2c53 bcbd aa80 0d3e
000000b0: 66b1 7cbe 089e 5a3d 3baf 8bbc 3d2a 863d
000000c0: 56c2 32bd d487 babd a56c 45be 51c7 6bbd
000000d0: 4644 d5bd 6314 ce3d e658 f5bc 5bbf c73c
000000e0: 2ce5 3c3d 0ee7 1dbd 8ce8 06be 872d a23d
000000f0: 9af7 013e 9f25 053e eccd f53d 12eb 94bd
00000100: 7dec 123e 8af6 fcbd c4e9 68bd fa2a f2bc
00000110: 7fe4 3fbc 2efb 25bd 5328 13be 12ff 813d
00000120: 8b56 d83c a45a 49bc 096b 803c 4477 663d
00000130: 1aa1 953c edf6 0abd 1947 473d a2fa 0bbc
00000140: 1efe 1c3d 7456 b6be 1bbe 893e b575 3e3e
00000150: 5636 4fbe d91e d7bc 80d7 c8bc fdcc e7bc
00000160: b867 be3d a0e1 42bc a012 47be 0c66 5c3d
00000170: 5990 00be 8aea 343d f939 eebc 1c96 c83d
00000180: d48f 14bd 4761 aa3c 1413 dbbc 0cae 93bd
00000190: 9aa1 8bbd 9684 883e 78f1 7a3d 7088 f13d
000001a0: e2c5 96bd 911d 013e b08e 263c e212 253d
000001b0: 283e 82bd 0506 1a3c 1e67 753c 4a4c aabd
000001c0: 6a4d 403e 0854 aabd 9200 b3bd bf3d d4bd
000001d0: 1d8d ab3c 3fc1 ea3d 4a8e a1bd 9555 e1bd
000001e0: ccfe aebd 0893 8b3d 26ee 76bd 8713 753d
000001f0: 87b3 993c 332f 36be 00b3 7c3c e365 dcbc
00000200: d6ef 26bc 732f 87bc 0b4c ae3c 60b5 fdbc
00000210: 5824 1abd 07fa 23bd ef8f c83c dfd6 b0bd
00000220: b814 573d 9100 70bc 0821 82bd 58a8 7e3c
00000230: e01c d1bd 8f1c 81bd 0fcf 9abd 5fa1 143d
00000240: 5ff5 c03d 29e0 013d e632 923d ad55 1dbd
00000250: cdea a4bd 64b0 f13b 02d7 8a3c e42a b03c
00000260: 8751 803d a4d4 5bbd e2fc b03d 08ce 243d
00000270: 895c 543e 010b 11be bdad 363d d32b 88bd
00000280: 40a0 0ebe 69fe 8bbd a7d4 5abe d516 593d
00000290: 7783 8ebd 9f68 7d3d 1308 953d bec1 063e
000002a0: 4f2f 87be e84d 093d 797c 2f3e 976b 86bd
000002b0: 4807 3dbc f0a9 84bc eadb 253d 316b 393c
000002c0: e689 aa3d c255 4fbd 9e6f e43d 71ae 2ebe
000002d0: 358e 033d 3cd3 e4bc 8dac 6bbd 228a f7bd
000002e0: 485e bc3d 0e77 b83d 116e fbbc 234e 933e
000002f0: 6f22 8cbe 8716 b83b 3c61 2d3c 8c44 aabc
00000300: 67f0 d03c 2fe4 ad3c 35dc 703c 30dd 9dbc
00000310: e552 e83b 103e 07bd 6e78 83be 493e 203e
00000320: 5b5c a0bd f05a fb3d c900 fc3c e4a6 193c
00000330: 1399 7d3d bb1f ccbc 43d9 67bd 5d3a 7a3d
00000340: 7575 893d af9d a5bd a30e 9ebd e0e4 bd3d
00000350: 22cf 8c3d 2a4e 823d acab 92bd 5b6b 8c3c
00000360: fba8 6bbc df10 1f3c 4048 c4bb 2b86 12bc
00000370: 1013 6d3c 30ba 30bc fb43 9fbc c809 88bc
00000380: 6813 a83c e2e1 063d 50b3 a4bc ab62 ddbc
00000390: 7410 083d c254 2f3c acd5 493d b27b 393c
000003a0: 646d 4739 1fff b23c 7203 4a3d 65da 163e
000003b0: 8127 233e 1fa2 62bd 4c9c 073c c262 71bd
000003c0: 85ff 1ebd 589b 98bd a6d2 8d3d 7059 df3b
000003d0: 283d ed3c 7698 f43c c62c 2ebd 0821 c6bc
000003e0: 96c3 12bc ddd5 a4bb 18d7 c03c 8bf1 fbbc
000003f0: 5755 fdbd a631 85bd f464 053e 2979 9cbc
0.109762914 0.038678613 -0.12062784 -0.00038573283 0.04611493 -0.107334495 -0.018392613 -0.0760048
-0.014256089 -0.43544143 -0.034928184 -0.047771 -0.11558008 0.02779157 0.04263475 -0.23307328
0.031016355 -0.030652475 0.0914523 0.06379298 0.11610941 -0.004537119 -0.036539845 -0.14697163
0.112181105 -0.011459925 0.13360466 -0.03525456 0.09875936 0.05843481 -0.0074040787 -0.15254736
-0.06078426 0.11648727 0.03422848 0.19054095 0.06154717 4.121998e-05 -0.08743902 -0.06767208
-0.02999685 0.17724891 -0.09195551 0.13818613 -0.24677047 0.053373367 -0.01705133 0.06551025
-0.043642364 -0.091079384 -0.19279726 -0.05756313 -0.10413413 0.10062482 -0.029949617 0.024383238
0.046116993 -0.03855043 -0.13174647 0.0791884 0.12692109 0.13002633 0.12002167 -0.072713986
0.14348026 -0.12351711 -0.05686356 -0.029561508 -0.011712193 -0.040522747 -0.14370851 0.06347479
0.026408454 -0.012289677 0.015676038 0.056266084 0.018265296 -0.033926893 0.04865179 -0.008543642
0.038328283 -0.35612833 0.2690285 0.18599589 -0.20235571 -0.026259826 -0.02451682 -0.028295988
0.092971265 -0.0118946135 -0.19440699 0.053808257 -0.12555064 0.044168986 -0.029080378 0.09794256
-0.036269978 0.020798339 -0.026742496 -0.07210931 -0.068179324 0.26663655 0.06126544 0.117936015
-0.07361962 0.12608935 0.010165855 0.04030121 -0.063595116 0.009400849 0.014978198 -0.08315332
0.18779531 -0.08316809 -0.08740343 -0.1036334 0.020941311 0.1146264 -0.078884676 -0.110026516
-0.085446924 0.06815153 -0.06028571 0.059833076 0.018762363 -0.17791443 0.015423536 -0.026904052
-0.010189017 -0.016502118 0.021276494 -0.030970275 -0.037632316 -0.040033367 0.024482695 -0.086347334
0.052509993 -0.014648573 -0.063539565 0.015543066 -0.102105856 -0.06304275 -0.075590245 0.036286708
0.09421801 0.031707916 0.07138614 -0.038411785 -0.08052597 0.0073757637 0.016948227 0.021504827
0.0626555 -0.053669587 0.086419836 0.04023555 0.20738424 -0.14164354 0.044599283 -0.06648984
-0.13928318 -0.06835634 -0.21370183 0.05300029 -0.06958669 0.061867353 0.07276931 0.13159844
-0.2640328 0.033521563 0.17137326 -0.0656349 -0.0115373805 -0.016194314 0.04049293 0.01131706
0.08327083 -0.050618894 0.11154102 -0.17058732 0.03211804 -0.027932756 -0.057537604 -0.120868936
0.0919767 0.09007083 -0.030692132 0.2877055 -0.2737002 0.00561792 0.0105822645 -0.020784639
0.025505258 0.02122697 0.014700939 -0.01927051 0.00708996 -0.03301817 -0.25677818 0.1564876
-0.078301154 0.12273204 0.030762093 0.009378169 0.06191356 -0.024917474 -0.05660368 0.061090816
0.06711856 -0.080867164 -0.077176355 0.0927217 0.06875445 0.06362565 -0.0716165 0.017141035
-0.01438355 0.009708612 -0.005990058 -0.008943121 0.014469877 -0.010786578 -0.019441595 -0.016606227
0.020517066 0.032930262 -0.020105034 -0.027024588 0.033218816 0.01070136 0.04927604 0.011320995
0.0001901887 0.021850167 0.049319692 0.14731748 0.15933038 -0.055330392 0.00827701 -0.058932073
-0.0388179 -0.074515045 0.069249436 0.0068160817 0.028959826 0.029857855 -0.042523168 -0.024185672
-0.008957764 -0.0050303773 0.023540065 -0.030754825 -0.12369793 -0.0650361 0.13026792 -0.019100742

fc1.bias f4 [256]
00000000: 884f a23c 8632 30bd 92a6 c33c 42b6 83bd
00000010: d53d 05ba 235a 6f3d eef3 473c 9396 3c3c
00000020: 870c 793d fb45 7fbc 1b48 c33c b384 303c
00000030: 20e9 4fbc 08ec 1b3e d987 443e c820 10bd
00000040: c2dd f73c afe5 55bd 7c16 6bbd adfe 9ebc
00000050: 3595 70bd 40f7 1d3e c7c8 163c 743e 5b3c
00000060: 0527 293d 3966 013e a55a b83c 2b5a eebc
00000070: d427 7d3d adad 883d 65f2 883d 4e28 c63b
00000080: 4b10 913d fab7 1fbd ae6a b8bb 5c1b 91bc
00000090: b9e5 f53b 9477 073b d7b6 ecbb 7b66 cf3d
000000a0: 7210 a73c 561e 01bc 1d83 fabb cb81 8bbb
000000b0: 6654 083c 7216 34bd 5c74 7d3d 11d2 49bd
000000c0: 0ca9 743d f2d6 16bd 6ec4 b73d 8c91 82bd
000000d0: db35 64bc 0ba1 99bb baed 25bd b04a 593c
000000e0: ea5a da3c b641 60ba 2f2e 873c 1fe0 8abb
000000f0: 22b7 92bd ba6a 00bc 9e59 4a3d 52f3 9d3d
00000100: 3609 a83d b8bd 5bbc 4626 25bd 044f b83c
00000110: 3d7b 0ebd bd93 b33d 3cc3 52bd e82f b7bb
00000120: d454 833c dda6 f03b e76e e4bc f3a6 2abd
00000130: 6bf3 db3d e271 343c 104f d83c 4e39 c13d
00000140: d436 f63d 5dbf debc 9571 c8ba ebbb 96ba
00000150: c081 873c 33fc 893b e9f5 d93c f2db b13d
00000160: 9d09 eb3d d16d 1cbd e305 903d a24a 243d
00000170: e465 be3c d76f babc 2b53 0b3d 159d 2d3d
00000180: 0731 31bd 200d 83bd 71cc 713d efe2 7fbd
00000190: 41b9 48bd c0f5 15bd 4774 013e dec7 aa3b
000001a0: 12ee 1b3c 74d2 093e d7ca f93c 0ae2 2a3d
000001b0: f2de 93bc 9610 363c 2ed4 113d d447 8bbb
000001c0: 84e8 db3d efec 5ebd 28af 3a3c cf2b 96bb
000001d0: 64b2 293c febd c33c 2274 28bd 55cf 93bc
000001e0: fbb8 3abc 3376 873d f8e4 2ebd 3f92 283d
000001f0: 253e 8abd fd78 363d 6fe5 abbd 1b0b 903c
00000200: 657b 33bd 6b8e 643c 79ab a83c 6821 44bc
00000210: 5640 133e bd4d a43c 3e79 91bc 0175 b93c
00000220: 8ed5 c03b 4f4c 253e 0fd0 c3bc 11f2 97ba
00000230: 12a2 36bd 367c eebc ac9c 7abd f3b0 77bd
00000240: 2ab7 3fbd c6de 133b 4a82 1bbb 591f 073e
00000250: 39b5 093c 85db 26bd 5a3e 383c e2d9 893b
00000260: 6aa5 973d e17b 62bd e666 2a3a 6aaa bd3d
00000270: 8d66 08bd 6c61 403d 8700 e13d bbb2 973c
00000280: fe40 27bd 9fd4 a5bc 6c53 a33c c00c f1bc
00000290: a539 b93d f561 b4bc d6a5 813c a875 e53d
000002a0: 3f7e 80bd 4a4e febb a1a6 7dbc 22fb 36bd
000002b0: f1b4 5b3d 3efe eb3c de95 733c a0c9 67bd
000002c0: da66 debc db2a 3b3c 78a7 c1bc 1370 e33c
000002d0: 9a7b 29bd 1529 65bd a98f 913d c2a5 013e
000002e0: d255 613d 6f70 91bb e8a7 59bd 9205 a43d
000002f0: f046 47bd ca60 4f3c aeaf 703c ac50 89bd
00000300: e617 09bd 7d27 a23d f61f 9bbc 4650 4c3c
00000310: caad 3bbd c425 413d c977 603d f8d6 c1bc
00000320: 959d 54bd 9f07 c2bc ff96 1a3c 7975 13bd
00000330: 1e86 473c 0cdb 303d 32d4 ce3d 97a0 f83c
00000340: 0927 9b3d e1a0 28bd 6ec9 b439 fb83 77bd
00000350: efaa 6fbd cde3 733d 2c8d 8dbc 6812 d3bc
00000360: bdaa f43a 5478 cf3d 951a 2bbd 3bbc b13d
00000370: d758 08bd c6e5 733d 1ca4 2fbc 0c0f 29bd
00000380: e1d9 973d ee3f 243e 94c2 e03d 8955 57bd
00000390: 14f9 bb3c f0e0 bd3c 0993 803b 694e d6bb
000003a0: b1e8 c83c 0666 42bd f82c 13bd dd49 be3d
000003b0: 53b2 f43b 0308 e1bb 6a0a 243d 133f 12bd
000003c0: f89f 21bd 724e e73b 1c8a 0f3d 78f1 7b3d
000003d0: e684 0c3d 267f dcbc 40bd fdbc 0f9d 06bd
000003e0: 15cf 7ebd 0e51 fdbc 0d4d e83d eee9 15bd
000003f0: 5bd6 c2bc 49c4 1f3d 09d9 0bbd de35 223c
0.019813314 -0.043016933 0.023883138 -0.06431247 -0.0005082761 0.05843557 0.012204153 0.011510509
0.060802963 -0.0155806495 0.023838094 0.010773825 -0.012689859 0.15226758 0.19192447 -0.035187513
0.03025711 -0.052220996 -0.05739449 -0.019408548 -0.058736045 0.1542635 0.0092031425 0.013381589
0.041296978 0.12636651 0.02250416 -0.02909573 0.06180556 0.06673751 0.06686858 0.006047285
0.07083186 -0.038993813 -0.0056279516 -0.017713241 0.0075041917 0.002067064 -0.0072239446 0.101269685
0.020393584 -0.007880768 -0.0076450245 -0.004257416 0.008320903 -0.043966718 0.061878547 -0.0492726
0.05973153 -0.03682608 0.08973013 -0.06375417 -0.013928856 -0.0046883873 -0.040509917 0.013262436
0.02665468 -0.00085547136 0.016501514 -0.004238143 -0.07163836 -0.007837946 0.04940187 0.07712425
0.08204882 -0.013411932 -0.040319704 0.022498615 -0.034785498 0.08768413 -0.05145572 -0.0055904277
0.01603166 0.0073441104 -0.027884914 -0.04166312 0.10739788 0.01101348 0.026404887 0.09434758
0.120221764 -0.027190858 -0.0015292639 -0.0011500096 0.016541362 0.0042109727 0.026606517 0.08684529
0.11476443 -0.038190667 0.07032373 0.040110238 0.023241945 -0.022758408 0.034014862 0.042386133
-0.043259647 -0.06398988 0.05903286 -0.06247228 -0.049004797 -0.03661132 0.12642013 0.0052118143
0.00951721 0.13459188 0.03049223 0.041719474 -0.018050645 0.011112353 0.03560274 -0.004250506
0.10737708 -0.054425176 0.0113943 -0.004582859 0.010357473 0.023894306 -0.041126378 -0.0180432
-0.011396642 0.066143416 -0.04269883 0.041155096 -0.067501344 0.044548977 -0.0839337 0.01758342
-0.04381885 0.013949971 0.020589577 -0.011970855 0.14380011 0.0200566 -0.017758008 0.0226388
0.0058848327 0.1614239 -0.023902921 -0.0011592527 -0.044588156 -0.029111963 -0.06118457 -0.060471486
-0.04680554 0.0022563203 -0.0023728781 0.13195552 0.008405023 -0.040736694 0.0112453345 0.004206882
0.07404597 -0.05529392 0.00065003184 0.092610195 -0.033300925 0.04696791 0.10986429 0.018517843
-0.040833466 -0.020242987 0.01993724 -0.029425025 0.09044198 -0.022019366 0.015826147 0.11204082
-0.062740795 -0.0077607976 -0.015481622 -0.044673093 0.053639356 0.028807756 0.014867274 -0.05658877
-0.027148653 0.011423792 -0.023639426 0.027763402 -0.04137764 -0.055947382 0.07107479 0.12660888
0.055013485 -0.004438452 -0.053138644 0.08008875 -0.048651636 0.012657354 0.014690323 -0.0670484
-0.033470057 0.07917688 -0.018936139 0.012470311 -0.045820035 0.047155157 0.054801736 -0.023662075
-0.051908094 -0.023685275 0.009435414 -0.036000703 0.012177972 0.04317765 0.10099067 0.030350013
0.07575805 -0.04116905 0.00034482352 -0.0604286 -0.058512624 0.05954342 -0.01727923 -0.025765613
0.0018666607 0.10130373 -0.041773397 0.0867848 -0.03328785 0.0595453 -0.010720279 -0.041274115
0.07414604 0.16040012 0.10974613 -0.052571807 0.022945918 0.023178548 0.003923778 -0.006540109
0.024525018 -0.04746058 -0.035931557 0.09291432 0.007467547 -0.00686741 0.040048994 -0.035704684
-0.0394592 0.007058912 0.03504382 0.06150958 0.03430643 -0.026916098 -0.03097403 -0.032864626
-0.062209208 -0.030922439 0.11342821 -0.036600046 -0.023783853 0.03900555 -0.034142528 0.009900538

fc2.weight f4 [10, 256]
00000000: b0ed 20bd 40f0 0c3e bc57 07ba f0e1 ac3c
00000010: 8835 033d f213 43be d16a 023e f089 e63b
00000020: 95b2 363d 55b7 713c 099e b53d 84dc e8bc
00000030: 2c61 8cbc bcef 14be e2ce 7a3d ede1 d236
00000040: 44f6 493d b2bd 1cbd f167 1d3d 0f36 a63c
00000050: 4988 453d f79c 853d 9ee1 13be 2b52 37bd
00000060: eb6e 11be 766b d0bd 5b42 c1bc 2c28 10bd
00000070: e159 8a3d fb05 d1bd 8d8c 013e 3c5b 00bd
00000080: c73a 6dbe 4f41 4c3d 3ada 0c3e 7449 38be
00000090: 1227 5abe 6645 bd3c e020 dcbc f9c2 8ebe
000000a0: 5e6e 8dbe e6c2 9f3d 65cf 4d3d 709f 2bbe
000000b0: dd48 b03d b948 78bd 634f 7c3d ad73 63bd
000000c0: bb33 d73d 8ea5 1ebd c61e 463e 8d94 2e3d
000000d0: 695b 2dbd 4d38 16bd 1392 debc ae69 9bbc
000000e0: 07be 513b 848e 4c3d 390f e63b 7c99 3bbe
000000f0: 7e56 69bd 9a92 573d 29de 933d e3fa 94be
00000100: 52df b13d 2b8b 293d 4e00 fa3b 6cec c8bc
00000110: 8e59 d1bc 1e66 a4bd ea1d 1abc ddd7 8f3c
00000120: 47e6 8c3b 565a 5fbd 042b 44bb 38d2 bfbd
00000130: beeb b43d ed26 5fbc 7668 90bd f64a a83d
00000140: 004b ba3d 98b1 98bd 4ab8 e23d 3257 c13c
00000150: 19e4 37bd 27b7 39be f803 09be 8062 b93d
00000160: 919f 1abd a064 753d a9a7 4fbd bc2f c03c
00000170: c9ae 41be 43d7 0a3d 46bc 03bd 38fd e7bd
00000180: a725 73bd 1e66 a6bd b4a7 e63c 7715 653c
00000190: ffd1 cbbc 0578 6bbd 6d89 62bd f50a 65be
000001a0: 40e1 1c3d b8d4 18be 8830 14be a35f 40be
000001b0: 2d2d f7bc 6bbe 70bc 8b12 f0bd 9218 f3be
000001c0: 33fe 133e 6c26 033e 5eb6 7dbe f441 0ebd
000001d0: 6a5f 34be 4e4c 1ebe 6818 0ebc e731 0abd
000001e0: ada4 e3bc afd6 69be 24f2 19bd d215 7a3d
000001f0: 719b f0bc df57 503d b1f7 f13d 4732 e5bc
00000200: 9264 053d 08ac 613d 8d15 d63d cf87 4c3d
00000210: 56c0 b63d 1654 10bd 6e3b 82bd 451a ae3c
00000220: 3082 a93d 24d1 eb3d 9ce5 2ebc f711 6fbc
00000230: b8ee 683d 71c6 983c 40dc 62bd ccdc ef3c
00000240: e430 5cbc 1f99 1fbd 5064 4b3d 3152 25be
00000250: 061d 0dbd 684e 88bd a805 52be c225 6cbd
00000260: 2732 903d 584e d43d e883 f63b 52ee 513d
00000270: ff43 bfbd 6f5b 773d 54e0 1abe a2db 56be
00000280: 69c0 cebb 8484 67bc 57c4 1cbd 1fc1 2fbd
00000290: 15ee 51be dd09 833d 2426 31bd 4103 e4bd
000002a0: 15a5 edbd feeb fa3c 0d47 3e3d 77c9 c33c
000002b0: e5e5 9e3d 20c2 bc3d 677c b63d c899 53be
000002c0: 6047 debd 3608 aabc a94b 91be 243b 68bd
000002d0: e299 1d3d 9e5b 28bd bc45 67be e048 983d
000002e0: 6b6f 72be 8a76 4ebc c1bf 153c f8c1 09be
000002f0: b1b7 33bd cda8 cabc 6369 26bd f073 1cbd
00000300: 7fa6 2cbb b1c0 873d 6427 05bd 627a 8bbe
00000310: df4a ef3b 73a2 af3d 76bd db3d 3b99 8a3b
00000320: d0d6 d7bc 6b76 01be 727c c33c bd74 4b3c
00000330: 7913 35bd 21ea 1bbd b884 d23d 827b be3d
00000340: 3fe0 8dbe f0b8 443b 2576 4abe b4b4 a7bd
00000350: 3121 14bd 9c2a babd 31e4 96bc 5e17 e3bb
00000360: 3fe9 71be 5fe0 9fbd 3889 4ebb 118c 10be
00000370: d2fb 02bd a7a8 d13d decd 163d 07ad 89bd
00000380: fc8b 08bd 6efb 0abc 4dba f03d 7b37 ffbc
00000390: 80c8 25be f42c 20be 8258 0cbd cf15 683c
000003a0: e386 c2bc 4305 a83c 870a e8b9 3042 843d
000003b0: 1462 12bd 3720 87bc 8cf0 3fbd a151 4e3d
000003c0: f1bc 6ebd 0e68 693d 05ca c13d 988d 94ba
000003d0: 3a93 04be 7039 6fbd b75f 9e3c 60cf 113d
000003e0: fc08 7abc 7533 2cbd bcc2 063e d144 0ebd
000003f0: 73c1 7fbd c1ee 97be 7977 29bd 8077 643d
-0.039289176 0.13763523 -0.0005162915 0.02110383 0.032033473 -0.19050577 0.1273606 0.0070354864
0.044603903 0.014753182 0.088680334 -0.028425463 -0.017136179 -0.14544576 0.061232455 6.284789e-06
0.049307123 -0.038266845 0.038429204 0.020289449 0.048225675 0.06524079 -0.14441535 -0.044756096
-0.14202468 -0.101767465 -0.023591211 -0.03519456 0.06755424 -0.10206219 0.12651272 -0.031337008
-0.23166953 0.04986697 0.13755122 -0.1799677 -0.21303967 0.02310438 -0.026871145 -0.27883127
-0.27623266 0.07800846 0.050246615 -0.1676004 0.086076476 -0.06061623 0.061599147 -0.05553024
0.10507914 -0.038732104 0.19347677 0.042622138 -0.042323504 -0.036674786 -0.027169263 -0.01897129
0.0032004134 0.0499406 0.0070208577 -0.18320268 -0.05696725 0.052630045 0.07220108 -0.2909766
0.08685173 0.041392487 0.007629431 -0.024526797 -0.025555398 -0.0802729 -0.009406546 0.017558986
0.004299912 -0.05452951 -0.0029932866 -0.09366268 0.08834027 -0.0136201205 -0.07051174 0.08217423
0.09096336 -0.07455748 0.110703066 0.023601148 -0.044895265 -0.18136273 -0.1338042 0.090519905
-0.03774983 0.059910417 -0.050697003 0.023460262 -0.18914331 0.033896696 -0.032161973 -0.113275945
-0.05936208 -0.08124946 0.028156139 0.013982168 -0.024880407 -0.057487506 -0.05530684 -0.22367461
0.038300753 -0.14924896 -0.14471638 -0.18786483 -0.030172909 -0.014693837 -0.11722287 -0.47479683
0.14452438 0.12807626 -0.24776599 -0.034730867 -0.17614523 -0.15458795 -0.008672811 -0.033738997
-0.027788484 -0.22835802 -0.03758444 0.061055966 -0.029370995 0.05086505 0.118148215 -0.027978076
0.032566614 0.055095702 0.10453329 0.049934205 0.08923404 -0.03523644 -0.063589916 0.02125276
0.082767844 0.115145 -0.01067486 -0.0145916855 0.056868285 0.018649312 -0.055385828 0.029280089
-0.013439391 -0.038964387 0.049656212 -0.16144635 -0.034451507 -0.0665558 -0.2050997 -0.057653196
0.07040816 0.103665054 0.0075230487 0.05125267 -0.09339141 0.060389932 -0.15124637 -0.20982221
-0.006309558 -0.014130715 -0.03827318 -0.042908784 -0.20500977 0.06398366 -0.043249264 -0.11133433
-0.116037525 0.030630108 0.046454478 0.023899777 0.07758693 0.09216714 0.089104466 -0.20664132
-0.108534575 -0.020755868 -0.28378037 -0.056697026 0.038476832 -0.041102998 -0.22585195 0.07435775
-0.23675315 -0.012601504 0.009139956 -0.134529 -0.043876354 -0.024738694 -0.04062785 -0.038196504
-0.0026344357 0.0662855 -0.03250827 -0.27241808 0.0073026265 0.085759066 0.10729496 0.0042296923
-0.026347548 -0.12642829 0.023863051 0.012417969 -0.044208024 -0.03806508 0.1027922 0.09300901
-0.2771015 0.0030017458 -0.19771631 -0.08188763 -0.036164466 -0.09090158 -0.018419357 -0.006930276
-0.23624133 -0.07806467 -0.0031514894 -0.14115931 -0.031978436 0.10237246 0.036817424 -0.067224555
-0.033336625 -0.008482797 0.11754284 -0.031154385 -0.16189766 -0.15642148 -0.034264095 0.014165356
-0.02374596 0.020510321 -0.00044258332 0.06457937 -0.035738066 -0.016494853 -0.046860263 0.050370816
-0.058285657 0.056984 0.0946236 -0.0011333702 -0.12946787 -0.058404386 0.01933275 0.03559816
-0.015260931 -0.04204126 0.13160223 -0.034733597 -0.062440347 -0.29674342 -0.041373704 0.055778027

fc2.bias f4 [10]
00000000: 93b3 78bd a5d5 04be d691 2ebb 0894 4f3d
00000010: b33d 1cbe 8858 19be b890 f33d 97d5 1e3d
00000020: 1d42 2bbd 37ed 48be
-0.06071813 -0.12972124 -0.0026637218 0.050678283 -0.15257911 -0.14975178 0.11892837 0.038777914
-0.041811097 -0.1962174
