saved_models/fmnist_qnn_2l.pt (torch, 683617 bytes, 8 tensors)

conv1.weight f4 [32, 4, 3, 3]
0	0x3d31e29f	0.043429013
1	0xbe9867d3	-0.29766712
2	0x3bb37b9c	0.005477382
3	0xbd7d77d7	-0.061881866
4	0x3eb5ab64	0.35482323
5	0x3d6e8fe6	0.0582427
6	0x3e12db6b	0.14341514
7	0xbe4ee4d9	-0.20204486
8	0xbe8bbfe8	-0.2729485
9	0x3e239a14	0.15976745
10	0x3c12edbb	0.008967812
11	0xbd0976a6	-0.033560418
12	0x3d38b14e	0.045090966
13	0xbe8e8471	-0.2783542
14	0x3dcc39b1	0.09971941
15	0xbe4a9482	-0.19783214
16	0x3c864225	0.016388962
17	0x3eb7e249	0.3591483
18	0x3e0c8e0f	0.13726066
19	0x3de6c475	0.1126794
20	0x3c41b67e	0.011823295
21	0xbd4f5807	-0.05062106
22	0xbe81f2bf	-0.25380513
23	0x3df53bc9	0.11974294
24	0x3da48230	0.08032644
25	0xbc9cc0de	-0.019134935
26	0x3ad5c91f	0.0016310549
27	0xbe80f7c7	-0.2518904
28	0x3e61c81d	0.22048993
29	0x3dc96658	0.09833974
30	0x3da6b1d9	0.081393905
31	0x3ee0d91c	0.4391564
32	0xbeb7efc1	-0.35925105
33	0xbc32d68f	-0.010915413
34	0x3dc30d6a	0.09524043
35	0xbd060760	-0.032721877
36	0x3de8f7e1	0.11375404
37	0xbe27377c	-0.1632976
38	0xbca4f384	-0.020135649
39	0xbd9da652	-0.07697739
40	0x3c85f2c0	0.016351104
41	0x3ea3cb44	0.31991017
42	0xbe3f24fb	-0.1866645
43	0x3cafd638	0.021464452
44	0xbeb53f35	-0.35399786
45	0x3eaab17a	0.3333853
46	0x3e8ad1f8	0.27113318
47	0x3e5b3687	0.2140752
48	0x3e0bef5e	0.1366553
49	0xbd008776	-0.031379186
50	0xbdb4e68e	-0.08833037
51	0x3d8e5727	0.06950217
52	0x3c263970	0.01014553
53	0x3de6fd64	0.11278799
54	0xbe5022f5	-0.20325835
55	0x3ee852fb	0.4537581
56	0x3dfea626	0.12434034
57	0xbeacef1d	-0.3377618
58	0x3e425109	0.18976225
59	0x3ea1327d	0.31483832
60	0xbea4c273	-0.32179603
61	0x3e92b6da	0.2865513
62	0xbbb5c77c	-0.005547462
63	0xbe8a9762	-0.2706862
64	0xbe90b756	-0.28264874
65	0x3ce146d5	0.027499596
66	0xbe7c416b	-0.2463433
67	0x3e7f783e	0.24948213
68	0x3e8747bc	0.26421916
69	0x3e281c10	0.16416955
70	0xbd967e10	-0.07348263
71	0x3e5ef2f8	0.21772373
72	0x3ca1bead	0.019744242
73	0x3e00ddc0	0.12584591
74	0xbde6888c	-0.11256513
75	0xba13a1f4	-0.0005631738
76	0xbe32c0de	-0.17456385
77	0xbd654cd4	-0.055981472
78	0x3dc5c4c1	0.096566685
79	0x3c5deb17	0.013544819
80	0x3d44a354	0.048007324
81	0xbe1d90a7	-0.15387212
82	0x3e06e0db	0.13171713
83	0xbe4d500e	-0.2005007
84	0x3dd6a9d4	0.10481611
85	0xbe52bb39	-0.20579232
86	0xbc64403d	-0.013931331
87	0x3ddc7c22	0.10765864
88	0x3dd4f173	0.10397615
89	0x3dd1c528	0.10242683
90	0xbe6d9e38	-0.23204887
91	0x3e4fe83c	0.20303434
92	0x3da95114	0.082674176
93	0x3e78987c	0.24276918
94	0x3e6b2ca7	0.22966252
95	0xbd9e55f9	-0.07731242
96	0x3e72a580	0.23695946
97	0x3ea41040	0.32043648
98	0x3e115684	0.1419316
99	0xbe4644b3	-0.19362144
100	0x3bdd5a73	0.006755167
101	0xbda97fd4	-0.082763344
102	0xbd0d1e18	-0.034452528
103	0x3682a80b	3.8938647e-06
104	0x3dca0581	0.09864331
105	0x3c499fc9	0.012306162
106	0xbd9fd108	-0.078035414
107	0xbd64c63a	-0.055853106
108	0xbbdd2013	-0.0067482083
109	0x3db4aff8	0.08822626
110	0xbe9122d5	-0.28346887
111	0x3da195cd	0.078899
112	0xbdb47f1f	-0.08813309
113	0xbe1bb4b1	-0.15205647
114	0xbdc1fb4d	-0.0947176
115	0x3e34b35b	0.17646544
116	0xbdd3f142	-0.10348751
117	0xbdcf7727	-0.101301484
118	0x3dd55034	0.10415688
119	0xbe8fc41c	-0.28079307
120	0x3e72d651	0.23714568
121	0x3e7c4408	0.24635327
122	0xbccdd6f7	-0.025126917
123	0xbd3bcccf	-0.045849618
124	0x3db716a3	0.089398645
125	0xbe6c1882	-0.23056224
126	0xbe8158f1	-0.2526317
127	0xbd3c44e9	-0.045964155
128	0xbeec998b	-0.46210894
129	0xbf13d6fb	-0.5774991
130	0x3e38fb63	0.18064646
131	0xbea70d89	-0.32627514
132	0xbdd93039	-0.10604901
133	0xbe153351	-0.14570357
134	0x3eb79cee	0.35861915
135	0xbe0843b5	-0.13307078
136	0x3df41384	0.11917785
137	0xbe9cdbc5	-0.3063642
138	0x3d5dd7a5	0.054160733
139	0x3e899fd9	0.26879767
140	0x3cced17d	0.025246376
141	0xbd98b2c0	-0.07455969
142	0x3e87fbd5	0.2655932
143	0xbe0c8f54	-0.1372655
144	0xbe239ad8	-0.15977037
145	0xbdb6a391	-0.089179166
146	0xbd8d6790	-0.069045186
147	0xbea50209	-0.32228115
148	0x3e8f7ef5	0.28026548
149	0x3e0a8802	0.13528445
150	0x3ebba9a5	0.36652866
151	0x3d509ae4	0.050928965
152	0xbed49335	-0.4151856
153	0xbd98968b	-0.07450589
154	0x3e6bad2c	0.23015279
155	0x3c90efe4	0.017692514
156	0xbe90b74e	-0.2826485
157	0x3b2a4696	0.0025982014
158	0x3d7510fd	0.059830654
159	0xbe30b790	-0.17257524
160	0xbd901ed0	-0.07037127
161	0x3e8f5bad	0.2799963
162	0xbe253bb0	-0.1613605
163	0x3e540738	0.20705879
164	0x3de2531e	0.110510096
165	0xbd2852ea	-0.041094698
166	0xbedcc200	-0.4311676
167	0x3d95aa0e	0.07307826
168	0xbdd190e7	-0.10232716
169	0xbe310e13	-0.17290525
170	0x3eabb8a3	0.33539304
171	0xbdba1a56	-0.090870544
172	0xbd4830d7	-0.048874702
173	0xbd218d37	-0.039441314
174	0x3e99e3e0	0.30056667
175	0x3e8efb93	0.2792631
176	0x3d3f2cad	0.046673466
177	0xbe700d6a	-0.23442617
178	0xbe256dd8	-0.16155183
179	0xbbe438b9	-0.0069647697
180	0x3e880756	0.26568097
181	0xbbda772e	-0.0066670394
182	0x3e077c68	0.13231051
183	0xbd8542f8	-0.06506914
184	0x3cb8ec0c	0.022573493
185	0xbe92f226	-0.2870037
186	0xbe74fa19	-0.2392353
187	0xb96c3187	-0.00022525164
188	0xbe3218b4	-0.17392236
189	0x3df1f149	0.118135996
190	0x3e69f018	0.22845495
191	0xbe05605a	-0.13025036
192	0x3e7a2979	0.24429883
193	0xbdbfa69c	-0.0935795
194	0xbe27172d	-0.16317435
195	0xbe6aca1d	-0.22928663
196	0xbe9576a9	-0.29192093
197	0xbdc29c7b	-0.095025025
198	0xbe9837cc	-0.2973007
199	0xbc3a9a87	-0.011389381
200	0x3d592b2e	0.053019695
201	0xbc41534a	-0.011799643
202	0x3e35239e	0.17689368
203	0x3eb918ca	0.36151725
204	0x3d5ed10b	0.054398578
205	0x3e6bf7b0	0.23043704
206	0x3e94aed3	0.2903963
207	0x3dba89eb	0.09108337
208	0x3e3277f9	0.17428578
209	0xbe5b960f	-0.21443962
210	0xbe86a530	-0.26297903
211	0xbdcdd0ff	-0.100496285
212	0x3d3e5832	0.04647083
213	0x3ce62943	0.028095847
214	0xbda920f4	-0.082582384
215	0x3e380ebf	0.17974375
216	0x3c69e0aa	0.0142747555
217	0x3df043e6	0.117317006
218	0x3ede0083	0.43359765
219	0xbe29aee7	-0.16570626
220	0xbe8d6ef2	-0.27623707
221	0xbcfffbd5	-0.031248013
222	0xbe2285e7	-0.15871392
223	0xbdcbe414	-0.09955612
224	0x3cbcd1fe	0.02304935
225	0x3d7a423a	0.061098315
226	0x3e12caf2	0.1433523
227	0xbdef5a96	-0.116872
228	0x3e44c40f	0.19215415
229	0xbe234995	-0.15946038
230	0xbdae867d	-0.08521745
231	0x3dc8eb43	0.098104976
232	0xb839eb29	-4.4326447e-05
233	0xbda67ea7	-0.08129626
234	0x3e3f4f80	0.1868267
235	0x3e41ea39	0.18937005
236	0xbe817394	-0.25283492
237	0x3e68a467	0.22718965
238	0x3e2fceef	0.17168783
239	0x3beff949	0.0073234183
240	0xbe4e4566	-0.20143661
241	0xbdc7b340	-0.09750986
242	0x3d42ae16	0.047529303
243	0xbe108510	-0.1411326
244	0x3e9b4891	0.303288
245	0x3e7fb627	0.2497183
246	0xbdd21969	-0.10258753
247	0xbe81aa19	-0.25325087
248	0x3e699981	0.22812463
249	0xbd41e147	-0.04733398
250	0xbeae35e1	-0.3402548
251	0x3e7e79fa	0.24851218
252	0xbe0dfe12	-0.13866451
253	0xbdca24a0	-0.09870267
254	0x3d8743b9	0.06604714
255	0x3dbd5f23	0.092466615

conv1.bias f4 [32]
0	0xbd7ebd8b	-0.06219248
1	0xbd41e6ee	-0.047339372
2	0xbe833483	-0.25626
3	0x3e0af4d2	0.13569954
4	0x3dafa4a7	0.08576327
5	0xbe671733	-0.22567444
6	0xbe101bb4	-0.14073068
7	0x3d7d774a	0.06188134
8	0xbd3fc874	-0.046822026
9	0xbe4db233	-0.20087509
10	0xbbe3ab65	-0.006947922
11	0x3d2ae863	0.041725527
12	0x3d076363	0.033053767
13	0xbe691967	-0.22763596
14	0x3d9e77bc	0.07737681
15	0x3d168cc5	0.036755342
16	0xbd18d17e	-0.037309162
17	0x3add1312	0.0016866645
18	0xbdd89619	-0.10575504
19	0xbdc69676	-0.09696667
20	0xbe3d43ce	-0.18482897
21	0xbe8b8ff6	-0.2725827
22	0xbe1812a6	-0.14850864
23	0xbdaaeb3d	-0.083456494
24	0xbd99da1a	-0.07512303
25	0x3c2e9835	0.010656406
26	0xbdf86606	-0.121288344
27	0x3cc62115	0.024185697
28	0xbd2e6498	-0.042576402
29	0xbd927751	-0.07151664
30	0x3e881a21	0.26582435
31	0xbd945ce3	-0.07244279

conv2.weight f4 [64, 32, 3, 3]
0	0x3d2838a2	0.041069634
1	0x3e4e954d	0.20174141
2	0xbe5e2327	-0.21693097
3	0x3dae28d2	0.085038796
4	0xbcef31f1	-0.029198619
5	0xbd696fca	-0.056991376
6	0xbc98dcfa	-0.018660057
7	0xbde5e9d4	-0.1122624
8	0x3dbb7e9b	0.091550075
9	0xbd746a2e	-0.059671573
10	0xbe2cc854	-0.16873294
11	0xbe37bcfc	-0.17943186
12	0xbe251930	-0.1612289
13	0xbdd2898a	-0.1028014
14	0x3e7af66c	0.24508065
15	0x3d92a22c	0.07159838
16	0xbd4ee7be	-0.050513975
17	0x3e123135	0.14276583
18	0xbd9a58b8	-0.07536453
19	0x3c092747	0.008371181
20	0x3dd3eaf3	0.103475474
21	0xbd4d81b1	-0.05017251
22	0x3cbe6c81	0.023245098
23	0x3dd38a66	0.10329132
24	0xbc64b558	-0.013959251
25	0xbd3e9579	-0.046529267
26	0xbd799cd0	-0.060940564
27	0xbe4c86e5	-0.19973333
28	0xbeb0e173	-0.34547004
29	0x3e7b7fef	0.24560522
30	0xbe02dfbf	-0.12780665
31	0xbd4f1a0c	-0.05056195
32	0xbd471dfa	-0.048612572
33	0xbd55f682	-0.05223704
34	0x3d87554a	0.066080645
35	0xbe091e4d	-0.13390465
36	0x3e21cd65	0.15801008
37	0xbd8800ac	-0.06640753
38	0x3e0cb861	0.1374221
39	0x3c76a318	0.015053533
40	0xbdd4496d	-0.10365567
41	0xbca46ac2	-0.020070437
42	0xbdbab820	-0.0911715
43	0xbe6e0bba	-0.23246661
44	0x3e4b33fa	0.19844046
45	0xbd22d290	-0.03975159
46	0xbb8a6153	-0.0042230277
47	0xbd29b1b9	-0.041429255
48	0x3d463607	0.04839137
49	0x3e235624	0.15950829
50	0xba0e49c3	-0.00054278615
51	0x3cda4e55	0.02664868
52	0x3b2af1ca	0.002608406
53	0xbd57a9db	-0.05265222
54	0x3d45269b	0.04813252
55	0xbec7db3f	-0.3903446
56	0xbdd799ea	-0.10527404
57	0x3dad0a3c	0.08449218
58	0xbd0c6dbc	-0.03428434
59	0xbd9c77b7	-0.07640021
60	0xbd6af7fb	-0.0573654
61	0x3d19746c	0.037464544
62	0xbdfb7f39	-0.12280125
63	0xbe2221a1	-0.15833141
64	0x3e2f7f73	0.17138462
65	0x3dd05bbe	0.101737484
66	0xbd4e058b	-0.050298255
67	0x3db7a4f2	0.08967008
68	0xbdf165af	-0.11786973
69	0x3bd740ed	0.006569019
70	0x3e4274b1	0.18989827
71	0xbeca46b5	-0.3950707
72	0x3bfc1c2f	0.0076937894
73	0xbdb3ba0a	-0.087757185
74	0xbd8ea657	-0.069653206
75	0x3d98e6a4	0.07465866
76	0xbcda778c	-0.026668333
77	0xbddb8983	-0.10719588
78	0x3c309ba6	0.010779297
79	0xbc58e1b7	-0.013237408
80	0xbc98878a	-0.018619318
81	0xbdcb7ca0	-0.0993588
82	0xbd6a2afd	-0.057169903
83	0x3e5674bd	0.2094297
84	0xbe3e11fa	-0.18561545
85	0xbd27c8e1	-0.040963057
86	0x3d876b03	0.06612208
87	0x3b95aedb	0.0045679635
88	0x3df84158	0.12121838
89	0x3dd01834	0.101608664
90	0xbd7bf59c	-0.06151353
91	0x3d48f553	0.049062084
92	0x3bd6018f	0.0065309475
93	0x3e0fba50	0.14035916
94	0x3d2a63cc	0.04159908
95	0xbdff2187	-0.12457567
96	0x3c5af0ec	0.013363104
97	0xbd66de2b	-0.05636422
98	0xbbbde45f	-0.005795046
99	0x3e0c603c	0.13708586
100	0x3e054a1a	0.13016549
101	0xbdcecc78	-0.10097593
102	0xbdd30fa1	-0.10305715
103	0xbd8e898c	-0.06959829
104	0xbe302d7f	-0.17204855
105	0xbb8cfe7e	-0.004302799
106	0xbc243a84	-0.010023717
107	0x3d723b36	0.0591385
108	0x3cbfef60	0.023429573
109	0x3e37dc52	0.1795514
110	0xbbc1d906	-0.005915764
111	0x3e377602	0.1791611
112	0x3e4bb1b0	0.19892001
113	0x3b1dbf5f	0.0024070365
114	0xbe83f803	-0.25775155
115	0x3d8c6356	0.06854884
116	0xbe332e0b	-0.17498033
117	0x3c8c971d	0.0171619
118	0xbe412d58	-0.18864954
119	0xbe73d383	-0.23811154
120	0x3da4e32a	0.080511406
121	0xbc217d2f	-0.009856506
122	0xbda01789	-0.07816989
123	0x3cb9e345	0.022691378
124	0xbd30ea1b	-0.04319201
125	0x3e0743ce	0.13209459
126	0x3dd4912f	0.10379254
127	0xbe095588	-0.13411534
128	0xbe07ab07	-0.13248836
129	0x3c896e73	0.0167763
130	0x3e25eda9	0.16203941
131	0x3c44f82e	0.012022061
132	0xbe24e082	-0.16101268
133	0xbd066079	-0.032806847
134	0xbc66b175	-0.014080395
135	0x3cafe473	0.021471238
136	0xbd168d4f	-0.036755856
137	0x3e000f83	0.12505917
138	0x3d6e18a9	0.058128987
139	0xbd1f5b6b	-0.038905542
140	0x3dae933f	0.08524179
141	0xbe07fa26	-0.13279018
142	0xbd9c2c2a	-0.07625611
143	0x3c68c9a5	0.014208232
144	0xbdf08ca5	-0.11745576
145	0x3dc0a1d1	0.09405864
146	0x3e208269	0.15674748
147	0xbe8f440b	-0.279816
148	0x3ce5749f	0.02800971
149	0x3e6810fd	0.2266273
150	0xbd3d7933	-0.046258163
151	0x3e19b5e1	0.15010788
152	0xbdf75d2b	-0.12078317
153	0x3d30b618	0.043142408
154	0x3dc3e5f7	0.09565347
155	0x3e40028d	0.18750973
156	0xbddc2dbd	-0.107509114
157	0x3e093ef8	0.13402927
158	0xbe1322c6	-0.14368734
159	0xbdd68338	-0.10474247
160	0x3d0eab7f	0.03483152
161	0xbe30c73d	-0.17263503
162	0xbdd173da	-0.10227175
163	0x3c536551	0.012902574
164	0x3c2fe207	0.010735041
165	0x3e1a5288	0.15070546
166	0x3e7d0be3	0.24711566
167	0xbcdf9e81	-0.02729726
168	0xbe16e4b3	-0.1473568
169	0x3d97c3ec	0.07410416
170	0xbe91ed1b	-0.2850121
171	0xbcf54687	-0.029940857
172	0x3d82caa8	0.0638631
173	0x3d127642	0.03575731
174	0xbe5b76b8	-0.21432006
175	0xbe365cd2	-0.17808846
176	0x3dc123ac	0.09430632
177	0x3d16e1ef	0.03683656
178	0xbbdad19e	-0.0066778203
179	0x3e80aef4	0.2513348
180	0xbd2f1532	-0.042744823
181	0x3dc32bc3	0.09529831
182	0xbe38288e	-0.1798422
183	0x3d551a44	0.052027002
184	0xbd703a5c	-0.058649406
185	0xbe093b03	-0.13401417
186	0xbd303ef5	-0.04302879
187	0x3d5a747f	0.053333756
188	0x3cdde913	0.027088678
189	0xbd3b7434	-0.045765117
190	0xbe15a435	-0.14613421
191	0xbe8f05a3	-0.27933988
192	0x3dd45c4c	0.10369167
193	0xbb035aa5	-0.0020043042
194	0x3dc1e0e7	0.09466725
195	0xbda0a421	-0.07843805
196	0x3d327b85	0.04357483
197	0x3e02f68d	0.12789364
198	0x3dc4b9b2	0.09605731
199	0x3e3afae7	0.18259774
200	0xbcd29f00	-0.025710583
201	0x3e35375c	0.17696899
202	0x3b811267	0.0039389613
203	0xbe575250	-0.21027493
204	0x3db324a4	0.08747223
205	0xbd8f7157	-0.0700404
206	0xbc0e1d32	-0.008673953
207	0x3d3582ff	0.04431438
208	0xbe6a3a57	-0.22873817
209	0xbe425dde	-0.1898112
210	0xbd8d8182	-0.06909467
211	0x3de8bb3c	0.11363837
212	0x3e167baa	0.14695612
213	0xbe18aae2	-0.14908937
214	0x3dc43297	0.09579962
215	0x3e902728	0.28154874
216	0xbe290d3b	-0.16508953
217	0xbdaf1518	-0.08548945
218	0xbeabe66a	-0.3357423
219	0xbd30ff8e	-0.043212466
220	0xbda542a8	-0.08069354
221	0x3deb51b4	0.11490193
222	0x3dd60f9f	0.10452198
223	0x3c0d5b7f	0.008627771
224	0x3e20920a	0.1568071
225	0xbe70118f	-0.23444198
226	0x3c4df918	0.012571596
227	0xbd76a28c	-0.06021361
228	0xbe2b8f32	-0.16753843
229	0x3da8d09c	0.08242914
230	0x3daa5fe2	0.083190694
231	0xbc67801f	-0.014129668
232	0x3c1bc7cb	0.009508084
233	0xbe070e64	-0.13189083
234	0x3c2f826b	0.010712246
235	0xbe091a25	-0.1338888
236	0xbd8f0b0c	-0.06984529
237	0xbdb81fca	-0.08990438
238	0x3db02d1c	0.08602354
239	0x3d781953	0.060571026
240	0xbde7aa38	-0.113117635
241	0x3d144fcf	0.036208924
242	0x3dfd2049	0.123596735
243	0x3e2bde76	0.16784081
244	0xbdc7906b	-0.097443424
245	0x3df380e8	0.11889821
246	0x3cee2681	0.029071094
247	0xbdd173ba	-0.10227151
248	0xbdf6b517	-0.12046259
249	0xbe35b3fe	-0.17744443
250	0x3d62610f	0.055268344
251	0x3dc1c883	0.09462073
252	0x3e0ab357	0.13544975
253	0xbd19a6d6	-0.037512623
254	0x3d2c8abc	0.042124495
255	0xbd2e02b5	-0.04248305

conv2.bias f4 [64]
0	0xbb9333b2	-0.0044922465
1	0x3d507c4b	0.050899785
2	0xbe1c9eab	-0.15294902
3	0xbde21ff0	-0.11041248
4	0xbd859a40	-0.065235615
5	0xbd2b521b	-0.04182635
6	0xbd95bd00	-0.073114395
7	0x3d55b045	0.052170057
8	0xbe116b7a	-0.14201155
9	0xbda1bee3	-0.07897737
10	0x3d850e9e	0.06496929
11	0x3b8cd03e	0.0042972853
12	0xbc185c65	-0.009299372
13	0x3d02cccf	0.031933602
14	0xbd114e5d	-0.035475124
15	0xbdb8b3b3	-0.0901865
16	0x39a98c37	0.0003233866
17	0xbdd8fd63	-0.10595205
18	0x3afaf9c4	0.0019147922
19	0xbdfaa3d6	-0.122382805
20	0x3d1baea7	0.03800836
21	0x3d0f53b2	0.034991927
22	0xbd470eca	-0.04859809
23	0xbd0d6c89	-0.034527335
24	0x3d4c3ac1	0.04986072
25	0xbded0307	-0.11572843
26	0xbdc9c3a4	-0.098517686
27	0xbc45a8a6	-0.012064135
28	0xbdcd642d	-0.10028873
29	0xbcac79d5	-0.021054188
30	0x3e3743db	0.17896979
31	0xbcd3cee3	-0.025855487
32	0xbdb581de	-0.08862661
33	0xbdda6352	-0.10663475
34	0xbdc0f6b1	-0.09422053
35	0xbe3b8e0d	-0.18315907
36	0x3da28665	0.0793579
37	0x3d3331e1	0.04374874
38	0x3bd019ed	0.006350747
39	0x3c53c313	0.012924927
40	0xbd3031d6	-0.043016277
41	0xbc0c9f13	-0.008582848
42	0xbdeb109e	-0.11477779
43	0x3b43110b	0.0029764797
44	0x3d788daf	0.060681995
45	0xbe021eb6	-0.12707028
46	0xbd428ee0	-0.047499537
47	0x3c606b57	0.013697467
48	0x3cf6792e	0.03008708
49	0x3da5ad63	0.080897115
50	0xbdb835df	-0.0899465
51	0xbc2ee60d	-0.010674966
52	0xbddf9625	-0.1091731
53	0x3cef076f	0.02917835
54	0x3c912ff7	0.017723067
55	0x3c45aad7	0.012064657
56	0xbc70790f	-0.0146773
57	0xbdec95cf	-0.11552011
58	0xbe00c8c2	-0.12576583
59	0xbc0c93a0	-0.008580118
60	0xbda1b887	-0.07896524
61	0xbdba4936	-0.09095995
62	0xbce1f148	-0.027580872
63	0x3ba20938	0.0049449466

fc1.weight f4 [256, 576]
0	0x3d9bd51e	0.07609008
1	0x3d3ca121	0.046052102
2	0x3d672c10	0.056438506
3	0x3d9f3756	0.07774226
4	0xbcf7b296	-0.030236524
5	0x3ebe5d1c	0.37180412
6	0xbd1ab79f	-0.03777277
7	0xbcdbd61c	-0.026835494
8	0xbde4ce77	-0.111721925
9	0xbd473a56	-0.048639618
10	0xbe9093dd	-0.2823781
11	0x3c28c3b6	0.010300567
12	0x3e0ad6a7	0.13558446
13	0xbe14f3db	-0.14546148
14	0xbd84a569	-0.06476862
15	0x3d2f5745	0.042807836
16	0xbe73fd2f	-0.2382705
17	0x3c89d79e	0.016826447
18	0x3e6d85c9	0.23195566
19	0xbdbbcf6c	-0.09170422
20	0x3e0164ef	0.1263616
21	0xbbbd1228	-0.0057699867
22	0xbcafdbe7	-0.021467162
23	0xbda714dd	-0.08158276
24	0xbd85481d	-0.06507895
25	0xbc5bd4dd	-0.01341745
26	0xbd77f874	-0.060539678
27	0x3d278298	0.04089603
28	0xbd816041	-0.06317187
29	0x3e10ba53	0.14133577
30	0xbdf6432d	-0.120245315
31	0xbdac66f5	-0.08418075
32	0x3e19dac5	0.1502486
33	0xbce10893	-0.027469909
34	0xbd6900bf	-0.056885477
35	0x3a79a68d	0.0009523414
36	0xbdb447ed	-0.08802781
37	0xbc51fd57	-0.012816749
38	0x3e1ce8fe	0.15323254
39	0xbd08f148	-0.03343323
40	0xbd365171	-0.044511262
41	0x3d87ef3d	0.06637428
42	0x3d554754	0.052069977
43	0xbe04e8f9	-0.12979497
44	0x3cbc87aa	0.023013908
45	0xbc133477	-0.008984677
46	0x3d1dc366	0.038516425
47	0x3c491515	0.012273093
48	0x3d905c92	0.070489064
49	0x3e3f1247	0.18659316
50	0xbdceb1b9	-0.10092492
51	0x3dbf582e	0.09342991
52	0x3e5b1083	0.21393017
53	0xbe97e655	-0.29667917
54	0xbb4e6485	-0.003149302
55	0x3e1ec773	0.15505771
56	0xbbfcc88c	-0.0077143367
57	0xbd8f3634	-0.0699276
58	0xbcdb4b1e	-0.026769217
59	0x3c27eec0	0.0102497935
60	0x3e3c8061	0.18408348
61	0xbe32970c	-0.17440432
62	0xbc8d50ed	-0.017250502
63	0x3e01f303	0.12690358
64	0xbe2210b5	-0.15826686
65	0xbe367034	-0.1781624
66	0x3bcf5f7f	0.0063285227
67	0xbda2dc0a	-0.07952125
68	0x3ba993d2	0.0051750923
69	0xbb8e716b	-0.0043470166
70	0xbcee3e85	-0.029082546
71	0x3d39c92e	0.045357876
72	0xbd722fba	-0.059127547
73	0xbb2c8254	-0.0026322799
74	0x3e4856cc	0.1956436
75	0x3d21a3cd	0.039462853
76	0x3dae7bdc	0.08519718
77	0x3e115a02	0.14194492
78	0x3da638b8	0.08116287
79	0xbdb7a4c3	-0.08966973
80	0xbe3b2182	-0.18274501
81	0x3e569395	0.20954736
82	0xbda1b9ad	-0.07896743
83	0xbe114b73	-0.14188938
84	0xbd11892e	-0.035531215
85	0xbd1ebc1e	-0.03875362
86	0x3dbfa608	0.0935784
87	0xbdb8016c	-0.08984646
88	0xbdecd431	-0.1156391
89	0xbd1cdace	-0.038294606
90	0xbdb0f745	-0.08640913
91	0xbdca9776	-0.0989217
92	0xbdb65c2d	-0.089043
93	0xbe27fafe	-0.1640434
94	0xbd998a61	-0.07497097
95	0x3dd53b97	0.104117565
96	0xbd2787b4	-0.0409009
97	0xbc3be695	-0.011468549
98	0x3e8313e5	0.25601116
99	0x3c3b89d2	0.011446433
100	0xbccd271a	-0.02504306
101	0x3d1ab227	0.037767556
102	0xbd663470	-0.056202352
103	0x3ddaeaf4	0.10689345
104	0xbe7fba34	-0.24973375
105	0x3d38950b	0.045064013
106	0x3df681cc	0.120364755
107	0x3d9bdfa5	0.07611016
108	0xbe42e8e7	-0.19034158
109	0x3e3eb23a	0.18622676
110	0xbd9594a3	-0.07303741
111	0xbe812eec	-0.2523111
112	0xbe11d56c	-0.1424157
113	0xbd5a96b8	-0.053366393
114	0xbdcc8698	-0.09986609
115	0xbd34ba83	-0.044123184
116	0x3d1681d7	0.03674492
117	0x3a9eea12	0.0012124202
118	0xbd784c5b	-0.060619693
119	0xbc689227	-0.014195002
120	0xbd68078c	-0.056647822
121	0xbdc63ad0	-0.09679186
122	0x3d8cbcae	0.06871925
123	0x3da48a82	0.08034231
124	0xbd3c9b1e	-0.04604637
125	0x3de454ad	0.11148963
126	0xbe0893da	-0.13337651
127	0xbd4903ed	-0.04907601
128	0xbcba4907	-0.0227399
129	0xbe2afc58	-0.16697824
130	0xbac8d962	-0.0015323574
131	0xbe28785c	-0.16452163
132	0xbd37d2b9	-0.044878695
133	0x3dbb799e	0.09154056
134	0xbd64b575	-0.055837113
135	0x3e87c766	0.26519316
136	0x3b85fb8c	0.0040888246
137	0x3d89f4de	0.06736158
138	0xbd623e72	-0.055235334
139	0x3d99366f	0.074810855
140	0x3c678a14	0.0141320415
141	0x3e4a4aa0	0.1975503
142	0xbbf57697	-0.0074909437
143	0x3bb2fa1f	0.0054619457
144	0xbc983d8a	-0.018584032
145	0xb9db7bb1	-0.00041863092
146	0x3dc6533d	0.09683845
147	0x3cc13cc6	0.02358855
148	0xbd880075	-0.06640712
149	0xbe2586a5	-0.16164644
150	0x3da21a8d	0.079152204
151	0x3d5999b8	0.053125113
152	0xbe0d896d	-0.13821955
153	0xbdbf6f63	-0.09347417
154	0x3e0f1639	0.13973321
155	0xbd1b813c	-0.037965044
156	0x3d4dff0b	0.050292056
157	0x3ddec544	0.10877469
158	0x3cea081e	0.028568324
159	0xbceaaa4e	-0.02864566
160	0x3df5bebd	0.11999271
161	0x3dc775ba	0.097392514
162	0xbddad91d	-0.10685942
163	0x3e01cbc0	0.1267538
164	0xbd650d42	-0.055920847
165	0xbe189d72	-0.1490381
166	0x3d247277	0.040148225
167	0xbc80ccf4	-0.01572273
168	0xbc57360c	-0.013135444
169	0xbc52251c	-0.01282623
170	0x3e1d35bf	0.15352534
171	0xbc9cd653	-0.019145167
172	0xbc0ece94	-0.008716244
173	0x3d9d7db3	0.07689991
174	0xbcc1eacd	-0.023671532
175	0x3bdd91a3	0.006761746
176	0x3d9072f8	0.070531785
177	0x3cd5fbfd	0.026121134
178	0x3d6406a8	0.05567041
179	0xbdf2aaf2	-0.118490115
180	0x3e5263a9	0.2054583
181	0xbe2a60eb	-0.16638534
182	0x3d987c4b	0.07445582
183	0xbd6d4943	-0.057931196
184	0x3d9ba0f3	0.07599058
185	0xbb92f18d	-0.0044843615
186	0x3e242140	0.16028309
187	0xbd39d42b	-0.045368355
188	0xbe03c40a	-0.12867752
189	0xbde29cad	-0.1106504
190	0x3e48a8fe	0.19595715
191	0xbd7e1152	-0.062028237
192	0x3d2589ce	0.040414624
193	0xbdf30dc6	-0.118678614
194	0xbba7faad	-0.0051263184
195	0x3df99707	0.12187009
196	0xbe1ee28b	-0.15516107
197	0xbcab32bf	-0.020898221
198	0x3def51be	0.11685513
199	0x3d244c82	0.040112026
200	0x3c80a76c	0.015704833
201	0xbdb52b1e	-0.088461146
202	0xbdd2d0f6	-0.102937624
203	0xbd1d0e3e	-0.03834366
204	0xbe151f0e	-0.14562628
205	0x3e2a23b3	0.1661518
206	0x3c2372e1	0.00997612
207	0x3dd4f63f	0.1039853
208	0xbe132983	-0.14371304
209	0x3e58713d	0.21136947
210	0x3d14f883	0.03636981
211	0xbda1f673	-0.079083346
212	0xbd69e939	-0.057107184
213	0x3d801490	0.06253922
214	0xbdb85cf9	-0.09002108
215	0x3d250227	0.040285256
216	0xbe0a96da	-0.13534108
217	0x3d4c51d3	0.04988272
218	0x3dc11592	0.09427942
219	0xbe57de9a	-0.2108101
220	0x3e2d16eb	0.16903274
221	0x3dfeb37d	0.124365784
222	0x3e35bbe6	0.17747459
223	0x3bf9ec58	0.0076270513
224	0xbca6b61d	-0.02035051
225	0xbdb03182	-0.08603193
226	0x3d559cb1	0.052151386
227	0xbdccac2c	-0.09993777
228	0xbe81ae8c	-0.2532848
229	0x3dbad468	0.091225445
230	0xbd246eed	-0.04014485
231	0xbe296ca1	-0.16545345
232	0xbd6b98c1	-0.057518724
233	0xbe1e9ffe	-0.1549072
234	0xbc496b9c	-0.0122937225
235	0xbcda029c	-0.026612572
236	0xbd919e7d	-0.07110307
237	0xbd58f8ec	-0.052971765
238	0x3df355d0	0.11881602
239	0x3ddfa435	0.10919992
240	0x3dc6380f	0.09678661
241	0xbdfc3ffe	-0.12316893
242	0xbe504fed	-0.2034299
243	0xbe71c6a0	-0.23610926
244	0x3e817d99	0.25291136
245	0xbe143579	-0.14473523
246	0xbea4e49a	-0.3220566
247	0xbdbf64c4	-0.093453914
248	0x3c925d94	0.017866887
249	0xbda7a51e	-0.081857905
250	0x3dde5606	0.108562514
251	0x3e378fdb	0.1792597
252	0x3dc35618	0.095379055
253	0xbdbf2466	-0.09333114
254	0xbe357832	-0.17721632
255	0x3dc8126f	0.09769141

fc1.bias f4 [256]
0	0x3ce15316	0.027505439
1	0xbb14f27e	-0.0022727544
2	0xbd1603a3	-0.036624562
3	0x3d2aff88	0.0417476
4	0x3cee409c	0.029083543
5	0x3c99fa0a	0.018795986
6	0xbd2882b7	-0.041140284
7	0x3c68591b	0.014181401
8	0xbc822d06	-0.01589061
9	0x3d1efea0	0.038817048
10	0xbd541bd7	-0.051784363
11	0xbc9fa00d	-0.019485498
12	0x3c8fa360	0.017533958
13	0xbd1cbb2d	-0.038264442
14	0x3cbbd49c	0.022928528
15	0x3c92e8f6	0.01793335
16	0x3c09ad9c	0.008403208
17	0x3c527ab8	0.012846641
18	0xbc9ede31	-0.019393058
19	0xbc679a09	-0.014135846
20	0x3d524327	0.051333573
21	0xbb95cf90	-0.0045718625
22	0x3d1dc071	0.038513605
23	0xbd831f01	-0.06402398
24	0xbc9727c6	-0.018451583
25	0x3d375a5b	0.044763904
26	0x3c11bcbd	0.008895096
27	0xbce899ec	-0.028393708
28	0x3ab573c1	0.0013843701
29	0x3d26b30b	0.040698092
30	0x3d25128d	0.040300895
31	0x3b232bfe	0.0024898048
32	0xbce87f70	-0.02838108
33	0x3d83d1ad	0.06436477
34	0x3ad0b490	0.0015922952
35	0xbd0b6c47	-0.03403881
36	0xbc3f2437	-0.011666349
37	0xbd3dac9e	-0.0463072
38	0xbd387ea6	-0.045042656
39	0xbcafc3bf	-0.021455644
40	0xbd331461	-0.043720607
41	0x3a9f676e	0.0012161562
42	0x3bea9018	0.0071582906
43	0x3bde5fa5	0.006786304
44	0x3c597f31	0.013274954
45	0x3d3c691b	0.045998674
46	0x3d65dbb5	0.056117732
47	0xbd0a3d62	-0.033749945
48	0xbc9165e6	-0.017748784
49	0xbc68882f	-0.014192625
50	0x3bb15ada	0.0054124417
51	0x3ca2157c	0.019785635
52	0x3b1f0bd6	0.002426853
53	0xbd232cca	-0.039837636
54	0xbd59daf5	-0.05318733
55	0xbc62dfcd	-0.013847304
56	0x3d317c17	0.043331232
57	0x3d8598d1	0.06523288
58	0x3d62af97	0.055343237
59	0xbbd7b02c	-0.0065822806
60	0xbc045337	-0.008076481
61	0xbcf95054	-0.030433811
62	0x3a35fcaa	0.0006942252
63	0xbbf0e1a0	-0.0073511153
64	0x3c18965d	0.009313193
65	0xbd3deb2d	-0.04636686
66	0xbce04928	-0.027378634
67	0xbd0f9c5a	-0.035061218
68	0x3c74ec48	0.014948912
69	0xbcb04dc2	-0.021521453
70	0xbcb405bd	-0.021975392
71	0xbd3b99ef	-0.0458011
72	0xbca7ad73	-0.02046845
73	0x3d70c62a	0.058782734
74	0xbd25f13b	-0.04051326
75	0xbbe29da3	-0.0069157644
76	0x3d83eeb0	0.064420104
77	0x3cf1486c	0.029453479
78	0x3c9d463d	0.019198531
79	0xbc412238	-0.011787944
80	0xbd0d6086	-0.03451588
81	0xbcb4d693	-0.022074973
82	0x3d64c417	0.05585107
83	0xbd2b4efc	-0.041823372
84	0x3cd3e7a1	0.025867285
85	0x3d021854	0.031761482
86	0xbd18ca4f	-0.03730231
87	0x3dd229e4	0.10261896
88	0xbd347510	-0.044056952
89	0x3c449da0	0.012000471
90	0xbd37361b	-0.044729333
91	0x3d77d7c5	0.06050851
92	0x3d8bec4d	0.0683218
93	0x3cdebbfb	0.027189245
94	0x3ce84657	0.028353853
95	0x3a899792	0.0010497442
96	0xbc955857	-0.0182306
97	0xbb855a8d	-0.0040696324
98	0x3d4b7764	0.049674407
99	0xbd190609	-0.03735927
100	0xbbe46986	-0.006970587
101	0xbc939d3d	-0.018019313
102	0x3cac9fc2	0.021072272
103	0x3d35ee56	0.044416748
104	0x3d64e1d1	0.055879418
105	0xbd29da48	-0.041467935
106	0x3cb528db	0.022114208
107	0x3d7d9e0f	0.061918315
108	0x3d716385	0.0589328
109	0xbc26526f	-0.01015149
110	0xbcb8ea22	-0.02257258
111	0x3ca9b273	0.020714974
112	0x3d8e59ac	0.06950697
113	0xbc2be0cd	-0.010490608
114	0x3d536860	0.05161321
115	0x3d6224ef	0.055211004
116	0xbd382d15	-0.04496487
117	0x3c0a2525	0.0084317075
118	0xbdac7371	-0.08420456
119	0xbd42f130	-0.047593296
120	0xbcd3c85e	-0.025852378
121	0x3ca637dc	0.020290308
122	0x3d4c625b	0.049898487
123	0xbd880746	-0.06642012
124	0x3c14d389	0.009083637
125	0x3d5d3b82	0.05401183
126	0x3c150cff	0.009097337
127	0xbbf20f0e	-0.0073870486
128	0x3c34018a	0.010986695
129	0x3d7ea4f1	0.06216902
130	0xbd4312c5	-0.047625322
131	0xbd1e9ae4	-0.038721934
132	0x3c2ed5d0	0.010671094
133	0x3ccf3352	0.025293026
134	0x3d0d5651	0.034506146
135	0x3b8007f2	0.003907197
136	0x3c6f02cc	0.014588069
137	0xbcc4317a	-0.023949374
138	0x3ce973ee	0.028497662
139	0xbd2da4c9	-0.04239348
140	0xbd62d2cf	-0.055376824
141	0x3c638edf	0.013889044
142	0xbce4f4f2	-0.02794883
143	0x3cce8fe3	0.025215095
144	0xbd33ca5e	-0.043894164
145	0x3c2f6c76	0.010707011
146	0xbd4e85a6	-0.050420426
147	0x3d0f052e	0.03491705
148	0xbd185df9	-0.037198994
149	0x3d3220d8	0.043488353
150	0xbd155fba	-0.036468245
151	0x3d38dfbb	0.04513524
152	0xbc866cc9	-0.016409295
153	0x3d09c886	0.0336385
154	0x3d276d8f	0.040875968
155	0x3cde7221	0.02715403
156	0xbc97cbdb	-0.018529823
157	0x3d699966	0.057031058
158	0x3cba0651	0.02270809
159	0x3d14099a	0.03614197
160	0xba56e733	-0.00081979035
161	0x3c6f01d7	0.014587841
162	0xbd2ab94b	-0.041680615
163	0xbcc8328f	-0.02443817
164	0xbccaab40	-0.024739861
165	0x3d2f70af	0.042832073
166	0x3cfdab37	0.03096543
167	0x3da4dbfc	0.08049771
168	0x3d0f6ec8	0.03501776
169	0xbc1c3b1a	-0.009535575
170	0xbc992858	-0.018695995
171	0x3d2e3255	0.04252847
172	0xbc8fc45b	-0.017549684
173	0xbbc3879c	-0.0059670936
174	0x3bcb16d6	0.0061977906
175	0x3ccf8f1b	0.025336793
176	0x3d59335d	0.0530275
177	0x3c5d3447	0.013501233
178	0x3d783f79	0.060607407
179	0xbb87b8ae	-0.0041418886
180	0x3b9fa4b4	0.004871929
181	0x3d338470	0.043827474
182	0x3c5e4b79	0.013567799
183	0xbd069736	-0.03285905
184	0x3d5807eb	0.052741926
185	0xbd133003	-0.03593446
186	0x3ba20ac5	0.0049451315
187	0x3c17bf99	0.009261989
188	0xbd14c459	-0.036320064
189	0xbd790bef	-0.060802396
190	0xbca38360	-0.019960105
191	0xbc1ca0fb	-0.009559865
192	0x3d6e42b7	0.058169093
193	0xbd0a6712	-0.0337897
194	0x3be6b481	0.0070405607
195	0xbd922b34	-0.071371466
196	0xbb912201	-0.0044291024
197	0x3dadf0eb	0.08493217
198	0xbd480d0f	-0.04884058
199	0x3d1649f8	0.036691636
200	0xbbd3f044	-0.006467851
201	0xbd1ce4cf	-0.038304146
202	0x3d83c99b	0.064349376
203	0x3d1cf5e4	0.038320437
204	0xbad92e04	-0.00165695
205	0x3d52ac65	0.05143394
206	0xbd0ac86b	-0.03388254
207	0x3c10d590	0.00883998
208	0x3c1fc442	0.009751381
209	0x3ced1099	0.028938578
210	0x3cd71b78	0.026258215
211	0xbd1be0aa	-0.038056053
212	0xbd0cd1b8	-0.03437969
213	0xbd868366	-0.06568031
214	0x3cfe4e96	0.031043332
215	0xbb94f531	-0.0045458307
216	0xbd31435e	-0.043277137
217	0x3d4f3d95	0.05059584
218	0x3c0eef61	0.008724065
219	0x3c94764e	0.018122818
220	0xbd14bd05	-0.036313076
221	0x3c46e47a	0.012139434
222	0xbce435a7	-0.027857615
223	0xbc169450	-0.009190634
224	0x3d6cce7d	0.05781411
225	0xbc13a03f	-0.009010374
226	0x3ba6d38e	0.0050911373
227	0x3d26d99a	0.040734865
228	0x3d5cbbf9	0.053890202
229	0x3b499ab6	0.003076238
230	0xbd3479eb	-0.044061583
231	0xbc43a796	-0.011941811
232	0xbcfe3e8e	-0.031035688
233	0x3b011972	0.0019699004
234	0xbc9dec3c	-0.019277684
235	0xbd1acce5	-0.03779306
236	0xbcb66bce	-0.022268202
237	0x3d97c2e9	0.07410223
238	0xbd349bfe	-0.04409408
239	0xbbed08c0	-0.007233709
240	0x3c95d618	0.018290564
241	0x3c9435d5	0.018092075
242	0x3b0fc26a	0.0021935948
243	0xbd190cc0	-0.037365675
244	0xbb70fc0f	-0.0036771332
245	0xba92aff5	-0.0011191355
246	0xbc189bb7	-0.009314469
247	0x3cae861c	0.021304183
248	0xbca9ebf3	-0.020742392
249	0xbc3239a7	-0.010878003
250	0x3c883e28	0.0166312
251	0x3d2e91a6	0.04261937
252	0x3cf0dc7e	0.029402014
253	0xbcdf17c3	-0.02723301
254	0xbd227b3b	-0.039668303
255	0xba4179c9	-0.0007380513

fc2.weight f4 [10, 256]
0	0x3e17a88d	0.14810391
1	0x3dd0d526	0.10196905
2	0x3cde22d0	0.02711621
3	0xbe9812ed	-0.2970194
4	0xbe205d11	-0.15660502
5	0x3db4b344	0.08823255
6	0x3e1d7dae	0.15379974
7	0xb94c26dd	-0.00019469434
8	0x3c9d00ed	0.01916548
9	0x3e232b1b	0.15934412
10	0xbce76315	-0.028245488
11	0xbd0970a7	-0.0335547
12	0xbe080681	-0.13283731
13	0xbd0c46d3	-0.03424723
14	0xbe69d219	-0.22834052
15	0xbc8b30d1	-0.01699105
16	0xbcd8acd5	-0.0264496
17	0x3c641457	0.013920865
18	0xbd9d8238	-0.07690853
19	0x3d99f590	0.075175405
20	0xbe16ec35	-0.14738543
21	0x3e160841	0.14651586
22	0x3d93c2dc	0.07214901
23	0xbd069021	-0.032852296
24	0xbc001910	-0.007818475
25	0xbe8ba0af	-0.2727103
26	0x3d3e5658	0.046469063
27	0xbca86253	-0.020554697
28	0x3d1a12f3	0.037615728
29	0xbe2eaae5	-0.17057379
30	0x3e26feaa	0.16308084
31	0xbd9451c4	-0.07242158
32	0xbbf3e869	-0.007443477
33	0x3c1bac4b	0.009501527
34	0xbc51010d	-0.012756598
35	0xbc50deb4	-0.012748409
36	0x3deadfbe	0.11468457
37	0xbaeb1836	-0.0017936293
38	0x3c89f02d	0.016838158
39	0x3d0b646d	0.03403132
40	0xbcd1f16b	-0.025627812
41	0x3d1ce96e	0.038308553
42	0x3d115b03	0.035487186
43	0xbe324a5a	-0.17411175
44	0xbe885ee1	-0.26634887
45	0x3da8f201	0.082492836
46	0xbe5fe566	-0.21864852
47	0xbd142574	-0.03616853
48	0x3d1ae6b7	0.037817683
49	0x3d622d17	0.055218782
50	0x3daa81d4	0.08325544
51	0x3c4c04a0	0.012452275
52	0xbc8e7364	-0.017389007
53	0x3d33c15e	0.04388558
54	0x3cca049c	0.024660401
55	0x3d1ba7f0	0.038001955
56	0xbe3abce4	-0.18236119
57	0x3dd529f3	0.10408392
58	0x3dbff9bb	0.09373804
59	0xbde62466	-0.11237411
60	0xbe973e24	-0.29539597
61	0x3df833ce	0.12119256
62	0xbe236286	-0.15955552
63	0xbe290bf5	-0.16508467
64	0x3d399a76	0.04531332
65	0xbd88490c	-0.066545576
66	0xbc1e73d9	-0.009671175
67	0xbe81ba3f	-0.25337407
68	0xbdfb7e2f	-0.12279927
69	0xbc6025a2	-0.013680847
70	0x3d751b36	0.059840403
71	0x3d0f2dea	0.034955896
72	0xbd02672f	-0.031836685
73	0xbee96c64	-0.45590508
74	0xbc74a955	-0.01493295
75	0xbd82394c	-0.06358585
76	0x3c8507c6	0.016239058
77	0x3e8d8a4e	0.2764458
78	0xbbb1de5c	-0.0054281186
79	0xbe8cc1c6	-0.27491587
80	0xbe7c1122	-0.2461591
81	0x3d3a5605	0.04549219
82	0x3d720d81	0.05909491
83	0x3cedde9c	0.029036812
84	0x3cc2725f	0.023736177
85	0x3d9e6d29	0.077356644
86	0x3c4ef52f	0.0126316985
87	0xbd23ff25	-0.040038247
88	0xbd2ad442	-0.04170633
89	0x3d68e666	0.05686035
90	0xbbe1ba0d	-0.006888634
91	0x3d7e9af7	0.062159505
92	0x3d6620b7	0.056183543
93	0xbd80a632	-0.06281699
94	0xbe5a5311	-0.2132075
95	0x3c60aa50	0.013712481
96	0x3bdfe32e	0.006832502
97	0x3c16b17f	0.009197592
98	0xbeb1f06d	-0.34753743
99	0x3c35cbc4	0.011095945
100	0x3dca67cc	0.09883079
101	0x3d43a391	0.04776341
102	0x3e25814b	0.16162603
103	0x3dd51082	0.10403539
104	0xbe99ce4d	-0.30040208
105	0xbc53a861	-0.012918563
106	0xbea7c6bd	-0.32768813
107	0x3dbd6e2e	0.09249531
108	0x3da05ed3	0.07830586
109	0x3e33cd4a	0.1755878
110	0x3e26772f	0.16256402
111	0x3e29655a	0.16542569
112	0xbd8fcab8	-0.070210874
113	0x3e0eb38e	0.13935682
114	0x3bdfcdbd	0.006829946
115	0x3c88a31c	0.01667934
116	0xbe89dc28	-0.26925778
117	0xbe85eb62	-0.26156145
118	0xbd23805a	-0.039917327
119	0x3d5786e7	0.052618887
120	0xbd75ea25	-0.06003775
121	0xbe273f90	-0.16332841
122	0xbeace50d	-0.33768502
123	0x3d0e8b39	0.03480074
124	0x3c846adf	0.016164241
125	0xbe54c1e6	-0.20777091
126	0xbe99efc1	-0.3006573
127	0xbd8af5e4	-0.06785181
128	0xbea1dc54	-0.3161341
129	0xbedcd20f	-0.43129012
130	0xbc68feba	-0.014220888
131	0x3cee5a89	0.029095905
132	0x3e211943	0.15732293
133	0x3db5ac8a	0.088708
134	0xbe078bb8	-0.13236892
135	0xbde1140b	-0.10990151
136	0xbd1ec3f7	-0.038761105
137	0xbd85f688	-0.06541163
138	0xbdf3adad	-0.118983604
139	0x3bd5705e	0.0065136394
140	0xbcfd3d13	-0.030912912
141	0xbd30b250	-0.043138802
142	0xbd13e16e	-0.03610366
143	0x3d8ca52a	0.0686744
144	0xbd3f7889	-0.04674581
145	0xbbf0d880	-0.0073500276
146	0xbcddecae	-0.027090397
147	0xbdb2a50c	-0.087228864
148	0xbc2f778e	-0.010709656
149	0x3de75f55	0.1129748
150	0x3cc57c7b	0.024107208
151	0x3d8c6bd0	0.06856501
152	0x3c629112	0.013828533
153	0xbd99134a	-0.07474382
154	0xbe3dcebc	-0.18535894
155	0x3df356bd	0.118817784
156	0x3df7ebd8	0.121055305
157	0x3e002e68	0.12517703
158	0xbdb86e5f	-0.090054266
159	0x3d918c18	0.07106799
160	0x3cc25baa	0.02372535
161	0x3e0ff0b6	0.14056668
162	0xbcabfe94	-0.020995416
163	0x3ded5067	0.11587601
164	0xbd127943	-0.035760175
165	0xbd36c939	-0.044625495
166	0xbe0c0fe6	-0.1367794
167	0x3d956487	0.07294565
168	0xbe5492c0	-0.20759106
169	0xbe648cb1	-0.22319295
170	0xbcb6afd5	-0.02230064
171	0xbe980b91	-0.29696324
172	0x3dc8d050	0.098053575
173	0x3da822ad	0.08209739
174	0xbd1cff8f	-0.038329657
175	0x3e35e43c	0.17762846
176	0x3c293db0	0.010329649
177	0x3dc56f64	0.09640387
178	0xbd99154f	-0.074747674
179	0x3dc73e3e	0.09728669
180	0xbded6126	-0.11590795
181	0xbe581cc8	-0.21104729
182	0xbe1ed71e	-0.15511748
183	0xbd1b5edb	-0.037932258
184	0xbe62c581	-0.22145654
185	0x3c9179ba	0.017758239
186	0xbd5f1f49	-0.054473195
187	0xbd035058	-0.032059044
188	0xbe835f79	-0.25658777
189	0xbd600ac8	-0.05469778
190	0x3c6ee7fe	0.014581678
191	0xbd9626cb	-0.07331618
192	0x3e03f5c1	0.12886716
193	0x3b00ac51	0.0019633959
194	0x3d89e770	0.06733596
195	0xbc1435c8	-0.009046026
196	0xbda78eb6	-0.08181517
197	0x3d2baa13	0.041910242
198	0xbdd20230	-0.102543235
199	0xbeb922de	-0.36159414
200	0x3dc4bf42	0.09606792
201	0xbc6ca393	-0.014443296
202	0xbe577053	-0.21038942
203	0x3e0bbde5	0.13646658
204	0xbd5c1862	-0.05373419
205	0x3d0fd6e4	0.035117045
206	0xbcec306a	-0.02883168
207	0xbe8fb2cb	-0.28066096
208	0xbeaf6adf	-0.34261224
209	0xbd5f6d90	-0.054547846
210	0xbcfd4a63	-0.03091926
211	0xbbdf65f7	-0.006817575
212	0x3b7ed9d4	0.003888716
213	0x3d4c76c7	0.049917962
214	0xbe40bab9	-0.18821229
215	0xbc79b775	-0.0152414935
216	0x3cada119	0.021194981
217	0x3d8f2c87	0.06990915
218	0x3e476d96	0.19475397
219	0xbd81f7ef	-0.06346118
220	0x3cf7059f	0.030154048
221	0xbe7f9946	-0.24960813
222	0xbdf3d5e0	-0.11906028
223	0x3e1419f1	0.14463021
224	0xbe11593b	-0.14194195
225	0x3d154b1e	0.03644859
226	0x3d41e0f1	0.04733366
227	0x3dd231bd	0.10263393
228	0xbdf9dbd6	-0.122001335
229	0x3d82351a	0.063577846
230	0xbd2f53f3	-0.04280467
231	0xbdda307d	-0.1065378
232	0xbe484a33	-0.19559555
233	0xbd4d0b41	-0.05005956
234	0x3a17c45f	0.00057894544
235	0x3cc29215	0.023751298
236	0x3d22cbef	0.039745267
237	0x3d79bb7f	0.060969826
238	0xbc8e7d08	-0.017393604
239	0xbc032088	-0.0080033615
240	0xbe7e55a2	-0.24837354
241	0x3dce9836	0.10087626
242	0x3dead781	0.11466885
243	0xbd5e3fb6	-0.05425998
244	0xbbcf10d5	-0.006319145
245	0xbb41d645	-0.0029577177
246	0x3c5f0e1b	0.013614203
247	0xbe89b558	-0.26896167
248	0xbd4296de	-0.04750716
249	0xbcdcc211	-0.026948007
250	0x3ca26ab7	0.019826276
251	0xbe172898	-0.14761579
252	0xbca75d2a	-0.020430166
253	0xbad9beb2	-0.0016612618
254	0xbd3859cb	-0.04500751
255	0x3d063a97	0.03277072

fc2.bias f4 [10]
0	0x3dba7629	0.091045685
1	0xbda18caf	-0.078881614
2	0x3d41ce9a	0.04731617
3	0x3d92c383	0.07166197
4	0x3d0a0c4e	0.03370314
5	0xbb95e60d	-0.0045745433
6	0xbc33cb5f	-0.01097378
7	0x3d8661ae	0.065616
8	0x3d7bc15f	0.06146371
9	0xbd356489	-0.04428533
