saved_models/kmnist_qnn.pt (torch, 683575 bytes, 8 tensors)

conv1.weight f4 [32, 4, 3, 3]
00000000: 4f38 4f3b 26c3 d2bd 0692 c9be 2ae3 343e
00000010: c9df ee3d f546 67bd a184 6a3e 5646 a2bd
00000020: b958 80be 9a7f 333e 808a 0bbe 7da9 4a3e
00000030: 9a18 8f3e f938 01bf 7f19 153f 30b5 5f3d
00000040: 221b 81bd 662a a13e d93e 543e 161b 133e
00000050: 46b0 c6bd 0f09 2c3e d62f bfbe f07c 98bd
00000060: 6cd9 093d 3a4c c2bd 1aaa 0c3b c88a 92be
00000070: 21ae d73d 8b1e 163d 7419 c13b ba03 893e
00000080: 39cb 07bd e6c3 cabd 9ed7 91bb 363e 40bd
00000090: 5f1b d23d 621c 9cbc 6f22 35bc ac58 253d
000000a0: 02a6 4c3e 687f 373e 3e68 05bf e35d 35be
000000b0: 79a8 78be 67a8 d43e 5717 9e3e 5835 1d3d
000000c0: e9b2 1a3f 09da 503e b5ff 6c3e d845 e3be
000000d0: a4c7 8cbe e3fa 5fbd 9385 b0bc 4b41 293f
000000e0: 1dd6 ef3e 20b5 0bbf 98ca aebd b2f2 573e
000000f0: ae58 2abd d5d3 8ebe e2a1 67be a857 22be
00000100: aac1 dfbd 518a 183d a938 c2be 0151 df3d
00000110: b2f3 243e 4984 b03c 4694 3ebe c405 123e
00000120: d2d8 32be fcfb 45bd eb41 20be 7d96 e3bd
00000130: 3ba2 d5be 47c2 29be 3504 553e ff2b 4b3e
00000140: 78b4 223e 9317 d8be 990c ea3d 024c 88be
00000150: 66c7 b6bd e48a cdbe 95ac 35bd bd03 003f
00000160: 806f d93e 40d1 be3e f37c 80be 6c14 74be
00000170: d5ac 563e 11e7 fe3e 0489 3d3e 4280 d63c
00000180: 1088 c73e 04a4 ef3e b542 8f3e 0bdc 893c
00000190: 8630 1b3e cedf 183e 3d37 7cbe 2c2b a7bd
000001a0: 2a5c 3ebc ab41 403d 4b33 0ebe 7abf d0bd
000001b0: 60ca 3f3d f6a7 8e3e 684f 9ebe 0d88 e83d
000001c0: 29ee 0ebe 42f3 d5be 50a8 20be 4c6b ef3d
000001d0: 756a 7abe 4bbb 003e ac3c 983d ecd5 0fbe
000001e0: 3cb4 d63d e6d4 75be 8fe5 953e f1f0 63be
000001f0: 07bf 16be 2ef7 703e 4178 383e adb2 983d
00000200: b059 d7be e0e4 37bd b7e3 21be 6801 4fbe
00000210: 5d91 ccbe 512c c0bd 6e7b 593c 1cd0 f0bc
00000220: 921d 103e 292b b4bc 7ad1 87bd eeb3 593e
00000230: c5c6 9d3d b79f 9bbe 1664 883e 982b 673d
00000240: 54ac bcbe 263b 383e c122 d93c 8b70 99be
00000250: 7fed d8bd a4f8 8a3e dbcc cd3e fb76 09bf
00000260: 7942 68be 24e3 1f3a 7162 bb3e e8a1 003d
00000270: a4e5 30bf 9d18 043f 7f92 9c3e 9d5b a3be
00000280: 682e 6fbe 0d61 0a3d f958 95be 4d6c 5a3e
00000290: 9500 c53e 21cd 30be 6bcb 9ebe b969 d63d
000002a0: 1d17 843e b710 7bbe 24ea 8dbe 9045 99bd
000002b0: 801c 48be 2a00 8bbe 529c 943e 6910 f33d
000002c0: 9db2 b43c 7b4f 90be 1dcb 02bd 54a2 b93c
000002d0: 4013 843e 135e be3d 7bb4 db3e c9f2 f6bd
000002e0: fe70 dfbd f1dc 7fbe 9991 99be 6a0b d63c
000002f0: 819c b7be ad64 a43e e6c4 093f b0c1 5dbe
00000300: df55 1d3d 88aa 6bbe f7d6 babe 47d7 cbbe
00000310: 3491 0ebe 8b5d 6cbe f373 e03d d2a2 dd3e
00000320: 1428 ae3d 7610 6bbe ce89 28be 31fa 213e
00000330: 548d a93d b55c 463e 680a 183e fc27 0d3e
00000340: a3d3 703d 0e91 6cbd 76e9 d8be a03c 4bbe
00000350: 3a1a 923e 3ee5 b9be a239 c4bd 8880 243e
00000360: 996f 843a 66bb a33e 905c 8e3c 9ec6 0b3e
00000370: 18b0 c3ba 851f 17be f249 08be 99c3 a2be
00000380: 56d0 473e f7b0 b43e 370a f53e e800 d6be
00000390: a485 413e 8066 b5be e3a0 ff3d b7c5 ecbe
000003a0: d663 62be eb67 253d 0739 743e 5d0b 203f
000003b0: 6e4a 24be cb12 d63e 4c98 32be c175 3f3d
000003c0: 2fe5 c2be 6902 94be 3f5e 943e 24ca 05be
000003d0: 4055 0c3e beec 6d3e 35a0 d9bc d683 85be
000003e0: 42d8 dd3d c444 63be 6c59 cabe 2b5a 323e
000003f0: 1ac3 c5bd 22ab b4be de2b c53d 69e1 62be
0.0031619256 -0.10291128 -0.3936922 0.17664781 0.116637774 -0.056464154 0.22902156 -0.07923572
-0.2506769 0.17529145 -0.13627052 0.19791217 0.27948457 -0.5047756 0.5824203 0.054616153
-0.06304003 0.3147766 0.207271 0.14365801 -0.0970159 0.1680033 -0.37341183 -0.07445705
0.033654615 -0.09487195 0.0021463693 -0.28621507 0.10531259 0.03665022 0.005892927 0.26760656
-0.033152793 -0.09900646 -0.0044507524 -0.04693433 0.10259127 -0.019056503 -0.011055573 0.040367767
0.19985202 0.17919695 -0.52112186 -0.17711596 -0.24283017 0.4153473 0.30877182 0.03838095
0.60429245 0.20395674 0.2314442 -0.44389224 -0.27496064 -0.054682624 -0.021548068 0.66115254
0.46843043 -0.5457325 -0.085347354 0.21088675 -0.041588478 -0.2789599 -0.22620347 -0.1585375
-0.1092561 0.037241284 -0.37933853 0.10904122 0.16108587 0.021547453 -0.1861125 0.14260012
-0.17465523 -0.048336014 -0.15650146 -0.11112688 -0.41725335 -0.16578017 0.20802386 0.19841002
0.15889156 -0.42205486 0.11428184 -0.2662049 -0.08924751 -0.40145028 -0.04435404 0.50005704
0.4246788 0.3726902 -0.2509533 -0.23835915 0.20964368 0.49785665 0.18509299 0.026184205
0.38970995 0.46804821 0.2798058 0.016828557 0.15155229 0.14929125 -0.24630447 -0.08162531
-0.011618653 0.046937626 -0.13886754 -0.10192771 0.04682386 0.2786252 -0.30919957 0.113540746
-0.13958038 -0.41787153 -0.15689206 0.11690387 -0.24454673 0.12571447 0.07433447 -0.14046448
0.10483596 -0.24006996 0.29276702 -0.2225988 -0.14721309 0.23531792 0.18014623 0.07455955
-0.42060614 -0.044896007 -0.15809523 -0.2021538 -0.39954653 -0.09383453 0.013274057 -0.02939611
0.1407378 -0.021993237 -0.06631751 0.21260044 0.07703928 -0.3039529 0.2663886 0.05643806
-0.36850226 0.17991313 0.02650583 -0.29968676 -0.10592174 0.27142823 0.40195355 -0.53697175
-0.22681607 0.0006099215 0.36598542 0.031404406 -0.69100404 0.51600057 0.30580518 -0.31905833
-0.23357546 0.03378396 -0.29169443 0.21330376 0.38477007 -0.1726575 -0.3101457 0.10469384
0.25798884 -0.24518095 -0.27717698 -0.07483971 -0.19542122 -0.27148563 0.29025513 0.11868364
0.022057826 -0.2818564 -0.031931985 0.022660412 0.25795937 0.09295287 0.42911133 -0.12058026
-0.109102234 -0.24986626 -0.29993895 0.02612849 -0.3586159 0.3210806 0.5381607 -0.21655917
0.03841197 -0.23014271 -0.3649213 -0.3981268 -0.13922578 -0.23082559 0.109596156 0.43288285
0.08503738 -0.22955498 -0.16458818 0.15818097 0.08278909 0.19371302 0.1484772 0.13784784
0.058795583 -0.057755522 -0.42365617 -0.19847345 0.28535634 -0.3630771 -0.09581305 0.16064656
0.001010406 0.3197891 0.017378122 0.13649985 -0.0014929799 -0.14758117 -0.13309458 -0.31789854
0.19513068 0.35291263 0.47859356 -0.41797566 0.18898636 -0.35429764 0.124818586 -0.46244594
-0.22108397 0.040382307 0.23849879 0.6251734 -0.16044018 0.41811213 -0.17440909 0.04674316
-0.38065478 -0.2890809 0.28978154 -0.13065392 0.13704395 0.23234841 -0.02656565 -0.26077145
0.108322635 -0.22194201 -0.39521348 0.17417209 -0.09656353 -0.35286814 0.096275076 -0.221563

conv1.bias f4 [32]
00000000: 0e11 d4bd 07d7 0dbe aa8a ff3c a782 0cbe
00000010: 9dba e2bc 27e7 80bd 805f bfbd 28fc dabd
00000020: b4b7 e63d 14ce 66bd cbdd de3c c081 bbbd
00000030: 8674 11be 8ecf e3bd 8977 debd a6e9 cf3d
00000040: fb74 9bbe a561 993d b55a d6bd c394 16be
00000050: 8932 3b3b 5884 47be 679a 2cbe b8c2 39bd
00000060: 0b41 1dbd 07c8 12bd 70a2 c8bd ba0a 063e
00000070: 8e85 08bc 3eac 05be cd4d 733d 3fcf af3c
-0.103548154 -0.13851558 0.03119405 -0.13721715 -0.027676875 -0.06294089 -0.09344387 -0.10692626
0.11265507 -0.056348875 0.027205369 -0.09155607 -0.14204606 -0.11123572 -0.10862643 0.10151987
-0.30362687 0.07489327 -0.1046652 -0.14705186 0.0028564057 -0.19484079 -0.16855775 -0.045351714
-0.038392108 -0.035835292 -0.097966075 0.1309003 -0.008332623 -0.13053986 0.05940037 0.021461127

conv2.weight f4 [64, 32, 3, 3]
00000000: 2be1 1fbe 69e3 1d3d d22d 203e f5b0 a33d
00000010: f709 2fbd 5896 99bd f53d 6cbe 6465 49be
00000020: 30a2 93be afc7 d43c b1d4 17be b534 5cbd
00000030: bca2 bd3c f7bc 0fbe f1d2 a6bd ca20 923d
00000040: 9215 cabd ad9b 0cbe f548 e93d f382 b43d
00000050: 977e ff3b 0a81 f4bc fa49 463e 0be3 203e
00000060: 9d70 213e b870 5d3e 2805 f93d 0a5a 79be
00000070: 40d8 28bd b50f 603e b586 d03c 7852 e8bd
00000080: 56f7 e63d 1458 61bd a8d4 d4be ad40 39be
00000090: 761a 90bc dc17 74bd 60d9 1bbd 7061 36be
000000a0: 5883 55bd 374a 3bbe ae26 78bd f3c3 69be
000000b0: 660a 80be 4dcc 18bd 815d bdbc 4c0b 24bd
000000c0: 787c 983d 7c74 2e3c 50f6 e7bd 8fe7 8d3c
000000d0: 2540 48be 9bc4 6bbd b65d 063e 4c1d 79bc
000000e0: fbc6 b4bc 2283 183e 3792 42bd caaa 893d
000000f0: 2bba ad3d 58f5 61be 3bae 87bb d92a 80be
00000100: df44 763c afb6 a2bd 7720 c83d 8cb8 89bd
00000110: 1fee ce3d ad67 833e cf86 8c3d 177f 193e
00000120: f4fe 6ebd bb71 1f3e 1ee1 05be 3e1a 513c
00000130: 2706 26bd 5490 89ba 58c4 023e f74d 1e3e
00000140: 83b5 ddbb 16e8 0a3d 56b4 d3bd 84e3 19be
00000150: 3b2c babd 1372 5c3d 90d5 e6bc 998f aabd
00000160: d2e2 66be a2b8 7fbe fb03 53bd 9f9c d83c
00000170: de94 043d 0316 a2bd 5c78 043e cfca 0a3e
00000180: d0e6 f93c a89e 143c 0ef9 d9bd 3e0d 953d
00000190: 2410 b13d e811 6dbe 6511 5b3d f76c a6bc
000001a0: 37b0 07bc de4f d8bd 7d62 b1bc 1603 933d
000001b0: abda 6b3a 13a2 0fbe 3e4a 8abd ca1b 443d
000001c0: ffa6 d53c 47e8 413e ceea 153e 1694 b8bd
000001d0: 6bd5 a93d 03a9 9cbd ea8e 553d 015e 3b3e
000001e0: 7166 e0bd 88ee b03d b8e0 3cbe c900 6abe
000001f0: d2f5 08be 3976 8dbe 6e12 b6bd 300f 09be
00000200: 1069 4cbe 81e9 aabd 871d c6bd 9f2b 403e
00000210: eb23 e73d 0d3b a73d 1c44 513d a6da 85bb
00000220: a336 00bc 0e3f d33d db08 3bbe 7a38 303d
00000230: 5d2b 033d b4fe 82bd 15ae 8dbe a3f5 b2be
00000240: a2d3 b53d 49c0 36bd 4ec7 e0bd 2510 ae3d
00000250: 3b1b 173d 1c83 6ebc d56e a23c 73e7 76bd
00000260: 0614 9f3b 4620 07bd ad76 ad3d 8b74 693e
00000270: 09d5 82bd b06f 043d 031e f5bd a9ff f2bd
00000280: d0f3 1fbe 1139 15be da90 483d 8f89 db3d
00000290: e6bb 0b3e c7b0 683c 7d2c 99bc 2d28 e0bd
000002a0: 377e abbd 2553 2bbe 582b 93bd 00d0 86bd
000002b0: ae04 083e 38bf 2d3e 2dce dabc 5a90 7fbd
000002c0: f715 5b3e 4beb 083e de37 41bc cb08 e1bd
000002d0: 9324 3c3a 5d4d 1f3e 7ec9 03bd 0cbb bc3d
000002e0: 6169 af3d c9bf 5bbd 2378 52be 19ef 9dbd
000002f0: 6158 92be 9bae bd3d e519 bdbc 01f6 ffbc
00000300: b9e9 a63d b1da 50bc aca6 5ebd dbda 863d
00000310: 003e 583d b6b5 6e3d 686b b73d a18b fabb
00000320: 7251 983d e73c 773d 0d57 b3bb b444 1cbe
00000330: bbb5 92bc 20a2 333c 3d64 853d f04c 5ebd
00000340: 32ce f0bd 965e 063c 41c2 44be bd61 793d
00000350: 0b1d a23d 38fd db3d 4f98 89bd 4c49 3cbe
00000360: bf0d febd d664 fe3b e206 413e 5dd5 5abd
00000370: 6595 413d 13e0 063d d159 0cbe c9fd a0be
00000380: 5d86 cdbd a43e 1ebd 617d f2bc 482f 32bc
00000390: be6b 8c3c e53f 493d 3402 49bd 7bbd 05be
000003a0: 65ea 4cbe 41b4 3fbe 61af bb3c 4356 c2bd
000003b0: a9b4 fabd 6f7e 453d 5a2c c3bd 6b56 983d
000003c0: 7663 0f3e 4418 9b3d bae7 053d 7159 c9bd
000003d0: 6562 97bd 1c3c d93d d084 1bbd 25bd 633c
000003e0: 80ee 69bb d5e9 6abd e344 4bbe 4058 24be
000003f0: 2fb6 a93d beed 55bd 5a9b 99bb 39a9 a43d
-0.15613239 0.038546953 0.15642479 0.07992736 -0.042734113 -0.07499379 -0.2307051 -0.19667584
-0.28834677 0.025974123 -0.14827229 -0.053761203 0.023148887 -0.14036928 -0.08145703 0.0713516
-0.098673955 -0.1373126 0.113908686 0.08814039 0.007797073 -0.029846687 0.19364157 0.1571161
0.15765615 0.2162503 0.121591866 -0.24350753 -0.041221857 0.21880992 0.025454858 -0.11343855
0.11277644 -0.05501564 -0.41568494 -0.18091078 -0.017590743 -0.059593067 -0.0380491 -0.17810607
-0.052127212 -0.1829003 -0.060583763 -0.22828655 -0.25007933 -0.03730421 -0.023115875 -0.040049836
0.074456155 0.010647889 -0.11326277 0.01732233 -0.19555719 -0.057560544 0.13121685 -0.015204739
-0.022067538 0.14893773 -0.047502723 0.067220286 0.08482774 -0.22066247 -0.004140643 -0.2503269
0.015031069 -0.079450004 0.09771817 -0.06724653 0.10104012 0.25665036 0.0686165 0.14989887
-0.05834861 0.15570728 -0.13074157 0.012762604 -0.04053321 -0.0010495284 0.12770212 0.15459429
-0.0067660226 0.03391274 -0.10337131 -0.15028197 -0.090904675 0.053819727 -0.028178006 -0.0832817
-0.22547463 -0.24972776 -0.051517468 0.02644187 0.032368533 -0.07914355 0.12936538 0.13553928
0.030505568 0.00907103 -0.106432065 0.07277916 0.08645657 -0.23151362 0.053483386 -0.02031563
-0.008281759 -0.105621085 -0.021653408 0.07178323 0.00089971226 -0.1402667 -0.06752442 0.047878064
0.026080607 0.18936263 0.14640352 -0.0901262 0.08292659 -0.07649424 0.052138247 0.18297578
-0.10957039 0.08639246 -0.18445098 -0.22851862 -0.13375023 -0.2762926 -0.08890234 -0.133847
-0.19961953 -0.083453186 -0.09673601 0.1876664 0.11286148 0.0816556 0.051090345 -0.004084903
-0.007825526 0.10314761 -0.18265097 0.04302261 0.032023776 -0.06396237 -0.27671877 -0.3495303
0.088782564 -0.04461697 -0.10975514 0.08499173 0.036891203 -0.014557626 0.01982824 -0.06027932
0.004854682 -0.032989763 0.08469901 0.22798364 -0.063882895 0.032333076 -0.11968615 -0.118651696
-0.15620351 -0.1457255 0.048966266 0.107195966 0.13645896 0.014202303 -0.018697971 -0.10945163
-0.08373683 -0.16730936 -0.071860015 -0.065826416 0.13283035 0.16967475 -0.02670964 -0.062393524
0.21395098 0.13371007 -0.011793105 -0.10988005 0.0007177081 0.15556855 -0.03217458 0.09215364
0.08565021 -0.053649697 -0.20553641 -0.0771162 -0.28583053 0.09261819 -0.023083637 -0.031245233
0.08150048 -0.012747453 -0.05435817 0.06584712 0.052793503 0.05827876 0.08956033 -0.0076460396
0.074374095 0.060360815 -0.0054730237 -0.15260583 -0.017908921 0.010963947 0.065132596 -0.054272592
-0.11758079 0.008201262 -0.19214727 0.060884226 0.07915696 0.10741657 -0.06718504 -0.18387336
-0.124049656 0.0077634854 0.18850282 -0.053426135 0.047261614 0.032928538 -0.13706137 -0.31443623
-0.100353934 -0.038633958 -0.029600801 -0.010875531 0.01714122 0.0491332 -0.049074367 -0.13060562
-0.2001129 -0.18721105 0.022910776 -0.09489109 -0.122414894 0.04821628 -0.09529944 0.07438358
0.14002785 0.07572988 0.032691695 -0.09831513 -0.07391814 0.10607168 -0.037968457 0.013900076
-0.0035695136 -0.057351906 -0.19850497 -0.1604929 0.08286702 -0.05222868 -0.004687709 0.08040089

conv2.bias f4 [64]
00000000: 86cc a7bc 1242 c1bd f98d 2cbd e4ac 28bd
00000010: 90fd 993b e054 bdbd a06f 8ebd bd0b b8bc
00000020: 0d91 e1bd cca5 42bd 94ff 213b 0bff 06bd
00000030: 4d4d 64bd a498 4bbd aa6b d1bb 15ec 23bd
00000040: 90c2 f3bc 46c8 03be 0a1d 82bd c8ae 9c3c
00000050: 4ce3 843b 89a8 4e3d c2e0 883a 0565 ccbd
00000060: 49a4 dbbc fcfe 41bd 55f8 96bd 8bbc 86bd
00000070: cbda 6cbd cec6 86bd d81e 0e3d c4ba e4bb
00000080: eed6 d1b8 9929 d0bc 0f61 f7bc 5523 9abd
00000090: 23a9 b7bc 1bb4 05bd ddf6 073d f1ab babc
000000a0: 4b18 94bd e194 11bd ff4b 913a 75fc c9bb
000000b0: 860e 7ebd f918 59bd 1834 72bd d73b bcbd
000000c0: 0b1b 71bd 3cd7 1abc fdb7 c8bd b5a3 b6bc
000000d0: a63b 71bd 86c6 93bc 4946 0abc 7da0 c13a
000000e0: 0169 b03c a312 48bb 46a9 98bd ed77 733c
000000f0: 0887 06bd b575 46bd 9566 e13b ae8d d8bc
-0.020483267 -0.0943643 -0.042127583 -0.041180506 0.0046994165 -0.09244704 -0.069548845 -0.022466535
-0.11013994 -0.047521397 0.0024718987 -0.03295807 -0.055737782 -0.049706116 -0.0063910084 -0.040020067
-0.02975586 -0.12869367 -0.06353195 0.019126311 0.004055416 0.050453696 0.001044296 -0.099802054
-0.026811736 -0.047362313 -0.07371584 -0.065789305 -0.057825845 -0.06580888 0.034697384 -0.006980272
-0.000100059304 -0.02541046 -0.030197648 -0.0752627 -0.022419518 -0.032642465 0.03319441 -0.022787066
-0.07231196 -0.035542373 0.0011085271 -0.0061641284 -0.06202557 -0.05300233 -0.05913171 -0.09191101
-0.05886368 -0.00945073 -0.09800718 -0.022294858 -0.058894776 -0.018039 -0.008439609 0.0014772561
0.021534445 -0.0030528686 -0.07454161 0.0148601355 -0.03284362 -0.048452098 0.006878684 -0.026434746

fc1.weight f4 [256, 576]
00000000: 2fb8 e6bc 59f9 02bd fbd5 1abd d7ba d2bc
00000010: fd08 9e3c f40a 443d c2a0 ee3a 9c7b 92bd
00000020: ef32 75bd 50d2 b9bc 7a93 0b3d a3c6 a8bd
00000030: 8d80 5e3a 881d d2bb 64b8 95bd 2afc 90bc
00000040: c3cb 75bc f2ac 1abd 118c 283c 6a9b bc3c
00000050: e6c4 65bd 5513 2dbd 0b65 25bd 81ec 35bd
00000060: 155e a9bc 6e44 45bd 361c b2bd 0f03 d6bd
00000070: cf78 b0bc e7f0 c8bb 56f0 83bc 187c 813d
00000080: a542 c33c 286f 0ebd 5b84 753d 6c0a 653c
00000090: da9e 95bd 5c59 e8bc 2841 ce3c da8a 863a
000000a0: e382 61bd 2dd8 a0bd 865c 48bd 6b51 873c
000000b0: 626c 75bd 3fe4 c33c 7e1e dcbc faf0 a7bc
000000c0: 40ee 9abd 3a0b 303d da7f 4dbc ab22 233c
000000d0: 02a7 39bd 57f1 b5bd 5524 1b3d fec3 13bc
000000e0: 07ff eabb 4743 05bd b25e c5bc 3347 a1bd
000000f0: 6260 18bd c493 bfbc f452 babc dd11 4fbd
00000100: cd4e 28bd a873 fdbc 0a22 debb bd34 67bd
00000110: 40af 93bc 32ab 6abd afc6 513c 09a8 633d
00000120: 7822 8fbd cb81 7bbc a30c faba 1605 98bd
00000130: b54a f13c 6d1d e8bc f1ab b3bd a245 1dbd
00000140: 2378 52bd 5052 3a3c 067d 283a 07ed 35bd
00000150: fdbf 7bbd 7433 d8bc db99 54bd a23a 91bd
00000160: 0004 bdbb 4536 fabc d91e bdbb 25f7 b3bc
00000170: db78 37bd d66a f1bc b527 00bc bfd8 f7bc
00000180: 275e 1bbc 505e 90bd 0e98 0f3d dfec 2abd
00000190: d605 1dbd 01ae 49bd fbac c2ba e995 483d
000001a0: be0c 39bd ac55 90bd 4f04 10bd 3b18 0d3d
000001b0: 4197 18bc 1e1a 46bd d277 77bd 0938 5c3c
000001c0: f618 97bd 20b5 7fbd e2ef 89bd dbc5 3dbb
000001d0: e12c 893c 26ce 1e3d 531a d0bc 002c 9f3d
000001e0: 6809 13bd 3687 b5bc 72d9 98bc 02eb 543c
000001f0: f2e1 6cbd 9988 1ebd 446c 56bd d290 423d
00000200: 6990 db3b a509 88bd e34c bdba 6f11 d3bd
00000210: 41f9 8fbd a392 a5bb 9ac0 a7bb 1236 8abc
00000220: c804 5dbc 5a59 80bd d8ed 58bd 17c8 b3bb
00000230: 5e1e f3bc a4d9 1cbd 6a75 c5bc cebf 68bd
00000240: 43ef 2b3d 2dde a9bd 7dc2 0ebd d92c 01bd
00000250: d5c7 50bd e5c3 6dbc 8795 913c 1e16 abbd
00000260: 754f ab39 7bb3 07bd 3dc9 0abd 0c0b 563c
00000270: 62d0 75ba 7462 5dbd 7af6 4bbd 625d 75ba
00000280: dc81 3ebd 162c fdbc a910 21bb b6db af3c
00000290: 9d3b b93c 0638 debb 1c5f e5bc 77b1 ecbd
000002a0: b28a 3bbd 6d3e 59bd 3aed 1dbd b764 e93c
000002b0: d0ea 02bd bf17 5cbd 96c5 503c 23f7 303c
000002c0: 9a9a 16bd e22d afbd a082 25bb f3bc 88bd
000002d0: 7d0f 79bc 9944 2dbd 65cc 87bc 34c7 62bd
000002e0: e97f 69bc 6860 a13c 2938 cbbd bdfc aa3b
000002f0: 06e6 30bd 1494 493c 0c3c 673c b9ad aabd
00000300: d0dc 073d fe02 7cbd 5745 4dbd 0e33 2cbc
00000310: 296d 7f3b 984e 113d 2144 bfbc 606f 75bb
00000320: 4b70 76bd a0d1 6dbc 213b 2bba 7b77 46bd
00000330: 07b8 47bd 6265 843c 2416 af3c f333 df3c
00000340: f14b babd 57da 02bd 341c 813c 18fa b5bd
00000350: 6fc1 b4bc 95fc e23c 7a72 e2bc 6891 e1bc
00000360: 64ff 2a3d 7589 3dbd 2a47 b3bc 51f2 623d
00000370: 202c 2e3c 1f64 79bb 1882 303d e45a 10bb
00000380: 703d 193c 135d dd3a f1d0 99bd d80a dcbd
00000390: 9ef4 a7bd 55bf 86bc 97c8 97ba a2ac 2fbd
000003a0: 0664 f63c 427c 33bc 65a1 e1bd 310b b8bd
000003b0: 02c3 19bd c612 80bb 446a 4fbd 5d70 ebbc
000003c0: bf42 66bd 33c5 06bd bffa 8dbd a77f 663c
000003d0: 88a2 a3bb 8957 983d 0be9 48bd ff21 adbd
000003e0: d4f7 c6ba 340f b63c 3f7a 4c3b 2db4 31bd
000003f0: 7889 d7bc 6ae9 bbbc f8d5 40bd 0fbf f1bc
-0.028163997 -0.031976078 -0.037801724 -0.025723858 0.019291395 0.04786201 0.0018205869 -0.07152483
-0.059863027 -0.022683293 0.03407619 -0.08241012 0.00084877835 -0.006412212 -0.0731056 -0.017698366
-0.015002194 -0.03776259 0.010287301 0.023023326 -0.05609598 -0.042254765 -0.040379565 -0.044415
-0.020674745 -0.048160963 -0.08696787 -0.10449802 -0.021541981 -0.0061322334 -0.016105812 0.06322497
0.02383549 -0.034773976 0.059940677 0.013979536 -0.07305689 -0.028362922 0.025177553 0.001026477
-0.055056464 -0.07853732 -0.048916362 0.016518315 -0.059917815 0.023912547 -0.026870009 -0.020500649
-0.07564974 0.042979456 -0.012542689 0.009956996 -0.045325287 -0.088839225 0.037876446 -0.009018896
-0.007171515 -0.032534864 -0.024093006 -0.07874908 -0.037201293 -0.02338589 -0.022744633 -0.050554145
-0.041090775 -0.030938938 -0.00677896 -0.05644678 -0.018027902 -0.05729217 0.0128037175 0.055580173
-0.06988996 -0.015350769 -0.0019077252 -0.07422845 0.029454568 -0.028334344 -0.087730296 -0.038396485
-0.051384103 0.011372164 0.00064273214 -0.0444155 -0.06146239 -0.026391722 -0.05190454 -0.070912614
-0.005768299 -0.030543456 -0.0057714996 -0.021968434 -0.04479299 -0.029469889 -0.007821967 -0.03025472
-0.009482897 -0.07049239 0.03505712 -0.041729804 -0.038335644 -0.04923821 -0.0014852578 0.04897109
-0.045178168 -0.070475906 -0.03516036 0.034446936 -0.0093134055 -0.04836475 -0.060417004 0.013441094
-0.07377808 -0.062428594 -0.06735207 -0.0028957042 0.016745033 0.038770817 -0.025403177 0.07772064
-0.035897642 -0.0221592 -0.018658374 0.012995483 -0.057832666 -0.03870449 -0.052349344 0.047501393
0.0067005646 -0.066424645 -0.001444247 -0.103060596 -0.07029963 -0.005052881 -0.0051193954 -0.016871486
-0.0134899095 -0.062670425 -0.0529612 -0.005486499 -0.029677566 -0.038293496 -0.024103839 -0.056823544
0.041976225 -0.0829433 -0.034853447 -0.03153691 -0.050971825 -0.014512037 0.017771496 -0.08353828
0.00032674862 -0.03313015 -0.033883322 0.013064157 -0.000937706 -0.05404897 -0.049795605 -0.00093599234
-0.046510562 -0.03090481 -0.002457658 0.021467071 0.022611434 -0.006781581 -0.027999453 -0.11557286
-0.045786567 -0.05303805 -0.038556315 0.028490407 -0.031962216 -0.053733584 0.012742421 0.0108011095
-0.036768533 -0.08553673 -0.002525486 -0.06676664 -0.015201447 -0.042301748 -0.016576955 -0.055365756
-0.014251688 0.01969929 -0.09922821 0.005218117 -0.043188117 0.012303371 0.014113437 -0.08333916
0.033169568 -0.06152629 -0.050114956 -0.010510219 0.0038974977 0.035475343 -0.023347916 -0.0037450418
-0.060165685 -0.0145153105 -0.0006531943 -0.04845379 -0.048759487 0.016161624 0.021372862 0.027246451
-0.09096516 -0.031946506 0.015760519 -0.08885592 -0.022064893 0.027708331 -0.027642477 -0.027535155
0.041747466 -0.046273667 -0.02188452 0.055406872 0.010630637 -0.0038054062 0.043092817 -0.0022026831
0.009353027 0.00168887 -0.075105555 -0.10744256 -0.08200954 -0.016448656 -0.0011580166 -0.042889245
0.030076992 -0.010954918 -0.11017112 -0.089865096 -0.03753949 -0.003908488 -0.050638452 -0.028740102
-0.056215998 -0.032902908 -0.06932592 0.014068521 -0.0049937405 0.07438571 -0.049050372 -0.0845375
-0.001518006 0.022224046 0.0031200794 -0.04338472 -0.026310667 -0.022938449 -0.047079057 -0.02951005

fc1.bias f4 [256]
00000000: 0f6e 38bd 60fb c5bc 3041 e9bc dbdb b23c
00000010: e390 deba 185c b13a c612 583c 07d8 b9bc
00000020: b0e7 a1bc 8459 8f3b 5584 27bd 7efb 6bbc
00000030: 258a 6e3c 5aab 2ebd dd1a 373b 2a4a 08bd
00000040: e367 a4bc 45c7 c03d d5ed f1bb 60d0 3fbd
00000050: 4444 f0bc dadf 3fbd 6355 91bc 6cce 19bd
00000060: 14c7 233c d9d1 14bc 55e5 8f3c 243a b3bc
00000070: 6ab2 02b9 7c11 0fbd 3334 07bd b68e 783a
00000080: 6d99 5ebb 5aa1 61bd 383d 5f3c 0e79 56bd
00000090: 65c5 63bd 2748 3cbd e975 90bd c3b6 ccbc
000000a0: aac9 14bc 2f6b 2fbd 4eab 7abd 6685 b0ba
000000b0: 04be d03c 9aa9 963c c39e 2f3d a6a6 2dbd
000000c0: 21d9 bfbc 51ec 7cbd fb2b 8c3c 9d85 a83c
000000d0: 401c 1c3d 83e9 68bd 3467 203c 4bc1 b0bc
000000e0: c3fd e63b 5c9d 893d ae10 bf3c 2373 373c
000000f0: c301 f4bd 14d9 52bd cc67 37bd fee5 6bbd
00000100: a146 cabc 5bcc 86bd 802a 45bc 39a5 cebc
00000110: e309 063d 8678 91bc 9e99 10bd d3c3 8ebd
00000120: 546f 59bd 6cde f1ba a1b4 aebd fcf3 373c
00000130: 5706 413d 48df 2b3d a234 813d ee63 1dbd
00000140: 2333 1cbc 2f90 d6bc a222 cf3c 2e89 c03c
00000150: 25e3 843d 4b50 743c bcf5 983c ed05 c53c
00000160: eacf 73bd a498 2f3c 5c56 15bd 7a0f 2e3d
00000170: ba9a 2f3c e9b1 173d c85c a2bb 0565 c03c
00000180: ae81 96bc 6bfc fb3b ba6c 593d 4fa2 08bd
00000190: 2fad 89bd f171 91bc 2eca 153c af93 a43d
000001a0: 9f31 833b fff6 5abd 3e7b 1c3d 4479 433d
000001b0: a32e 583c e213 1c3c c7de b73b 6db8 5cbc
000001c0: adfa 88bc 1668 bebc 9a40 643c b7ee 303c
000001d0: 6475 0bbd 3f9b 91bd 85bc 92bd 17f3 37bd
000001e0: f179 9abd 2110 54bd 9fad 363c f22b 2bbd
000001f0: 7cce ecbb 96bb 113d a8b6 1c3d a389 d9bd
00000200: faf8 5a3b 9846 82ba 0895 e7bd 8155 9abd
00000210: a3fc 4cbc e8db 1ebd 8b4f ca3c c6e0 86ba
00000220: 4c70 633d 8cb7 8abc f970 12bd b6b4 acbc
00000230: 3047 77bd d547 233c 520e 1cbd 5b36 9cbc
00000240: 50fb 5fbd 1827 a43c 0cdc 26bd be6d 71bc
00000250: 207f 00bd 9790 40bd f6d6 2abd 8f94 88bc
00000260: 4e25 86bc f593 ebbb c913 d4ba 1662 883c
00000270: b12d a3bd c592 c43a 1be1 92bc 6550 023c
00000280: 7c65 3bbb f574 1cbd eac0 bcbd bc7c a5bd
00000290: bf29 00bd fcbb 8e3c 68c7 3abc 8ece 543d
000002a0: 75a0 aa3c 4dc9 86bc 862d 3ebd 66a6 2e3d
000002b0: 9083 bcba 5750 91bd db43 80b6 67c7 2a3d
000002c0: 7080 333c a68a a13c 9063 da3c 290a 32bd
000002d0: 2513 c5bc e84f 97bc 9260 9c3c 0567 debd
000002e0: c53a 8f3d 9553 74bd 3f67 463b 992f 4bbd
000002f0: 8f85 9fbc 672d aabd b3ff 763a b051 81bd
00000300: df76 e5ba d898 91bd 3069 663d 6ca4 7e3a
00000310: 2bbe afbc ebef a53c e35e 06bd 7e39 7b3b
00000320: fdaa 8bbd e5d3 4b3b 7f6a 1e3d 6f28 033c
00000330: f409 07bd 0b50 253d 13cf 3abd 014b 233d
00000340: a885 a5bd 9935 513d 1a3d c6ba dd85 07bd
00000350: 69f9 973b 7a6a 0d3b c6d0 21bb 03dd ddbb
00000360: c27e ebbc 2f6e debb fa1b 563c 836e 2dbc
00000370: 1a6f 11bc 2a7a 5dbc 5825 84bd a59a 8fbd
00000380: 57d5 2bbd 0858 7b3d e69d aa3c f17e af3c
00000390: 3c30 8cbc 5ef1 38bd c195 6ebd ba5b 80bd
000003a0: 627b 34bd cc53 a9bd bc74 eb3c 13f0 d3bc
000003b0: 77e4 aebd 11b6 06bd 5646 5abd a262 d0bc
000003c0: 5a11 9fbd 39c0 95bc 7d9a 9bbd 3a84 66bd
000003d0: 311a 8a3c 20c6 9b3c 6fec ebbb 4f1a a2bd
000003e0: a2ab 05bd 95bc a83c 670e 7dbd 298d 3e3d
000003f0: 3ce8 b83c 9d1e b93b c7a6 ffbc ccc9 8dbb
-0.045026835 -0.024167717 -0.028473467 0.02183335 -0.0016980435 0.0013531474 0.01318807 -0.022686018
-0.019763798 0.0043746848 -0.040897686 -0.014403222 0.014559303 -0.042643882 0.0027939596 -0.033273853
-0.020069068 0.09413008 -0.007383088 -0.04682958 -0.029329427 -0.04684434 -0.01774091 -0.037550375
0.009996194 -0.009083235 0.017565409 -0.02187831 -0.0001246423 -0.034928784 -0.033008765 0.0009481715
-0.003396596 -0.055085517 0.0136254355 -0.05236154 -0.055608172 -0.045967247 -0.070537396 -0.024989491
-0.009081284 -0.042826828 -0.061198525 -0.001346749 0.025481232 0.01839142 0.042876016 -0.042395256
-0.023418965 -0.061748806 0.017110815 0.020571524 0.03811288 -0.05686332 0.009790231 -0.021576544
0.0070492937 0.06719467 0.023323383 0.011196884 -0.119143985 -0.051476553 -0.044776723 -0.057592385
-0.024691882 -0.065819465 -0.012034059 -0.025225269 0.032724272 -0.017757665 -0.03530275 -0.06970944
-0.053084686 -0.0018453128 -0.08530546 0.011227604 0.047125187 0.041960984 0.06308867 -0.03842538
-0.009533676 -0.026191799 0.025285069 0.023502912 0.06488637 0.014911721 0.018671863 0.024050677
-0.059524454 0.010717545 -0.03645931 0.04249523 0.010718042 0.037034903 -0.004954908 0.02348567
-0.018372383 0.0076900027 0.053082205 -0.033357915 -0.06722485 -0.017754527 0.009142442 0.08035981
0.004003718 -0.05345821 0.03820347 0.04772307 0.013194713 0.009526225 0.005611274 -0.013471705
-0.016721094 -0.023242991 0.013931418 0.010799102 -0.0340475 -0.07109689 -0.071648635 -0.044909563
-0.0754279 -0.051773194 0.011149793 -0.041789956 -0.0072267633 0.035579287 0.038260132 -0.10621955
0.0033412562 -0.0009939251 -0.11307722 -0.0753584 -0.012511405 -0.038783938 0.024696132 -0.0010290376
0.055527017 -0.016933225 -0.03575227 -0.021082263 -0.060370624 0.009965857 -0.038099594 -0.019068887
-0.05468303 0.020038173 -0.040737197 -0.014735637 -0.031371236 -0.04701289 -0.04170891 -0.0166724
-0.01637521 -0.0071892687 -0.0016180213 0.016648334 -0.07967699 0.0014997354 -0.017929604 0.007953738
-0.0028594425 -0.038197476 -0.09216483 -0.08080432 -0.031289812 0.017423622 -0.011400081 0.0519548
0.020828465 -0.01645341 -0.046430133 0.04263916 -0.001438247 -0.07095402 -3.8225967e-06 0.04169407
0.010955915 0.019719433 0.026658803 -0.04346672 -0.02405698 -0.01847072 0.019089017 -0.10859493
0.06993631 -0.059650023 0.0030273942 -0.04960594 -0.019472865 -0.08309441 0.00094222574 -0.06314409
-0.001750674 -0.07109231 0.05625266 0.0009713832 -0.021452984 0.020256003 -0.032805335 0.0038333829
-0.06819723 0.003110164 0.03867578 0.008005246 -0.032968476 0.040359538 -0.045607638 0.03986645
-0.080821335 0.051076505 -0.0015124411 -0.033086646 0.0046378863 0.0021578358 -0.002469109 -0.0067707314
-0.028746966 -0.0067880373 0.013068194 -0.01058543 -0.008876586 -0.013517896 -0.06452435 -0.07011918
-0.041951504 0.06136325 0.020827245 0.021422835 -0.017112844 -0.04515206 -0.058248285 -0.062674955
-0.04406298 -0.08267936 0.028742187 -0.025871312 -0.0853967 -0.032888476 -0.053289734 -0.025437657
-0.077669814 -0.018280135 -0.07597826 -0.056278445 0.016858192 0.019015372 -0.007199816 -0.07915174
-0.032634385 0.020597735 -0.061781313 0.04652134 0.022571675 0.0056494013 -0.031207455 -0.0043270346

fc2.weight f4 [10, 256]
00000000: 1177 823d c78b 223e 06e8 e13d 90d4 abbd
00000010: 1a74 19be 966f 203d 783d 5f3d a826 3b3d
00000020: 6464 2dbc 826a c23d 5b33 95bd 9c68 33be
00000030: 32b9 aabe 215c 7abb a04d 29ba 76c4 6c3d
00000040: f5fe 8f3c 7b3a 913d 6234 94be f4f9 49be
00000050: 023d 74be ab3d a93d eb11 c23b 5477 66bd
00000060: 324b 0e3e dc3d a33d e245 d73d 4cdf 4cbc
00000070: 72cb 7e3d 6da9 9dbd 58f6 7f3d f24f 46bd
00000080: e121 5a3c c431 fcbd c5d0 4d3d 81e2 bebc
00000090: 9398 283e d8fe 31bc fffb c93d de96 ac3d
000000a0: 9695 043e 5fda 1b3e d634 083d 8067 46be
000000b0: 80ac 47be 8fde 84bb dcf8 c0bd ae7b 4d3a
000000c0: 3f24 0b3d ab03 f13d 107b c03d aea8 3bbe
000000d0: 3cdc 31bd 80c1 a33c a9d4 c93d ebaa 3a3d
000000e0: 7119 52be 89c9 36be c51d 65be 9531 60bd
000000f0: c7d9 98be 0355 af3d e217 853c b880 b63b
00000100: a7ee c13d 7d98 11bd 46c5 133e 601d 2cbd
00000110: e4ac b73d 8dd3 8cbc 6d9b 2b3e 192b a33d
00000120: 99b3 81bd 7a34 a1be 62e7 3a3d 6831 16bc
00000130: f53e 963c 6f5a a33d 4911 1abe 1cd2 e33d
00000140: 4fc7 65be b7ff f93c a369 a33c 53f7 9f3d
00000150: 1db1 de3d 05f9 ea3d 7177 26be d243 d1bc
00000160: edfb 27bd b324 093e 3bd4 9d3c eaf4 97bd
00000170: 16ad 933c 2590 7bbc ea0c 83bc c960 0c3e
00000180: 00a1 45b9 5942 eabb 1b1a 57be 9ef7 043d
00000190: 0e1c 283d 8f96 5d3d c5ad fc3d 8ed9 2bbe
000001a0: ee23 71be b640 37be 6c2a d63c 7e76 3ebe
000001b0: 6f1b 073b f84a 0b3e f055 db3d da2f 113a
000001c0: 14b7 58be 9e08 013d a203 1fbd 3416 89be
000001d0: 2c94 b7bd 34c0 12be d5e4 d23d 0f64 ce3d
000001e0: c40e 1abe 2f82 3abe c6a4 783b 9777 453b
000001f0: 11b9 8f3d c6cb 6fbe 182c 80be 35c9 69be
00000200: 34ff 4abd 8c73 80be ddef 5cbe 082d 2b3d
00000210: 3d9c 573d 0b40 173e 7058 b6bc 4873 1dbe
00000220: c1a7 13be 918a 843d 8c09 a4bd 622f 96be
00000230: b800 68be 5c6f 27bd 07cf 23bd 10bd ccbd
00000240: 1571 71be e6fa 13bd 0aa9 fa3d b4aa debd
00000250: 9f41 bb3c 175a 6d3d 2d3c 4ebd 890a 743d
00000260: 744f 0fbd 4385 83be a7fa bbbd 3b23 df3c
00000270: 3679 ebbc f5a3 2c3d 4e95 e83a c214 bb3d
00000280: 3eed bf3c 3b8b ba3c 9a64 103d cff2 d23d
00000290: 5209 af3d 779b 17be b839 413d f0f3 13be
000002a0: a78d 8bbe c938 62be bd35 23bc 77fd 29be
000002b0: 7070 253d f298 d83d cb31 06bd 4f02 df3c
000002c0: ebde 21bd 4670 1a3c 515b fcbd c7dc b13c
000002d0: 4b5c 8a3d fecc 8abc 5b35 07bd a79d 35be
000002e0: b086 85be ac3e b63d 7152 12be 839c 06bd
000002f0: c7d0 8ebe ab6e 1abd 3908 843d af24 073e
00000300: 5743 223c 1e56 51bc 2858 f13d d497 8ebe
00000310: 5ede a4bc 79de 51bc fe8d 25bd dc97 a9bb
00000320: cc20 be3d 6e82 91bd 100a 99be 429f b93d
00000330: 3aec c2bc c373 10bd 00cf 47bb b89e 8ebe
00000340: 358a 1cbd c55c 0fbe 6b2c 1cbe 8036 193d
00000350: 6883 52be f3e7 7fbe dbc5 40be 3c05 dbbc
00000360: eddd 863d a50a eabc 7f5e e23d db68 e2bc
00000370: e4c5 633c b7d8 fabc d6af 6d3d 3417 c0bc
00000380: 0e27 3fbe 3791 de3d a786 ac3d 1bde 213d
00000390: 6988 18be 6a45 3abc b51b 20be 48e5 1cbe
000003a0: 44b2 6ebe 1f04 06be 0c6a adbd 56e2 293c
000003b0: 20a0 4fbe 6d16 bb3d e459 c9bb 7f50 04bc
000003c0: 0a8c 09be 5780 eb3d 9675 103e e27b 0cbe
000003d0: 76f9 133e a922 b9bb 45df 763c ace7 fcbc
000003e0: de48 17bd 7bb9 71bd 1e01 edbd d415 fbbc
000003f0: 80c5 4bbe fb55 17be e7db 063d d6a7 e23d
0.06370366 0.15873633 0.11030583 -0.083901525 -0.14985695 0.039168917 0.05450198 0.045691162
-0.010583017 0.09492971 -0.07285186 -0.17520374 -0.33344418 -0.0038201886 -0.00064584054 0.057804547
0.017577628 0.070912324 -0.28946215 -0.19724256 -0.23851398 0.08263715 0.005922546 -0.056266144
0.13895872 0.07970783 0.10511376 -0.01250441 0.06220574 -0.07698331 0.06249079 -0.048416086
0.013313741 -0.123141795 0.050247926 -0.023301365 0.16464452 -0.010863982 0.098625176 0.08427213
0.12947688 0.1522002 0.033253513 -0.1937542 -0.19499397 -0.0040548514 -0.09422466 0.0007838559
0.033970114 0.11768278 0.09398472 -0.18326065 -0.043422922 0.019989729 0.09855015 0.045573156
-0.20517518 -0.17850317 -0.22374637 -0.054734785 -0.2985365 0.085611366 0.01624674 0.0055695437
0.094693474 -0.035545815 0.14430723 -0.0420202 0.08968523 -0.017190719 0.16758509 0.079672046
-0.06333084 -0.3148535 0.04563082 -0.009167053 0.018340567 0.07976233 -0.15045656 0.111240596
-0.22439311 0.030517442 0.019947832 0.07810845 0.108736254 0.11473278 -0.16256501 -0.025545035
-0.04101174 0.13392906 0.019266238 -0.074197605 0.01802687 -0.015354191 -0.015997369 0.13708796
-0.00018847361 -0.0071490225 -0.21006052 0.03246271 0.04104238 0.054098662 0.123378314 -0.1678221
-0.23548862 -0.17895779 0.026143275 -0.18599889 0.0020615717 0.13602817 0.10709751 0.00055384415
-0.21163589 0.03150236 -0.038821824 -0.26774752 -0.089638084 -0.14331132 0.102975525 0.100776784
-0.15044695 -0.18213724 0.003794001 0.0030131096 0.070177205 -0.23417577 -0.2503364 -0.2283066
-0.049559787 -0.25088155 -0.21575876 0.041790992 0.052639235 0.14770524 -0.022258967 -0.15376008
-0.14419462 0.06471742 -0.080096334 -0.29333025 -0.22656524 -0.040877685 -0.03999236 -0.09996998
-0.23578294 -0.036127947 0.12239273 -0.10872403 0.022858439 0.057947244 -0.050350357 0.05958036
-0.03498788 -0.25687608 -0.091786675 0.027238479 -0.028744321 0.04214855 0.0017744692 0.091348186
0.023428556 0.022771468 0.03525219 0.10300218 0.085466996 -0.14805399 0.047174186 -0.14448524
-0.2725651 -0.22091974 -0.009961543 -0.16600595 0.040390432 0.10576047 -0.03276233 0.02722278
-0.03951923 0.009426182 -0.12322105 0.02171172 0.06755885 -0.016943451 -0.033009868 -0.17735921
-0.2607932 0.088986725 -0.14289261 -0.032864105 -0.2789366 -0.037703197 0.06446881 0.13197587
0.00990375 -0.01277688 0.117843926 -0.2785021 -0.020125564 -0.012809389 -0.040418617 -0.0051755738
0.09283599 -0.071049556 -0.2989049 0.09063579 -0.023794282 -0.03526665 -0.0030488372 -0.27855468
-0.038217742 -0.14000233 -0.15251319 0.03740549 -0.2055794 -0.24990825 -0.18825476 -0.026735894
0.06585298 -0.028569529 0.1105318 -0.02763789 0.013902161 -0.030620916 0.05802902 -0.023448564
-0.18667242 0.10867541 0.084241204 0.039518457 -0.14895786 -0.011369089 -0.1563557 -0.15321839
-0.2331019 -0.1308751 -0.084674925 0.010368904 -0.20275927 0.09135137 -0.006144749 -0.008075832
-0.13432327 0.11499088 0.14107355 -0.13719133 0.1445063 -0.0056498838 0.01506788 -0.030872189
-0.036934726 -0.05901478 -0.11572479 -0.030650057 -0.19899559 -0.14778893 0.03292456 0.110671684

fc2.bias f4 [10]
00000000: 52c6 0c3e 392d 203d 923f 7f3c 6855 6c3d
00000010: 5eee adbc a38d 443d 39ce f03d 0388 c3bd
00000020: c0f6 8cbd 7144 1f3d
0.13747528 0.039105628 0.015579121 0.057698637 -0.021231826 0.047986638 0.11758084 -0.095474266
-0.06883001 0.03888363
