saved_models/kmnist_qnn_2l.pt (torch, 683617 bytes, 8 tensors)

conv1.weight f4 [32, 4, 3, 3]
00000000: 0401 0f3e 3b5b ec3c 8526 1fbe 376b f23d
00000010: a5f9 383e c413 03be dd68 d73d b241 debe
00000020: d216 a8be 882d acbd 17c0 b7bd 0809 a53d
00000030: 72cb 67bc 57f2 a4be a6d2 e43e 3fc9 73be
00000040: e43e 4d3e e44c cc3d 07be 24bb e436 a1be
00000050: dd93 9f3e b1ab f6bd 6f5a 0cbf cb90 b63e
00000060: 1591 4ebe cf51 783e 4ad0 d33d ae55 8abe
00000070: 70e8 21be e259 9c3e 7059 c2be 29c2 003f
00000080: ce9b 313e 331f 2a3d ad7c eb3d a2e4 02be
00000090: bd39 8dbc e68c 5bbd da4c cd3d 031f 1d3e
000000a0: 3467 34be bf8c ae3c 76f3 5fbd 46c4 773d
000000b0: a2e8 e9bd d533 2b3e 6f49 da3e c498 b9be
000000c0: efcc a1be 7355 1b3f de27 28be 4d05 a0be
000000d0: 1c53 d63d 4323 493e 83d0 17be 3504 f13e
000000e0: 7276 893e 1708 f8be 72ea 03be 8d33 083f
000000f0: efa6 33bd bcb3 18bb c036 b83e 9330 b43d
00000100: deb9 6a3d 8dfc df3d 14cc ccbe 6521 353e
00000110: da08 b63e 6c7c 19be e66a c63b 99b2 873e
00000120: 4952 2ebd d70d ea3d 41a1 e7bd 8dd8 f13d
00000130: fda8 08bd 67c0 553d e35f c4bc ae62 933d
00000140: 86c6 dd3d ac87 d4be 1e88 56be 6d9b 28be
00000150: 3d0a 94bd ab6a 15be c4e2 843d 91c3 c53e
00000160: 990b c73e 9471 6a3e de7e c8be 9668 d6be
00000170: 7c86 09be 847f f83c aa94 503e a84a c73d
00000180: 167f 1b3f d363 0b3f 7305 943e 2ec3 d8be
00000190: 4ffd 57be 0573 3cbe 42b9 953c fc17 ffbd
000001a0: 5a6d 0cbd 591c 8c3e 8b55 3a3c df8c b83d
000001b0: e875 573d c0c1 313e 2894 aabc 7e37 f0bb
000001c0: a78c 04be 12d6 57be 7664 4abd 166f 733d
000001d0: e7d2 75be 5478 43be a0d4 49be d54a d2bd
000001e0: c6fb c23e d651 cb3c 2f9d b03e 8bdb 62be
000001f0: 1b89 8dbd bb18 ab3d 38e2 98bd bcff 9cbe
00000200: cdea f7be a800 763e 06ef 803e fba3 b43d
00000210: fb51 c5be f910 97be 70c0 a63e 360c 4e39
00000220: a329 30be 4af4 383e 1abd 8e3e f24d 9a3e
00000230: 3348 8e3e 6964 93be 9553 b23e bf2b 95bc
00000240: eea7 25be a02c 8cbd f111 fcbd fc52 cabd
00000250: 5b1f 9e3d 163e 28be ccba 203e f4ea fc3d
00000260: 04f2 d3be de6f 863d 8e85 cb3e 76b6 e63d
00000270: 2a46 8dbe f9d2 43bd 79d9 913e 1772 55be
00000280: cec8 a3be e016 da3e aaf4 5bbe 1f7a a0bd
00000290: e62f 1c3f d282 27be 34bc e9be 9217 d43e
000002a0: 58bf 77be c6ae c7be 459a 503e 31a0 c93c
000002b0: ff38 f83d 6390 fcbc 6da1 35be 6f02 7b3c
000002c0: fb0e 783e b2ab 1ebe bdaa 83bd e5f2 d93e
000002d0: 8c37 853d 5669 53be f3bb 5c3e b5a5 05be
000002e0: 2518 0fbe 693b a7be 0107 16be c956 443c
000002f0: e03b c1be 4b8a 51bd b6bb 8b3e cd92 d1be
00000300: 93f0 fa3d 7e57 1c3e 7df5 c7be ee73 63be
00000310: bba8 e03c d5c3 30be 0e53 afbe e61e 773d
00000320: 2503 3ebd 8fba 453d c663 f63d f718 f63e
00000330: 0e2d 25be b3da c8bd aba1 683e 82cd 883d
00000340: 54f7 6b3e 383f ebbe bfc0 58be 4c9c a7bc
00000350: de3d acbd 6f10 9abe 4289 8bbe 4d30 283e
00000360: 1dd1 c3bc 79c7 5abe 9603 c8bc 6eb5 c5bd
00000370: cfdc 6dbe 3c60 69bb b872 30be dfb3 bb3d
00000380: f84c d43d 9f2d 433e a367 a23e 4bf5 a1be
00000390: 3795 b23e d2ae 8dbe 058c 30bd 99fd 9fb9
000003a0: 4ebf c2be 15ef 93bd 3827 9b3a 8cfc ba3e
000003b0: 69c1 acbe 5f1f cc3e a4ae 88bc 7d88 37be
000003c0: 332d d0bb e586 eabe 2297 adbd 25de 3a3e
000003d0: d144 a53e 668b 83bc fbf6 893e ba6a 9ebe
000003e0: 9d12 8c3d 2a06 68bd 6296 b2be 7699 323e
000003f0: be69 e7bd 90f1 b8be 85ba dd3d 3fb0 f0bd
0.13965231 0.028852096 -0.15542038 0.11836856 0.18063982 -0.12800509 0.10518048 -0.43409497
-0.3282991 -0.08407122 -0.08972185 0.08058363 -0.014147626 -0.3221614 0.44691962 -0.23807238
0.20043522 0.09975603 -0.002513768 -0.3148719 0.31167498 -0.12044466 -0.5482549 0.35657343
-0.20172532 0.24249958 0.10342462 -0.27018493 -0.15811324 0.30537325 -0.3795886 0.50296265
0.17344591 0.04153366 0.114983894 -0.12782529 -0.017239446 -0.053601168 0.10024424 0.15343861
-0.17617494 0.021307347 -0.05467554 0.060489915 -0.11421324 0.16718991 0.4263415 -0.36249363
-0.31601664 0.6067726 -0.16421458 -0.31254044 0.104650706 0.19642358 -0.14825635 0.47073522
0.2684818 -0.48443672 -0.12882403 0.5320366 -0.043860372 -0.002330049 0.3597927 0.08798327
0.057306163 0.10936842 -0.3999945 0.1768852 0.35553628 -0.1498887 0.0060552238 0.26503447
-0.042558942 0.11428421 -0.113100536 0.11808882 -0.033364285 0.052185442 -0.023971504 0.07196556
0.10828881 -0.4150976 -0.20950362 -0.1646554 -0.07228515 -0.14591472 0.064885646 0.38625768
0.38876036 0.22894889 -0.39159292 -0.41876668 -0.13430208 0.030334242 0.20369211 0.097310364
0.6074079 0.54449195 0.28910407 -0.4233641 -0.21092723 -0.18403251 0.018276814 -0.124557465
-0.034283973 0.27365378 0.011372934 0.09011244 0.05260268 0.17359066 -0.0208226 -0.007330834
-0.1294428 -0.21077755 -0.049412213 0.05943211 -0.24006234 -0.1908887 -0.19710016 -0.10268179
0.38082713 0.024819296 0.34494922 -0.22154061 -0.069109164 0.08354326 -0.07465023 -0.3066386
-0.48421326 0.24023688 0.2518236 0.08820339 -0.3853911 -0.29505137 0.32568693 0.0001965024
-0.17203383 0.18061939 0.27878648 0.30137593 0.2778946 -0.28787544 0.34829393 -0.018209336
-0.16177341 -0.06844449 -0.123081096 -0.09879109 0.07720824 -0.16429934 0.15696257 0.12349501
-0.4139558 0.06564306 0.39750332 0.112652704 -0.27592593 -0.04780862 0.2848623 -0.20844303
-0.3198914 0.42595577 -0.2148005 -0.07835793 0.6101059 -0.16358498 -0.456514 0.41424233
-0.24194086 -0.3900053 0.20371349 0.024612518 0.12120246 -0.030830568 -0.1773736 0.015320404
0.24224465 -0.15495184 -0.0642905 0.42568126 0.06504735 -0.20645651 0.21556072 -0.13051493
-0.13974054 -0.32662514 -0.1465111 0.011983582 -0.37740993 -0.051157277 0.2729165 -0.40932313
0.12252917 0.1526775 -0.3905448 -0.22212192 0.027424207 -0.17262204 -0.34243053 0.0603322
-0.046389718 0.04827362 0.12030749 0.48065922 -0.16130468 -0.098073386 0.22717921 0.066798225
0.23043567 -0.4594667 -0.21167277 -0.02046027 -0.08410238 -0.30090663 -0.27253157 0.16424675
-0.023903424 -0.21365155 -0.024415772 -0.096537456 -0.23228763 -0.0035610339 -0.17231262 0.09165167
0.10366243 0.19060372 0.31719694 -0.31632456 0.34879467 -0.2767244 -0.043102283 -0.00030515788
-0.3803658 -0.07223336 0.001183725 0.36520803 -0.3374131 0.39867684 -0.016684838 -0.1792316
-0.0063530444 -0.4580604 -0.08476092 0.18248804 0.32279065 -0.016057681 0.26946244 -0.309408
0.06839488 -0.056646504 -0.34880358 0.17441353 -0.112994656 -0.36121798 0.108265914 -0.11752366

conv1.bias f4 [32]
00000000: 3761 373c 8128 23bc b922 cfbc 7afc c7bd
00000010: c7af d83a 7450 923d d98e e5bd fc43 07be
00000020: d447 e4bd 877e 10bc ae79 8ebd ca21 36bd
00000030: 2934 3bbd 85bf 7bbe a146 713c 27c1 a0bc
00000040: e503 acbd c6aa 363e eba9 49bc 2bd8 c2bc
00000050: b2a9 86bd 925f bbbd aa7a 75be d518 c0bd
00000060: 719d c23d b218 d23d fd32 983d dae5 2e3d
00000070: faf9 fa3d 4ae7 25be 2fb2 c13c 2bd6 193e
0.011192611 -0.009958387 -0.025285112 -0.09764953 0.0016531878 0.071442515 -0.11208887 -0.13209528
-0.11146513 -0.008819229 -0.06956802 -0.044465818 -0.04570404 -0.24584778 0.014726312 -0.019623352
-0.0839918 0.17838582 -0.012308578 -0.023784718 -0.065753356 -0.09149088 -0.23972574 -0.09379736
0.09502686 0.102586165 0.074316 0.042699672 0.122547105 -0.16201511 0.023644535 0.15023105

conv2.weight f4 [64, 32, 3, 3]
00000000: 6aa1 0e3e 28f6 a8bb 9468 2e3e c564 c93c
00000010: ab7a 99bc 9f38 11be a7f5 44be 817e d8bd
00000020: 4770 f13c 2535 c3bd cf8f bebd a4a3 8d3d
00000030: 41e9 9dbd b2a3 71bd ef5d 4cbd c15c 343d
00000040: 533b ddbd 6a05 cfbd feec 3e3d 6942 5e3e
00000050: abb2 723e 71b0 29bd ac98 2e3e 44df 123d
00000060: dd8a 063d a4af 33bd e944 54bd a1dd a43d
00000070: cef4 0d3e 20e5 99bd 4042 da3d 32cf 9fbd
00000080: df38 0c3d 41f3 0fbc b5c9 4ebd f247 e53a
00000090: 1feb a03c c432 c9bd 4e65 8ebd 16de 493c
000000a0: 8a06 7abd 127d c4bd 6ed8 d2bd ec4e 87bb
000000b0: 2285 513d 81ff 7b3c 29b2 7f3c 6806 433c
000000c0: 8a67 68bd f3c8 bb3d 1f90 59bd f561 723d
000000d0: ba62 5abe 3571 57bd bbd5 633d 30d7 7cbd
000000e0: 588b cfbd c6c6 253d 2975 4ebe 4bf9 983d
000000f0: d246 833c 012a acbd 929c 1abd 7d48 063d
00000100: 6567 613d 3829 a3bc 5175 d3bd bd81 8dbd
00000110: df0d 0a3e aad4 91bd f746 953d 108c 2a3c
00000120: 1db8 d23d 4729 103c cc81 543d b200 a13d
00000130: d48c f6bd 8cee 21be 4484 623d 4fdc b5bc
00000140: 8399 e1bd b53b 0d3e d965 a83d 82b1 48bd
00000150: 685f dfbd 5f52 843e 2f6f e4bc f6ed b73d
00000160: e41d 56bc 6990 bbbd 3111 0b3d ce7e c13d
00000170: 4d2a 7e3d 55e6 e63b c38d 43bd d621 0abe
00000180: 9f09 9ebd 561f e13b af32 2fbe b448 99bc
00000190: 842d 7e3d 700a aebd 7e63 063d 7cb6 0a3d
000001a0: baba d0bd ec16 16bd 4ed7 fb3c 9cf2 f3bc
000001b0: 4d25 953b 021e 033d 0011 7abd 82ea 0f3e
000001c0: 7d93 593e b355 be3d e15c 66bd 421a cabd
000001d0: 4ee2 5bbd 3b64 2d3e f0a4 04be 61d5 45bd
000001e0: 99ec 0d3d f013 163d 366c 0fbe 2ca4 713c
000001f0: 7a9b 153d bf0a 2b3d df5f f4bd cb12 87bd
00000200: 13e4 1cbe eb68 1bbe 25e7 ff3d 5cf9 483e
00000210: 0474 3fbd efe0 cc3d 4ae9 8fbd c5f6 2c3d
00000220: d5b4 bdbc 682d dc3c f951 02bd 6ad7 8f3c
00000230: 2da0 18be f69d f4bc c79e 10bd e30a 04be
00000240: 7717 71bb 7411 913d d5f8 e5bd 1ff8 173e
00000250: 772d 453e ed43 47bd 21f7 cfbd 0ecd 51bb
00000260: 8b41 61bd 1081 a6bc 7bd4 94bd ec99 403d
00000270: 8590 36bd 22c3 babb c03f 703d 6cc1 ac3d
00000280: e7e4 c7be fae0 50ba e4c0 6fbe f7ec 0abe
00000290: 00bc 6bbc 6a13 42be a66d 483e 0849 0e3e
000002a0: a856 68bd f5cd 13bd b026 de3d 1c5b b5bd
000002b0: ab53 bcbd cf62 223e d35f 75bd 9963 07be
000002c0: e01a 213d 2039 77bd 3f8b 55be 7532 eebd
000002d0: 57e0 8fbd a508 08bd 1ef0 09bd 5653 963c
000002e0: b620 a4bd 9b19 18be 8dfa bf3c 87dc 56bd
000002f0: ed05 bfbd a056 bcbc 1bd6 95be a0e9 663c
00000300: 4216 f1bc 9a70 b2bd 9572 5f3d abad a53b
00000310: 6bcb efbd 89de 9e3d 8dc7 593d f0b5 503b
00000320: c395 363e 9dd8 343c 58f3 6c3c 638f 02be
00000330: 8456 9cbd 22e4 0bbe c59c 29bd de5f 4f3c
00000340: e830 0c3c d371 94be 8982 063c 7692 3dbc
00000350: 8efe 683d 2cb8 aa3c b03d a03d 86fd c53d
00000360: 945b d3bd 2c40 0dbe d872 fabb 7e38 13be
00000370: 9903 abbe 338a 2ebe 3dde 163d 0e22 61be
00000380: 9423 65bc 87b0 2b3d 3777 763d 45ea f2bc
00000390: fb28 4a3c f922 6b3d c033 9cbd 8c98 64bc
000003a0: 6e9a 5abe 916a a13c ea7d f43c 189d a03d
000003b0: e0a8 17bd 5d4c b73c 6ded 653c 6521 04be
000003c0: 057a 28bd 87bd 723c 38a0 f2bd f4ea 9e3d
000003d0: 75f8 b83c 468f be3b a42b ab3d 44e7 91bd
000003e0: 9918 05be e87d 3e3a 390b edbd 4ac0 03be
000003f0: d1f3 16bd bed1 5f3d 1fc5 1c3d 3049 1f3c
0.13928762 -0.0051562972 0.17032081 0.024584183 -0.01873525 -0.14181755 -0.19234334 -0.10571004
0.029472483 -0.09531621 -0.09304773 0.069159776 -0.07710505 -0.058994003 -0.04989427 0.04403377
-0.10802331 -0.101084545 0.046612732 0.21705021 0.23700969 -0.041428033 0.17050427 0.035857454
0.032847274 -0.043868676 -0.05182353 0.08050085 0.13862917 -0.07514405 0.106571674 -0.07803191
0.034233924 -0.008786024 -0.05048533 0.0017492755 0.019643364 -0.09824136 -0.06952916 0.012321016
-0.061041392 -0.09594168 -0.10295187 -0.0041292813 0.051152356 0.015380741 0.015606442 0.011903383
-0.056739368 0.091691874 -0.05311596 0.05917545 -0.21326724 -0.052598197 0.05562375 -0.061728656
-0.101339996 0.04047277 -0.2016188 0.07469424 0.01602498 -0.08406449 -0.037746973 0.032783974
0.055030245 -0.019917116 -0.10325111 -0.06909511 0.13481854 -0.071206406 0.07288926 0.01040937
0.10289023 0.008798904 0.051881596 0.07861461 -0.120385796 -0.15813655 0.05530192 -0.022199778
-0.11015608 0.13792308 0.08222551 -0.04899741 -0.10906869 0.25844094 -0.027885048 0.08980934
-0.01306865 -0.091584034 0.033951942 0.09448014 0.06205206 0.0070465007 -0.047742616 -0.1348947
-0.07716679 0.0068701906 -0.17109178 -0.018711425 0.062055126 -0.084980845 0.032809727 0.033865437
-0.10191865 -0.036642954 0.030742314 -0.029778771 0.0045515657 0.03201104 -0.06105137 0.14054301
0.21247669 0.092936896 -0.05624092 -0.098682895 -0.053682618 0.16932766 -0.12953544 -0.048299197
0.034649465 0.036640108 -0.14006123 0.014748614 0.036525227 0.041758295 -0.119323485 -0.06595381
-0.15321378 -0.15176742 0.12495259 0.19626373 -0.0467415 0.1000384 -0.07026918 0.042227525
-0.023157516 0.02687712 -0.031816456 0.017558772 -0.14904852 -0.029860478 -0.035307672 -0.12894778
-0.0036787668 0.07083407 -0.112291016 0.14840744 0.19255625 -0.048648763 -0.10154558 -0.0032013091
-0.054994147 -0.020325214 -0.0726709 0.04702179 -0.04457142 -0.005699531 0.058654547 0.0843533
-0.39041826 -0.00079680944 -0.23413426 -0.13566957 -0.014388084 -0.18952718 0.19573078 0.13895047
-0.056723267 -0.036085088 0.10847223 -0.08855268 -0.09195646 0.15858005 -0.05990584 -0.13221587
0.03933227 -0.060357213 -0.208539 -0.11630718 -0.07025211 -0.03321137 -0.03367626 0.018350285
-0.080140516 -0.14853518 0.023434902 -0.052456405 -0.09327302 -0.022990525 -0.29264912 0.0140937865
-0.029429559 -0.08712883 0.054552633 0.005056103 -0.11708721 0.07757289 0.053168822 0.0031846724
0.17830567 0.011037973 0.014462315 -0.1275001 -0.07633689 -0.13661245 -0.041409273 0.012657134
0.008556582 -0.2899309 0.008209833 -0.011570564 0.056883387 0.020839773 0.07824266 0.096674964
-0.103202015 -0.13794011 -0.007643085 -0.14377019 -0.33401182 -0.17044906 0.036833037 -0.21985647
-0.013985533 0.041916396 0.060172286 -0.029652724 0.012338872 0.0574064 -0.07627058 -0.013952386
-0.21347973 0.019704135 0.029845197 0.07842463 -0.037026286 0.02237528 0.0140336575 -0.12903364
-0.041131992 0.014815695 -0.118469656 0.077596575 0.022579411 0.0058154194 0.08357933 -0.071241885
-0.12997665 0.00072666863 -0.11574406 -0.12866321 -0.036853615 0.054643385 0.038273927 0.009722039

conv2.bias f4 [64]
00000000: feed a0bc 2040 91bd 0e54 88bd 43e6 ac3a
00000010: 3885 8db9 c770 8fbd c946 08bd 2e9f 0fbd
00000020: f391 cfbd b010 a7bd 2deb adbc 3b61 adbc
00000030: 6bbd 49bd 38ec 253c a059 b3bd f969 e1bd
00000040: 598d a9bc 8b93 cfbd 0fca 4ebd 1c53 553c
00000050: 9b46 0bbd 07dd 3abd ac99 80bd 3d1a f6bc
00000060: 0fe5 6b3d bda7 ffbd 3d5d 8fbd a194 a6bd
00000070: d162 3cbc d236 f7bc 57bc b43c 0289 babc
00000080: d6c9 4a3d 9a8f 11bd b1d3 82bd 78d6 e1bd
00000090: 49bb 713c c9d7 c4bb a4ef 983b 2bd5 86bd
000000a0: efd5 08bd 7319 99bd 4d81 e73b 2e12 163d
000000b0: eef7 19bd 754f 61bd 4f6c 37bc 09ae dcbd
000000c0: 3a2d 0abd 16f4 3abd fca2 6ebc d1df 013c
000000d0: e336 13be 425a 053b a006 82bc 3604 013d
000000e0: 2f75 3b3d 1949 c0bc 8794 6fbd b20d 22bd
000000f0: 8b08 72bd 90c3 c7bc 96e5 79bc 0209 a9bc
-0.019644734 -0.07092309 -0.06656657 0.0013191182 -0.0002699287 -0.070039324 -0.03327063 -0.035063915
-0.101352595 -0.0815748 -0.021230305 -0.021164527 -0.04925291 0.01012712 -0.08757329 -0.11006541
-0.020697283 -0.101355635 -0.050485667 0.013020303 -0.03400288 -0.045620944 -0.062793106 -0.030041808
0.057591494 -0.124831654 -0.07000206 -0.081338175 -0.011498169 -0.030177508 0.022062464 -0.022770409
0.049508892 -0.03553734 -0.06388033 -0.11027235 0.014754125 -0.006007169 0.0046672393 -0.06583627
-0.033407148 -0.07475557 0.0070649744 0.03663843 -0.03758996 -0.055007417 -0.011195256 -0.10775382
-0.033734538 -0.045642935 -0.014565226 0.007926897 -0.14376406 0.0020347987 -0.0158723 0.031498156
0.04576605 -0.023472356 -0.058491256 -0.039563842 -0.05909018 -0.024385244 -0.015252491 -0.020634178

fc1.weight f4 [256, 576]
00000000: 3929 90bd 55d7 22bd d1ea 05be ebfe bd3c
00000010: 60c5 59bd af3a 183d a86c 623d b272 43bc
00000020: be83 2e3d dba0 2dbc 6aa2 9b3c ff00 42be
00000030: e90f 9ab9 98c0 c73c 904d 76be 326e 0d3d
00000040: c9e2 923d 19cf b0bc d127 a93c db0b 75bc
00000050: dac8 173e 226e 88bd 09d5 94bd 766e b73d
00000060: f182 01bc ca70 3bbe 3024 afbc 4182 2fbe
00000070: 95fb abbd 6ac8 a1bd 105b 4fbe 64fe f93d
00000080: e3ee 1d3e 387e 003e b194 003e 3a4b ab3d
00000090: 7ec1 5f3d 302f bbbc 7ec6 87be e451 e2bd
000000a0: c15d 853c 1733 613d ea26 2c3e 70fc d93d
000000b0: f182 bfbd 0957 223c 207d 083d 5c1e 3abd
000000c0: b062 4dbc fab6 dc3c d03c 00be e8ad b6bb
000000d0: 1c0f a33b be6b 23be d6d1 80bd 3423 7a3d
000000e0: cc54 533d 58d0 fabb 7f9c d23b 4aa8 343e
000000f0: f8c7 e23d 3a00 a0bd 67c3 4d3e d7b1 5abd
00000100: 25d3 353d 4347 b9bd 4a54 97bd 75d7 153c
00000110: d679 10be cba8 88bc ee30 8b3c ce60 7cbd
00000120: d987 293d 3c28 21be e761 a83d 0e26 01be
00000130: 1b3f b4bd b34a 5abd 2195 013d bfb1 e8bd
00000140: 556c 673d 7f6b 61bb 4595 203d 2bea a93d
00000150: 6aae e2bd 5f3b e73c 731b babd 1f31 ff3d
00000160: f2e1 ed3d 3eb9 183d 6905 ae3c cfeb a5bc
00000170: 9cfa 1d3d 2302 a6bd 70d5 90bd 8a6e f83d
00000180: 3a8c 5dbd c2c1 8f3c 9714 873d a65f e53d
00000190: 28b2 55bd 8481 ca3a 4834 253e c0d9 b93d
000001a0: 102f 73bb 6450 9bbd 04b5 d2bc bf70 093e
000001b0: 7f6e 20be 896d 59be cb00 18be 8f9f c7bd
000001c0: 4066 c4ba 36e0 07be 7c15 4e3d 67c5 513e
000001d0: bf53 973d 9005 923c 6535 e93d e618 16bd
000001e0: a41f ee3d 6c10 1cbe a778 c3bd 9ffb 2dbd
000001f0: cfff cbbd 2059 873d c37b 3cbe 7074 0c3d
00000200: 3140 c7bb 8919 1bbd bb03 8e3d 278d e5bd
00000210: ad8e b8bd 2164 1c3d 7372 a0bd eb5f af3c
00000220: 8609 a5bd c677 aabd 2291 ad3c 007f 8e3d
00000230: c413 9abd fd32 ad3c 31cd 423c 5c15 d7bd
00000240: b285 babc 0d14 fdbb f21f a8bd 99fb 92bd
00000250: 882b 813d 3251 b6bb 4af1 b73c 4e59 50bd
00000260: 5cf1 06be fdaa ee3c 8c2b 06bd 45e6 143e
00000270: 8b75 acbc 36b4 a2bd 7079 73be ee1d bcbd
00000280: 2c23 103e 40f2 d1bd 3544 fdbc 693d 7b3d
00000290: 4ea0 f2bc 2a13 c8bd 669a 4a3d 0cc3 cc3c
000002a0: ca86 e5bb e34c b1bc 8bf0 69bd 861b d33d
000002b0: 1830 36bd 2870 ba3c 081e 1ebe d027 adbd
000002c0: 3c2b 90bd 261d 1abe 19b0 ee3d 5ca7 0bbd
000002d0: 33f7 ca3d 8c46 3bbd 800a 46bd c1bd 5d3e
000002e0: 1123 6f3c 841f bb3d 93ee 233b 1def b3bc
000002f0: ab97 0abd ade9 d7bd 0263 6bbd 20fb db3d
00000300: 1c1b 87bd 6c2b 0eba a15e 423e 0f06 b93d
00000310: 5c4e 4b3d 2455 993e c0e7 85bd 47e2 453e
00000320: cb66 ee3d 07c4 30bc c8ab 423e abb0 b7bc
00000330: a511 e23d 9960 54bd 16cb 88bd e769 653d
00000340: 896e eabd 85a3 5cbd 8231 b33c 4112 31be
00000350: ee05 023e 8032 123e 2314 14bc 6591 b83d
00000360: c54d 743d be1b 16be e348 05be 4159 cb3d
00000370: f91c d93b 5e70 a83d d5e8 78bd a0d1 37bd
00000380: 50c4 0d3e 3409 ef3c 9891 e9bb 1b9d 0f3d
00000390: 8c02 83bd 2050 b4bd 1fce 013e 359b 1bbd
000003a0: aa4a c1bd 63ac d63b d41e 57bd 4444 31be
000003b0: d950 2dbd 0360 8f3e fa13 3cbe c0bc 30bd
000003c0: 66b4 133e 7c7d adbd 3d7c 10bd dede 5cbd
000003d0: 3996 3dbc c032 0b3d 940a d5bd da81 72be
000003e0: 150f 63bc 44a3 58bd 461e 973c 25c8 dcbc
000003f0: b518 bf3d 0481 383d 6a46 edbc 48fb 91bd
-0.070391126 -0.039756138 -0.13077857 0.023192843 -0.053166747 0.03716534 0.055279404 -0.011929201
0.042606108 -0.010597433 0.018998343 -0.18945692 -0.00029385023 0.024383828 -0.24053025 0.03452892
0.07172162 -0.021583127 0.020648869 -0.01495644 0.14822713 -0.06661631 -0.07267196 0.089566156
-0.007904754 -0.18304744 -0.02137956 -0.17139532 -0.08397595 -0.07899554 -0.20249581 0.12206724
0.1542316 0.12548149 0.12556721 0.08363958 0.054627888 -0.02284965 -0.26518625 -0.11050776
0.016280057 0.054980364 0.1681172 0.10643852 -0.09351147 0.009908446 0.033322453 -0.04543911
-0.012535736 0.026942719 -0.12523198 -0.0055749305 0.0049761664 -0.15959069 -0.06290023 0.06106873
0.05159454 -0.007654231 0.006427347 0.17642322 0.11073297 -0.07812543 0.20094071 -0.053392258
0.044390816 -0.09046795 -0.07389124 0.009145607 -0.14108977 -0.01668205 0.016991105 -0.061615758
0.04138932 -0.15738004 0.082217984 -0.12612173 -0.08801099 -0.053293895 0.03163636 -0.113620274
0.056499798 -0.0034396348 0.039204855 0.08296617 -0.11068423 0.028226553 -0.09087267 0.12460541
0.11615361 0.037286036 0.021242814 -0.020254044 0.038569078 -0.08105876 -0.0707196 0.12130459
-0.05408881 0.017548446 0.06595724 0.11199884 -0.052171856 0.0015449976 0.16133225 0.09074736
-0.003710691 -0.07583693 -0.02572108 0.13421915 -0.15667151 -0.2123319 -0.14844052 -0.0974723
-0.0014984086 -0.13269123 0.050313458 0.2048546 0.0738902 0.017824918 0.11387137 -0.03664484
0.11627129 -0.1524064 -0.09544497 -0.042476293 -0.09960901 0.06608796 -0.18406586 0.03429073
-0.0060806503 -0.03786615 0.06934305 -0.11208563 -0.09011588 0.038181428 -0.078343295 0.021408042
-0.08058457 -0.08323626 0.021187369 0.06957817 -0.07523301 0.021142477 0.011889742 -0.10502121
-0.022768829 -0.0077233375 -0.08209218 -0.07176895 0.06307131 -0.0055638785 0.022453923 -0.050866418
-0.13178009 0.029134268 -0.032756373 0.14540966 -0.021052143 -0.07944529 -0.23776793 -0.09185396
0.14075917 -0.10251284 -0.030916313 0.061337862 -0.029617455 -0.0976928 0.049463652 0.02499535
-0.0070045935 -0.021643108 -0.057114165 0.10307984 -0.04447946 0.022758558 -0.15441144 -0.08454859
-0.07039496 -0.15050182 0.11654682 -0.034095153 0.09910431 -0.045721576 -0.048349857 0.21654417
0.014595763 0.091368705 0.0025014027 -0.021964604 -0.033836048 -0.10542617 -0.057467468 0.10741258
-0.065969676 -0.00054233405 0.1898141 0.09034359 0.049635276 0.2994777 -0.065383434 0.19324599
0.116407 -0.010788924 0.19010842 -0.022423109 0.11038522 -0.051849935 -0.066793606 0.0560092
-0.11446864 -0.053866882 0.021874193 -0.1729212 0.12697574 0.14277077 -0.009038004 0.09012107
0.05964448 -0.1465902 -0.13016085 0.09929133 0.0066257683 0.08224557 -0.06076892 -0.04487765
0.13844419 0.029179193 -0.007127952 0.035061937 -0.0639697 -0.08804345 0.12676285 -0.037989814
-0.09438069 0.006551312 -0.052519634 -0.17311198 -0.04231343 0.2800294 -0.18366995 -0.043148756
0.14424285 -0.084712 -0.035274733 -0.05392348 -0.01157146 0.033983946 -0.10402408 -0.23682347
-0.013858576 -0.052890077 0.018447053 -0.026950905 0.09330884 0.045044914 -0.02896424 -0.07128006

fc1.bias f4 [256]
00000000: e28b 923c 69d0 3cbd 8b01 f0bc cb9a d03c
00000010: bbc5 a13c 2110 55bd fa9e 35bd 7ae7 acbc
00000020: 6e79 0dbd bd3d 6b3b cbc6 7fbd 3f06 9cbb
00000030: 479e ec3b a046 19bd 9648 b63b 9550 bbbc
00000040: 8d3a 1b3d 2292 333d eae2 c1bc 49be b4bd
00000050: 8400 97bc f60d a9bd b275 5d3d 1326 19bd
00000060: 979a 763c 5337 b8bb 492e b1bc 147c 1fbd
00000070: e02d 4dbd fbc4 24bc f567 6eba eb2e 373c
00000080: 772e 81bc 4883 f7bc ba71 d5bb 1aba 63bd
00000090: 7259 05bd bd99 82bd b0d8 49bd 8572 7f3c
000000a0: c052 17bd 6eac 3fbd d9b9 6bbc ecf7 6fbd
000000b0: 92a1 bd3c 7509 0fbc 1e50 c43c e37b 86bc
000000c0: 2828 1abd 38b2 95bd 67e4 043d c97d 253d
000000d0: 6f16 1abd dfef 87bc 33e4 a3bd 7517 47bd
000000e0: bad4 babb e108 c63c d81d 183d fe4f 4fbc
000000f0: a3ea 95bd e916 1bba 2840 b0bd a56b b0bc
00000100: ee45 00bd b2bf cbbb a656 09bb 5c8d 7abd
00000110: 5f81 26bd f0be 0b3c c4e8 ac3c 16df 7cbd
00000120: f1e2 8dbd a525 013d 3d4d 1ebd 3567 353c
00000130: 2570 eb39 3b50 69bc f7cc 973a c3a3 93bd
00000140: 2f2e d6bd d40f af3c bbac ee3c 2552 a03c
00000150: b616 963d 08f3 3b3d 10fe b83c 4d87 523d
00000160: 9585 0ebd c266 d23c e5ad 9abd d290 873d
00000170: 3d65 fd3c 9546 a63c 5321 6ebd ec71 3b3d
00000180: 59e9 b43c ce27 383c a568 263c c230 16bd
00000190: 0825 ca3c 9261 4dbc 9214 4d3d 3765 5a3d
000001a0: 8fc7 513c fb5f 39bd 9ab2 8d3d 28e7 4d3d
000001b0: 620d ac3c ad03 d2ba 2c75 19bc 71fb 50bb
000001c0: d236 d63b 41d2 8dbd 3535 9c3c d3c3 9dbd
000001d0: 1cbe 19bd 5aec 26bd 37b2 93bd 3468 e6bc
000001e0: 6a7e b3bd 9eea 6abd 9b64 783c a2af 4dbd
000001f0: 6652 fc3b 63e8 303d 6e92 3e3d 5a39 82bd
00000200: c799 df3b a2f8 2bbb 769e 8bbd f050 6bbd
00000210: cf93 443d 9cb9 0abd 4e96 fa3c 80b4 383c
00000220: e334 cb3c 6b29 df3b 4131 953c 716a 33bc
00000230: e260 a53c 520d 3b3c e84b 84bd b17d efbc
00000240: fab6 dfbc aa9b 663d 7f61 10bd 53d3 34bc
00000250: d519 14bd dc9a d6bc 7cb1 47bd 6eb5 7e3c
00000260: 64b3 34bc 64db 94bc 897d 8bbb 8d55 963c
00000270: 0a60 3cbd 7eca af3d 6054 16bd 08f2 f8bb
00000280: c3ca 87bb 84d1 26bd a438 093c fa03 37bd
00000290: 4717 c7bc dc12 e83b d107 7dbd fa8c 533d
000002a0: 01c5 63bc e12e 9bbb 0e0b 833c f5af 013d
000002b0: 827c 03bd 6ada 99bd 58df 0f3b 11f1 013d
000002c0: 9a8c 1bbc 153b 263d e5af 8d3b 4b2b c5bd
000002d0: f477 863c 17e8 d8bc bbe8 4c3c 6b65 8ebd
000002e0: af58 813d f745 a6bc a4af 14bb bd25 86bd
000002f0: 8eb5 4c3c f276 a3bd 2f57 7abc e03d 9cbd
00000300: 65df c03c 3ea5 5cbc 7ed9 f93c 8b3f 10bd
00000310: 5637 8ebc 5c66 593d 9321 06bd 5e16 4cbd
00000320: 49b7 42bd 815a 7ebc a342 d3ba d768 b73c
00000330: 8bf4 69bb 9a49 b03c 07f8 f0bc bcbf 1c3d
00000340: 6384 8abd 2348 e13c 6adc b13d 938b 9ebd
00000350: e2d6 25bd 553b 1b3c b677 1dbd e12e 243d
00000360: 6f6f f6bc 6561 7d3b 0822 b2bc a740 d33c
00000370: aef3 9cbb 032f 37bc f2c0 82bd 7315 86bd
00000380: 3e06 82bd b063 793d 9edc 69bb 6ea9 ab3c
00000390: 17f0 dd3b 1fee 81bd 9a88 1cbd 292c d8bd
000003a0: 80c7 5abd 9f1f e8bc cd53 813c 04ab 8dbc
000003b0: 38fe 42bd 838d c43c 8a78 8cbd fa6f d6bb
000003c0: 7c62 1ebb a59a 5abd 4e0f 8dbd 14be b13c
000003d0: a4c7 7d3c 4c4d 9b3c d19d 8cbc 6428 bdbc
000003e0: 1e44 e3bc c793 453d e002 2cbd 96e0 a2ba
000003f0: abce 053c c854 c739 defc 2dbc d445 4abc
0.017888967 -0.046097193 -0.02929761 0.025464436 0.019747606 -0.052017335 -0.044341065 -0.02110647
-0.034539632 0.0035894953 -0.062445443 -0.004761487 0.0072210166 -0.03742087 0.005562852 -0.022865573
0.037897635 0.043840535 -0.023667771 -0.088253565 -0.018432863 -0.08254616 0.05406732 -0.037389826
0.0150515055 -0.0056218295 -0.021628516 -0.03893669 -0.050092578 -0.010056729 -0.00090944703 0.01118062
-0.015769226 -0.030213967 -0.0065138014 -0.055597402 -0.032556005 -0.063769795 -0.049278915 0.015591268
-0.03694415 -0.0467953 -0.014387571 -0.058586046 0.023148332 -0.008730282 0.023963984 -0.016416496
-0.037635952 -0.07309383 0.032444384 0.04040316 -0.03761905 -0.016593872 -0.0800251 -0.048606355
-0.0057016285 0.024174156 0.037137836 -0.012653349 -0.07320144 -0.00059161946 -0.08605987 -0.021535704
-0.03131669 -0.00621792 -0.0020956188 -0.061169967 -0.04065072 0.00852941 0.021107085 -0.06173619
-0.06928051 0.03153004 -0.03864788 0.01107197 0.00044906247 -0.01424032 0.001158147 -0.072089694
-0.104580276 0.021369852 0.029135099 0.01957042 0.073285505 0.04588607 0.022582084 0.051398564
-0.034795363 0.025683764 -0.07552699 0.06619419 0.030932063 0.020297328 -0.05813725 0.04576294
0.022083925 0.011239959 0.010156785 -0.036667593 0.024675861 -0.01253547 0.050068446 0.053319182
0.012803926 -0.04525755 0.06918831 0.050269276 0.021002475 -0.0016022824 -0.009366315 -0.0031888152
0.006537297 -0.069248684 0.01906834 -0.07703366 -0.037534818 -0.040752746 -0.07211726 -0.02812586
-0.08764346 -0.057352655 0.015160705 -0.050216325 0.0077002523 0.04319037 0.046526365 -0.06358595
0.0068237516 -0.0026240726 -0.068173334 -0.057450235 0.047992524 -0.033868417 0.030589249 0.011273503
0.024805492 0.0068103573 0.018211963 -0.010950671 0.020187799 0.01141675 -0.064597905 -0.029234739
-0.02730893 0.056300797 -0.03524923 -0.011036712 -0.036157448 -0.02619689 -0.048753247 0.015546186
-0.011029098 -0.01817102 -0.0042569083 0.01835134 -0.045990027 0.08583544 -0.03670156 -0.0075972117
-0.004144044 -0.040727153 0.008375321 -0.044681527 -0.024303092 0.0070823263 -0.061775032 0.051648118
-0.01390195 -0.004735813 0.015996482 0.031661946 -0.03210116 -0.07512362 0.0021953192 0.03172404
-0.009493971 0.04058369 0.004323947 -0.09627398 0.01641462 -0.026477857 0.012506659 -0.06952938
0.06315743 -0.020297034 -0.0022687698 -0.06550167 0.012494458 -0.079816714 -0.015279575 -0.07628989
0.023544023 -0.013467131 0.030499216 -0.03521685 -0.01736037 0.053076133 -0.032746863 -0.04982602
-0.047538076 -0.0155245075 -0.0016117882 0.022388859 -0.0035698737 0.021519471 -0.029415144 0.03826879
-0.06763532 0.027500218 0.08684619 -0.077414654 -0.04048813 0.009474595 -0.038444243 0.04008377
-0.030082433 0.0038662788 -0.021744743 0.025787665 -0.004789791 -0.011180642 -0.06384458 -0.0654706
-0.06348847 0.060886085 -0.0035684477 0.020954814 0.0067730057 -0.06344246 -0.03821621 -0.10555298
-0.053412914 -0.02833539 0.01578703 -0.01729346 -0.047605723 0.02399326 -0.068589285 -0.0065441104
-0.0024167588 -0.053370137 -0.06887685 0.021697082 0.015489493 0.018957756 -0.017165096 -0.023090549
-0.027742442 0.048236635 -0.04199493 -0.0012426551 0.008166949 0.00038019405 -0.01061937 -0.01234575

fc2.weight f4 [10, 256]
00000000: c84b 0c3e 7228 0e3e 51ba f33c e584 f7bd
00000010: 84c9 1cbe 0b6b 71bc 6b39 093e 30f9 8bbc
00000020: 3af5 d8bd e578 983d fd58 4cbe 612b 99ba
00000030: dd30 24be 3c68 68be daa9 48b9 3113 283c
00000040: 7ddb dfbd e9a9 ab3d e15a 0cbd 59ad 88bd
00000050: 30be 34be 89db aabc fa83 c93d cc0f f3bd
00000060: 5066 ec3d 2ae6 b5bc 7839 9e3d d6f3 03bd
00000070: ab0a 813c 68b1 0abd e1ce 8f3d 8e32 21bd
00000080: bf4a ecbd fe29 e8bd 32fe c43d 99f9 09be
00000090: 789a ed3d 20fa 76ba 56b4 823d 4794 723d
000000a0: 9b59 7a3b 4363 c23d 5b98 8d3d e01a d7bd
000000b0: e71e 2bbe a412 d03b f555 543b 2bf1 d1bc
000000c0: 3303 d03d 4c6c de3d dbce 603d 1b63 d1bd
000000d0: dde9 5cbd fde5 f23d 07f9 f53d 21c4 e7bc
000000e0: a960 813c cc52 a83c 860d 43bd 15f2 39bd
000000f0: ed26 82be d8ab b83d 41ce a23d 88df 5d3d
00000100: 6c49 d73d 4494 53be 9e72 ea3d 90de 80be
00000110: c1ec 28be 15b5 ccbd d33a 313e e7ee 293d
00000120: 140c 26bc 032d 42be e9d6 97bd a4e8 edbb
00000130: f88d 01bd 3ce4 283d f492 283d 38bf fa3d
00000140: fbc1 04be 4045 f73c 9751 24be 0ddd 053e
00000150: 4af8 0e3e 891c dd3d 43e5 02be 7d6f 79bd
00000160: 9600 09bd 3dd5 0a3e 7ef2 273a 01b3 e43c
00000170: 83a0 44be ffe9 c8bc 4212 5abe 2fb9 2e3e
00000180: d047 60be b7ab d0bb 3620 24be 479f e63c
00000190: 8ee0 2dbd a201 5d3d 5b33 cc3d 3a51 19be
000001a0: 87f9 75be e8ec 1fbe 7c30 39be 56d9 28be
000001b0: 0a95 94be 8ce0 8a3d b367 0ebe 9e2d 59bc
000001c0: e65b 72be 4df1 03bd 6593 23bd 691b f6bd
000001d0: 9dbe 92be f999 52bd 1fd7 b1bb fc53 ab3d
000001e0: d18b 3cbe 32e6 6dbd 4d65 cdbe 8c13 e93d
000001f0: 5a2d 0b3c 4442 64be 430d 67be 192d b0bd
00000200: 9b65 14bd b2d2 8fbd ed00 72bd 9aaa fd3c
00000210: f196 003e cba7 193e 8581 dabd 5c79 d4bd
00000220: 7200 8dbb 623a 64be 0a89 6cbd 8c34 3bbd
00000230: 3e4a 9fbd ae48 2fbd b9a5 fdbd 7914 36bc
00000240: 8f80 57be ad92 29bd bcec a13d 1b07 3abe
00000250: baba ad3c 0543 ee3d 335b b83d 4aa2 103e
00000260: 029b 243e ab78 45be 97fb 77be d63b e73d
00000270: df42 503d af26 bf3d b5bd 13be eb3c 973d
00000280: 2fc9 293d 045e d33d 24ee a73a f781 9d3d
00000290: 28ba 15bd 3678 e0bd 51de 523d fddd 26be
000002a0: cb83 0ebe 33c6 90be e086 b4bd 05a7 25be
000002b0: 8ea7 923d 50bb ed3d a83e 07bd 7af4 03bc
000002c0: 6082 21bd 58af 433d ee18 b0bc 2975 b4bd
000002d0: e936 42be 9e14 2f3e 5ebe 89bd 9d01 33bd
000002e0: ad34 92be 8f4c 263d 61b0 28be 28a2 3d3c
000002f0: dc09 41be e37c 8b3d 4473 753c 8f2f 0c3e
00000300: ada7 1b3c 9afb 783d 1016 ea3d 6f09 8dbe
00000310: 358f 143d cf6e 1cbe 0ff5 f3bc 269f 34be
00000320: 02ba c43d d7b3 12be 4f57 60be c86c d73c
00000330: edea 82bd cc21 a2bc d543 a3bc 19bd 7dbe
00000340: e1da 4f3a 4245 64bd 8ae9 4abe 08c3 0f3d
00000350: e1af 91bd 797d 7ebe ec35 a9bc 9d7e 123e
00000360: 5aad 073e 845c 7c3c c866 083d 279a 73be
00000370: d43f 08be 13ce 69be 4d57 293c 2df8 093e
00000380: b350 1bbe f60d b1bd aed3 f23d 5da4 1f3d
00000390: d65e 49bd 2e2d 1cbd 4aed 08be e2ee 00be
000003a0: 187f b6be 0294 4fbe b061 2bbe 1293 b1bd
000003b0: 5373 ed3b 10c0 493d 17e3 123d 3da8 123b
000003c0: 72d9 4ebd 26e6 7d3d be13 73bd b0bb 8ebe
000003d0: 4e4a b03d 3ed9 80bb c503 8a3b 16ce 75be
000003e0: bb94 10bd edc8 8ebc 96a3 0cbe f41b dc3d
000003f0: 10bc a0bc ee1d 80be 7c7d 493d 67fc 253e
0.13700783 0.13882616 0.029751929 -0.120858945 -0.15311247 -0.014734994 0.1340081 -0.017086595
-0.10593648 0.07444934 -0.19955821 -0.0011685902 -0.16034265 -0.22696012 -0.00019136761 0.010258482
-0.10930536 0.08382017 -0.034266356 -0.066736884 -0.17650676 -0.020856636 0.09839626 -0.118682474
0.11542952 -0.022204477 0.07725805 -0.032214962 0.015752157 -0.033860594 0.07021881 -0.039354853
-0.11537694 -0.113361344 0.096187964 -0.1347412 0.11601728 -0.0009421427 0.063820526 0.05922344
0.0038200382 0.09491589 0.06913825 -0.10503173 -0.16711007 0.0063498784 0.0032399867 -0.025627693
0.1015686 0.108605 0.054884773 -0.10223981 -0.053933967 0.11860273 0.12010389 -0.028291764
0.015793161 0.020547293 -0.04762032 -0.045396883 -0.25420323 0.090171516 0.07949496 0.054168254
0.10512051 -0.20662028 0.11447643 -0.25169802 -0.16496564 -0.09995476 0.17307596 0.0414876
-0.010134716 -0.18962483 -0.07414038 -0.007260399 -0.031629533 0.041233286 0.04115577 0.12243503
-0.12964623 0.030184388 -0.16046749 0.13072605 0.13961902 0.10796458 -0.12782769 -0.06089734
-0.033447824 0.13557906 0.00064066786 0.027917387 -0.19201855 -0.02452564 -0.21296027 0.1706283
-0.21902394 -0.0063681263 -0.16027912 0.028152121 -0.04245048 0.053956635 0.09970733 -0.14972392
-0.24020968 -0.15617716 -0.18084902 -0.16489157 -0.29019958 0.0678111 -0.13906746 -0.013255505
-0.23667869 -0.032212544 -0.03993549 -0.12016947 -0.2866105 -0.05141637 -0.0054272558 0.08365628
-0.1841271 -0.05808086 -0.4011635 0.113806814 0.008494699 -0.22290903 -0.22563653 -0.08602352
-0.03622971 -0.07022609 -0.059082914 0.030965138 0.1255758 0.15005414 -0.10669235 -0.1037471
-0.0043030316 -0.22287896 -0.057747878 -0.04570441 -0.077778324 -0.042793922 -0.12385125 -0.0111132795
-0.21045135 -0.041399647 0.079064816 -0.18166773 0.021207202 0.11633877 0.0900177 0.14124408
0.16074756 -0.19284312 -0.24217068 0.1129071 0.050845023 0.0933355 -0.14427836 0.07384666
0.04145163 0.103206664 0.001281206 0.076908045 -0.036554486 -0.109604284 0.05148155 -0.1629562
-0.13917463 -0.28276214 -0.08814788 -0.16176994 0.07160865 0.11607993 -0.033018738 -0.008053893
-0.039430976 0.047774643 -0.021496262 -0.08811409 -0.18966259 0.17097709 -0.06725763 -0.04370271
-0.28555813 0.040600356 -0.16473533 0.011574306 -0.18851417 0.068109296 0.014981095 0.13690017
0.009500426 0.06078682 0.11429989 -0.2754626 0.036269385 -0.15276645 -0.029779939 -0.17638835
0.09605791 -0.14326416 -0.21908306 0.026296988 -0.06392465 -0.019791506 -0.019929806 -0.24779166
0.0007929039 -0.055730112 -0.1981565 0.035098106 -0.07113624 -0.24852552 -0.020655595 0.14306112
0.13249722 0.015402917 0.033301145 -0.23789273 -0.13305598 -0.22832517 0.010335756 0.13473578
-0.15167503 -0.08645241 0.11856781 0.03897511 -0.04916271 -0.038129024 -0.13371769 -0.12591127
-0.3564384 -0.20271304 -0.16736484 -0.086706296 0.0072464137 0.04925543 0.0358611 0.002237811
-0.05050034 0.061987065 -0.059345 -0.2787757 0.086079225 -0.0039321473 0.004211875 -0.24004397
-0.03529809 -0.017429793 -0.13734278 0.10747519 -0.019620925 -0.25022835 0.049191937 0.16209565

fc2.bias f4 [10]
00000000: d454 d73d b83f b83c 70ce 703d 9df6 423d
00000010: 7524 8a3c d9e9 cfbc e985 033e e8f9 16bd
00000020: d85f 43bd e92f e2bc
0.105142266 0.022491321 0.058790624 0.04759847 0.016863087 -0.025380062 0.12844051 -0.036859423
-0.047698826 -0.027610736
