saved_models/kmnist_cnn.pt (torch, 684213 bytes, 10 tensors)

feature_extractor.weight f4 [4, 1, 2, 2]
000000 78 50 81 3e e2 40 21 bf dd 69 3e bf 1e 34 3f bf
       0.25256705 -0.6298963 -0.74380285 -0.746889
000010 64 f6 4a 3f 87 28 a0 3f 9b e0 0a 3f 29 46 64 3c
       0.7928221 1.2512368 0.5424897 0.013932743
000020 61 2e 3c bf fc 04 2f bf 72 3d b7 bd bf de 6c bf
       -0.7350827 -0.6836698 -0.08947267 -0.92527384
000030 0c 95 6d 3f 43 32 dc 3c 83 a4 99 3f d8 0a 38 be
       0.9280555 0.026879435 1.200333 -0.17972887

feature_extractor.bias f4 [4]
000000 ac 0c ef 3e dc 06 51 3e 60 a4 a5 bb e9 e9 2f bb
       0.46689355 0.20412773 -0.0050549954 -0.0026842302

conv1.weight f4 [32, 4, 3, 3]
000000 62 af 09 be cd d8 15 3d 85 41 76 be 49 1f 7a be
       -0.1344581 0.03658371 -0.24048431 -0.24425997
000010 75 3d 76 bd a7 56 05 be af 6f c3 bd e3 1e 2f be
       -0.060117204 -0.13021336 -0.09542786 -0.17101626
000020 72 9a 6d 3e d1 b2 a9 3d 98 04 5e bd bf 52 d1 3d
       0.23203447 0.0828606 -0.0542036 0.10220861
000030 73 09 2c bd 6c 84 fc 3b a9 57 9a bc ec 2b 9f bd
       -0.0420012 0.0077062156 -0.018840628 -0.07772049
000040 d2 64 b0 3d fe c9 2f be 0b 5c 26 be 7c 8a cf 3d
       0.0861298 -0.17166898 -0.16246049 0.10133836
000050 cd a5 42 bd a3 5f 8c bd 9c 19 48 be b4 6a 55 3d
       -0.0475214 -0.06854179 -0.19541019 0.052103713
000060 c2 65 1d be 3f 52 d1 3d cc b6 9a 3e 91 99 1a be
       -0.15370849 0.10220765 0.30217588 -0.15097643
000070 e3 2e e9 3d 85 fb 41 3c ed 99 2c be 5f e9 1b 3c
       0.11385896 0.011839752 -0.16855593 0.009516089
000080 b4 c1 f4 3d 20 bc 0c 3b 8d a3 c1 bd a1 71 dd 3d
       0.119510084 0.0021474436 -0.09455023 0.108126886
000090 55 95 a3 bd 58 50 57 be ff 6e 00 bd f7 4a 06 bd
       -0.07987467 -0.21026742 -0.031355854 -0.032786336
0000a0 39 ca 9e bd fe 7a 81 3c fd a6 b5 bb e9 88 1d be
       -0.07753415 0.015805718 -0.005543588 -0.15384258
0000b0 23 d6 50 bc 76 92 8b 3c 92 a3 6d be 18 64 ca 3d
       -0.012746367 0.017037611 -0.23206928 0.098823726
0000c0 f5 cd fb 3d ba 11 be bd 80 5c 1c be 45 83 79 3d
       0.122951426 -0.09280725 -0.15269661 0.060916204
0000d0 77 af 58 3b 6e 8b 19 bd 4e 80 64 be 68 ac 89 bc
       0.003306357 -0.037486486 -0.2231457 -0.016805843
0000e0 bc 5d 6b bd f9 1a af bd cf 4a 79 3d 49 49 92 3b
       -0.05746244 -0.085500665 0.06086236 0.0044643027
0000f0 de 55 7b 3d de c3 84 be 0c 19 52 3e 55 74 44 be
       0.061361186 -0.25930685 0.20517367 -0.19185002
000100 42 eb 9d 3d 0f 41 ce bd c6 0c 2f be 82 25 f5 3d
       0.077108875 -0.10071003 -0.17094716 0.11970045
000110 4f 72 62 3e 35 ee a5 3d a8 9e 6b be cb 11 e5 3d
       0.22113918 0.08102075 -0.23009741 0.11185034
000120 0f 88 29 3d ce ac 18 be fa 58 89 3d d7 96 83 be
       0.04138952 -0.1490967 0.06706424 -0.2570102
000130 10 19 8a 3e cd 82 86 3e cb d9 aa 3e 96 c2 f8 bd
       0.26972246 0.26271668 0.33369288 -0.12146489
000140 4b 95 97 3d db bc 87 be b0 26 31 bc b7 9d f6 bc
       0.07401522 -0.26511273 -0.0108124465 -0.030104501
000150 6c 2d 89 3e 46 8e d6 bc 7f f9 3e be 3f b6 85 be
       0.26792467 -0.026190888 -0.18649863 -0.26115605
000160 3f a6 6d bc 25 cf f6 3d ca d9 9b bd b1 51 cb bd
       -0.014504968 0.120512284 -0.07609899 -0.09927691
000170 be 8a 88 bc f5 f7 8c be 2a d0 15 be f0 33 1b 3e
       -0.01666772 -0.27532926 -0.1463019 0.15156531
000180 01 ad f0 3d d1 51 af bd 2b 97 c4 3c ca b7 c6 be
       0.11751748 -0.08560527 0.023997864 -0.38812095
000190 5e 2a 7c 3e 46 32 cc 3d ac 48 af 3e 1f ea 3b be
       0.24625537 0.099705264 0.34235132 -0.18351029
0001a0 3f a5 c9 3d 96 b8 60 be 5e c2 9f be 81 28 b8 3d
       0.09845971 -0.21945414 -0.31202978 0.089921005
0001b0 82 83 37 be bd ae 0b be aa c8 7f bd b3 b2 5f be
       -0.1792126 -0.13640876 -0.062447228 -0.21845512
0001c0 ec 5e 1d bc c3 78 35 bd 0f c9 a2 3e d3 96 57 3e
       -0.009605151 -0.04430462 0.3179402 0.21053629
0001d0 3d 41 9b 3d da 58 45 be e2 db af bc d8 fa 1c 3e
       0.075808026 -0.19272175 -0.021467153 0.15330064
0001e0 08 72 b1 3d 08 ca fc bd d8 bf 44 3e 79 72 8b 3d
       0.08664328 -0.12343222 0.19213808 0.06808943
0001f0 d9 00 a1 bd 42 60 b6 3b 2c 94 8f bd bd 80 27 be
       -0.0786149 0.005565674 -0.070106834 -0.16357704
000200 a7 f7 dc 3c 1a 7c d2 bc 6e 74 1d 3e e9 94 49 be
       0.026973559 -0.025693942 0.15376446 -0.19685711
000210 fb 64 ff bd 0d 5f 1c 3e 07 ea 7d 3d e8 27 8a bd
       -0.12470432 0.15270634 0.061990764 -0.06745893
000220 4f 44 65 be 3a 29 56 3e 35 e9 e8 3d b6 22 7a be
       -0.22389339 0.20914164 0.11372606 -0.24427304
000230 29 74 dd 3d 3d 5a 0b 3e f5 b6 a6 be 86 41 02 bd
       0.108131714 0.13608642 -0.3256146 -0.03180077
000240 74 2b 16 3e 56 c2 50 be 6e 4a 4f bd 76 46 51 be
       0.14665014 -0.20386633 -0.05060809 -0.20437035
000250 f4 f8 12 bb 45 b0 28 bd ff 24 25 3e 6a 1b c3 bd
       -0.002242622 -0.04118373 0.16127394 -0.09526713
000260 1c 54 8b 3d d5 5d 96 be b3 ab 54 3e 52 1f 39 3d
       0.06803152 -0.29368463 0.20768623 0.045195885
000270 cd 57 89 3e d1 a3 e9 bd 6d 5b 34 be 4a 6c 33 bd
       0.268248 -0.114081986 -0.17613001 -0.043804444
000280 6f b4 48 3e fe de c3 bd a5 01 72 3e 1a f6 4b be
       0.1960008 -0.09564017 0.2363344 -0.19918099
000290 f2 1b d7 3d 4b 24 9b be f7 cf 71 be 64 99 22 3e
       0.10503377 -0.30301127 -0.23614489 0.15878826
0002a0 f8 30 59 be 9e 37 6c 3c 22 0b 8f 3e c1 64 f0 be
       -0.21210086 0.014417557 0.2793818 -0.4695187
0002b0 dc 0d 7e 3e 5d 46 ab bc a1 c3 0c bd f8 be 32 bd
       0.24809974 -0.020907575 -0.034366254 -0.043639153
0002c0 21 f1 95 bd c5 3e 45 be 1a ba 8a bd fa 0b 6e be
       -0.07321382 -0.19262226 -0.06773777 -0.23246756
0002d0 64 3f 8b 3e 81 a7 76 3e b4 42 97 3e 48 99 db 3e
       0.271968 0.24087335 0.29543078 0.42890382
0002e0 7a e2 80 3e 66 e3 ba 3e d2 4f b2 3e 95 85 ae 3e
       0.25172788 0.36501616 0.34826523 0.3408629
0002f0 f6 45 82 3e 9e c2 82 3d 3e 40 4b be 09 50 2c bd
       0.25444 0.063847765 -0.19848725 -0.042068515
000300 b4 36 4c bd 2f 3d 19 be 14 0e 09 be 58 e7 34 3d
       -0.049856856 -0.14964746 -0.13384277 0.04416594
000310 5f 94 1d bd 7f 92 78 3d 0e e9 d0 bc eb f9 44 3e
       -0.038471576 0.060686585 -0.025501754 0.19235961
000320 b2 f7 46 3e c1 02 24 3e 33 30 5d 3e 3e 40 15 3e
       0.19430426 0.16016676 0.21600418 0.14575288
000330 52 6d af 3e a6 66 b0 3e f1 1e c4 3d f4 60 0a 3e
       0.34263092 0.34453315 0.09576214 0.13513547
000340 0d 73 14 be 3e 47 ba be bf 25 29 be 27 c7 93 be
       -0.14497013 -0.36382478 -0.16518305 -0.2886288
000350 bc 3e b5 be 6c e7 54 be 4c e4 a0 bd 47 5a 9d 3c
       -0.35399425 -0.20791405 -0.07856044 0.019208087
000360 22 2b 39 be 50 d3 62 3d d3 bb af 3d 50 c7 bd be
       -0.1808286 0.055377305 0.085807465 -0.37066126
000370 2a 9d ff 3d 50 d8 fb bd ee e2 a0 be 37 3c d9 3e
       0.124811485 -0.12297118 -0.31423134 0.42428753
000380 82 ae 45 3d 58 b7 27 3e e5 75 f0 3d a4 b7 67 be
       0.048262127 0.16378534 0.117412366 -0.22628647
000390 52 12 75 3e 74 06 46 bd a9 f6 df be 5c d4 ac 3e
       0.2393277 -0.048345998 -0.43742874 0.33755767
0003a0 c3 8a 75 be d6 e5 42 be 3e 0f f4 bc 96 5c 3b be
       -0.23978715 -0.19032988 -0.029792424 -0.18297037
0003b0 12 02 25 3e 5a 67 4c be c9 72 6c 3e 34 7a d5 3e
       0.16114071 -0.199613 0.23090662 0.41694796
0003c0 10 af cd bd c4 7d d8 3e 94 69 a6 3d d8 9f 03 bd
       -0.10043156 0.42283452 0.08125606 -0.03213486
0003d0 22 3f 9d 3e 4f 21 d2 bd ad 80 fc bc 32 52 9a 3e
       0.3071223 -0.10260259 -0.030823076 0.30140835
0003e0 14 47 a9 be 15 8f 95 3e ac f8 0c 3c d9 36 23 be
       -0.3306204 0.29210725 0.00860421 -0.15938891
0003f0 fb 9c 2d bd 26 b4 5e bd 00 40 0d b8 a4 f7 17 bd
       -0.042386036 -0.05437102 -3.3676624e-05 -0.037101403

conv1.bias f4 [32]
000000 74 f1 3f bd 7e 51 56 be 24 11 0e be 0f cc 82 bd
       -0.046861127 -0.20929524 -0.13873726 -0.06386577
000010 fe 9c 59 3d 8b 97 67 3e 5e 52 08 3e 6d 35 51 3c
       0.053128235 0.22616403 0.1331267 0.012769085
000020 7b 5b 03 3e c2 da f9 bd 7e fd 6e 3e b8 4d 13 3d
       0.12827866 -0.12199928 0.23338887 0.03596279
000030 5d df 4f bd 05 97 33 be e3 bb 0a 3e 61 17 97 3d
       -0.050750125 -0.17538078 0.13548236 0.07377506
000040 d7 80 1f be 96 02 4a bd 16 82 8a be b2 b1 2e 3e
       -0.15576492 -0.049318872 -0.27052373 0.17059973
000050 5d a4 cc bd 96 e2 9b 3b 38 22 56 3d bc 11 70 3d
       -0.09992287 0.0047572358 0.052278727 0.058610663
000060 69 28 6a 3d ea 1d 44 be 3a f4 40 3d bf 91 31 3e
       0.057167444 -0.19152036 0.047107913 0.17340754
000070 da 3a c0 bd f3 c5 05 bd 38 06 e0 3c 13 ce 91 3d
       -0.09386225 -0.032659482 0.027346715 0.07119384

conv2.weight f4 [64, 32, 3, 3]
000000 49 f6 91 3d 19 3c 5d bd b7 bd b9 3d a2 50 42 3c
       0.07127053 -0.05401239 0.09069388 0.011860045
000010 5f 46 2e 3d 34 5f b5 bb b0 fe da bd e7 3e 69 be
       0.04254758 -0.0055350307 -0.10693109 -0.22777902
000020 ae 88 82 be d3 4f 75 bc 88 1c ff 3a 60 d4 17 3d
       -0.25494903 -0.014972645 0.0019463459 0.03706777
000030 8c ee a5 bd 26 76 37 bd 5d 11 b6 bd ff d4 df bd
       -0.0810214 -0.04479041 -0.088900305 -0.10929298
000040 c5 5d 11 be 99 39 74 be 1f 19 a6 3d dc 9b 0f 3e
       -0.14195926 -0.23850097 0.0811026 0.140243
000050 64 90 61 3c a7 48 33 be 23 5b 2c 3b f5 93 0e 3e
       0.013767336 -0.17508183 0.002629944 0.13923629
000060 8b ec 3b be 88 88 f7 bd eb 15 61 be 23 e0 6c bd
       -0.18351953 -0.12086588 -0.21981017 -0.05783094
000070 15 2d 67 3d 05 2d e7 3d 93 a5 98 3d a5 c4 96 3c
       0.056439478 0.11287884 0.07453456 0.018404314
000080 77 cf a9 3c 0b 9c 45 bd 2d 1b 08 be 06 45 05 be
       0.02072881 -0.048244517 -0.13291617 -0.13014612
000090 09 ed 58 3b de c4 f7 3d 48 dc 58 3d 97 3c c5 bd
       0.0033100268 0.12098096 0.05294445 -0.09630697
0000a0 81 08 1d 3c 85 9d 41 3b b5 48 09 be 13 76 53 be
       0.009584547 0.0029543352 -0.13406642 -0.2065051
0000b0 71 20 da bd 30 83 23 bd 27 78 b7 bd ba dc 42 be
       -0.10650719 -0.039920032 -0.08958464 -0.19029513
0000c0 90 22 fd 3b 8f 72 d0 bc ff 94 64 3c 2b ce 74 3d
       0.0077250674 -0.02544525 0.013951539 0.05976693
0000d0 0b 4e ca 3c a5 1b 7e 3d a9 4a b4 bd da 49 dc bd
       0.024695417 0.062038083 -0.08803303 -0.107562736
0000e0 d7 88 e7 3d f2 19 6e bd 99 e1 0c 3d c1 64 8e 3c
       0.11305397 -0.058130212 0.034394834 0.017382028
0000f0 04 3b c4 bd eb f5 de 3a b8 18 c3 bd 6a 70 49 bc
       -0.09581569 0.0017010545 -0.09526199 -0.012294868
000100 5f 0c 06 bb 50 a6 67 3d 63 48 6b 3d a6 c6 5c bd
       -0.002045415 0.056555092 0.05744208 -0.053900383
000110 71 81 3e 3d 46 80 08 3a 12 9d 3e bd 1e 6f 8b 3c
       0.046510164 0.00052071025 -0.046536513 0.017020758
000120 6d b5 c5 3d 7a 64 26 be d9 e1 51 be 02 01 04 3c
       0.09653745 -0.16249266 -0.2049631 0.008056881
000130 b9 0a 4a be af 27 2f be 38 7a 34 3c 74 dc 88 3c
       -0.19730653 -0.17104982 0.011015467 0.016706683
000140 81 44 0c 3d 02 65 09 bd 95 73 bf 3b c4 b2 b2 3c
       0.034245018 -0.033543594 0.005842636 0.021813758
000150 a6 0d 66 bd d0 f6 08 3c 86 2c 2f 3d 89 93 f0 3c
       -0.05616536 0.008359626 0.04276707 0.029367225
000160 6d 4e 77 3d a7 63 11 bd a2 de a8 bc 8d 00 b0 bd
       0.060377527 -0.035495427 -0.020613972 -0.08593855
000170 f6 36 b0 bd 00 f6 e4 bc 0b bc 93 bc d1 e4 0a bd
       -0.08604233 -0.027949333 -0.018034002 -0.033909623
000180 46 60 6c 3d 3f 81 22 3d f3 79 81 3b d5 7a 58 3d
       0.057709 0.03967404 0.003951305 0.052851517
000190 66 8d 35 bc 5c 01 23 3e 2a 77 af bd fb f5 b5 3c
       -0.011081075 0.15918487 -0.085676506 0.02221202
0001a0 0c 87 99 3d 80 d2 f6 3c d7 80 01 be ea ce ee bd
       0.07496461 0.030129671 -0.12646805 -0.116605595
0001b0 0b 20 51 3c 1a e8 35 bd a1 1c 27 3d b2 59 6d 3d
       0.012763987 -0.044410802 0.040798787 0.05794687
0001c0 e1 c5 24 be 8b b8 25 be 0d fa 8f bd 92 ed df bd
       -0.1609111 -0.16183679 -0.07030115 -0.10933985
0001d0 2d 7f 3b be af 1f 3c 3e 5b ec df 3d 4d 3c 84 3d
       -0.18310232 0.18371461 0.10933753 0.06456814
0001e0 9e 1e 02 ba 81 46 e1 3d 02 94 cf b9 42 08 55 bd
       -0.0004963669 0.10999776 -0.0003959239 -0.05200983
0001f0 e6 2a 9f bc 58 a9 4b be 26 1a a4 bd bc c5 9a 3d
       -0.019429635 -0.19888818 -0.080128 0.07557246
000200 72 3e b4 3d 41 40 0e be 5b 95 19 3d 7a ce a6 3d
       0.08800973 -0.13891698 0.037495952 0.08144851
000210 af bc 88 bd 1d 63 03 be e9 7b a6 bd 0f fe 14 3e
       -0.066766135 -0.12830777 -0.08129103 0.1455004
000220 1b d3 ef 3d e8 24 8c bd 57 d0 b6 bb 02 1a 80 3d
       0.11710187 -0.06842977 -0.0055790353 0.062549606
000230 a6 57 8c 3d c0 27 8b bd 3b 62 04 be 33 0b 0c be
       0.06852655 -0.06794691 -0.12928097 -0.13676147
000240 59 36 05 3d 93 c2 2d bc 4b f1 89 3c b4 82 1a bd
       0.032522533 -0.010605472 0.01683869 -0.037722304
000250 51 0d 8f bd 83 be 44 bc 79 46 e3 bd 2a 0c 83 be
       -0.06984962 -0.012008312 -0.11097426 -0.25595218
000260 97 d5 88 bc bc 9d 13 3d 04 d3 16 3c 2f d4 e3 3d
       -0.01670341 0.0360391 0.0092055835 0.11124455
000270 c6 14 8c bd ef 69 95 bd 50 9d b5 bb 43 42 02 be
       -0.068399 -0.07295596 -0.0055424348 -0.1272059
000280 5b 57 77 be c9 d0 b1 bd 69 da e2 bc 99 50 bc 3d
       -0.24154417 -0.08682401 -0.027692037 0.0919506
000290 ba 49 05 3e 8b 0a 10 be 12 9d ee bd fa ba 58 bd
       0.13016406 -0.14066522 -0.116510525 -0.05291269
0002a0 86 46 54 be 97 c9 2c be f0 ba 71 be 32 2f c4 bd
       -0.20730028 -0.16873775 -0.23606467 -0.09579314
0002b0 47 a4 b2 ba e8 6d 07 3e 52 71 95 3d a8 be 43 bd
       -0.0013629281 0.1322552 0.07297005 -0.047789246
0002c0 d0 b4 8b 3d 39 4d cb 3d 62 65 80 3d 68 d7 ca 3c
       0.068215966 0.099268384 0.06269337 0.024760917
0002d0 6e c3 b9 3d a5 a5 96 3d b4 c0 10 3e be ec 98 3d
       0.090704784 0.07355813 0.1413601 0.0746703
0002e0 f0 a4 e7 bd c8 02 6d 3d 8b 99 82 3d a4 b4 22 be
       -0.11310756 0.05786398 0.06376942 -0.15889221
0002f0 55 7b b5 bc 22 ba fd bc 45 69 2a 3d 7b 01 e7 bd
       -0.022153536 -0.030972544 0.0416043 -0.11279579
000300 da 43 08 bd 1f 28 f3 3d c9 df 60 be 1d bf ea bb
       -0.033267833 0.11872887 -0.21960367 -0.0071638958
000310 b6 9e a2 bd 31 f5 b9 bd f7 04 0d bb 72 b5 85 3c
       -0.07940428 -0.0907997 -0.0021517852 0.016321871
000320 0c a4 3b 3e 3b 75 bd bc bf 4d a3 bb 4f 83 9d bd
       0.18324298 -0.023127189 -0.0049836333 -0.07691061
000330 47 60 81 3d 67 9e 4e be 6c 45 2a be bc 35 98 bd
       0.063171916 -0.20177613 -0.16628045 -0.07432124
000340 a8 ae bf 3d da 5a 33 3e ae c4 32 be 50 58 00 be
       0.09359485 0.17515126 -0.1745784 -0.12533689
000350 e2 97 e0 3c 01 ff cc bd 03 e0 ba bd 7b 90 71 be
       0.027416173 -0.10009576 -0.09124758 -0.23590271
000360 bf 3e c7 bd 7f 3e 20 3e 3a ef f7 bc b0 de b6 bc
       -0.09728765 0.1564884 -0.03026544 -0.022322983
000370 63 5a c0 ba 33 20 af bb 06 ad da bd c8 52 79 be
       -0.0014675375 -0.0053444146 -0.10677533 -0.24347985
000380 d5 15 2b bd c9 c3 10 bb 20 f7 93 ba 3d 8d 1f 3e
       -0.041768868 -0.0022089353 -0.0011288859 0.15581222
000390 2d 64 2f 3e 98 9a 0d 3d 88 2b 1a 3d e7 31 94 3c
       0.17128058 0.03457126 0.03763917 0.018090202
0003a0 0e e0 02 be ae 0d 0f be 49 d3 e7 3d 8d 22 d3 3d
       -0.12780783 -0.13970062 0.11319596 0.103093244
0003b0 06 aa 99 bd f9 54 67 3d 4c 2b 16 3d 91 c7 e5 bc
       -0.075031325 0.05647752 0.036662385 -0.028049262
0003c0 7c 36 31 be a5 be f9 bd 83 41 5e be 0c b2 b0 3d
       -0.1730594 -0.12194566 -0.21704678 0.0862771
0003d0 ff e2 14 3c a7 a7 0a be 02 5c b8 3d 70 6a 5c 3d
       0.009087323 -0.13540517 0.09001924 0.053812444
0003e0 49 21 9b 3c 76 71 5c 3d 27 5e 21 bc 2c f5 94 bd
       0.01893677 0.053819142 -0.009849108 -0.07273325
0003f0 76 0c 6a 3c 1d d0 97 3d 0b 87 46 bc db 71 59 bd
       0.0142851975 0.07412741 -0.012117158 -0.053087097

conv2.bias f4 [64]
000000 e2 4b 4b bc 13 ed e1 ba d7 02 a1 bc f9 34 aa bd
       -0.012408229 -0.0017236791 -0.019654674 -0.08310885
000010 64 ee 76 bc 78 8d 1f bd 72 23 b3 bd 99 00 d7 bc
       -0.015071485 -0.038953274 -0.08746995 -0.026245402
000020 9b 60 a4 3c bd 8f 15 bd 95 e5 eb bc 68 0c 83 bd
       0.020065596 -0.036514033 -0.028795997 -0.06398851
000030 d2 f5 8e bc ad 54 da 3b 0f 5c ed bc a7 1a 75 bd
       -0.0174512 0.006662926 -0.028974561 -0.05983987
000040 09 cd 2e 3d d3 1e 6c bd ef 65 90 3b 71 ca c1 bd
       0.042676006 -0.057646584 0.0044066827 -0.09462441
000050 59 f7 dd bd 8e af 37 bd 9c 4e b8 3b cc d8 05 bc
       -0.108381934 -0.044845156 0.0056246053 -0.008169364
000060 77 4c 5a 3d 42 92 cd 3c 3f 43 8c bd 0f 67 6e bd
       0.05329558 0.025094155 -0.06848764 -0.058203753
000070 25 0e ef bb 77 6b 1c bd f8 dc b8 bd f7 6e 89 bc
       -0.0072953873 -0.038188424 -0.090265214 -0.016776545
000080 67 d0 21 bd 8c 2a d4 3c 6f 6a 7c bd 37 aa 7b 3b
       -0.03950539 0.025899194 -0.06162494 0.0038401016
000090 5a eb 84 3d 0d 90 0c bd f6 7f ab bd 6c 0e 5c bd
       0.06490202 -0.034317065 -0.08374016 -0.05372469
0000a0 88 f3 84 bd c6 9b 8f bd 70 c1 11 bd 32 98 07 bd
       -0.064917624 -0.07012133 -0.035584867 -0.03310413
0000b0 fc 62 33 bd 0d 05 01 3d 28 4b 8f bd bb 60 cd 3b
       -0.04379557 0.031498957 -0.06996757 0.0062676347
0000c0 7b 6d 93 bc b7 84 64 3d 81 26 96 bc 6d f4 4b bd
       -0.01799654 0.05579063 -0.018328907 -0.04979365
0000d0 20 51 d5 bd e9 a8 1a bd 77 a6 68 bd 95 3d 1d bd
       -0.10415864 -0.03775874 -0.05679938 -0.038388807
0000e0 2c c3 1a bc 37 44 e5 bc 28 55 6c bd 66 b3 e1 bc
       -0.009445947 -0.027986629 -0.0576984 -0.027551364
0000f0 ca 17 07 bd c7 5a 84 bd 2b 93 95 bd f0 94 1b bd
       -0.03298167 -0.06462627 -0.07303461 -0.037983835

fc1.weight f4 [256, 576]
000000 5d 23 8b 3d b8 fb 9a 3c 77 3b 39 bc 8f 78 bd 3d
       0.067938544 0.018918857 -0.011305681 0.0925151
000010 62 dd 7b 3d 8e 96 c1 3d 24 9e 73 bd a2 80 f6 bc
       0.061490424 0.09452544 -0.059476987 -0.030090634
000020 e5 29 c6 bb ff 83 5a bd 67 21 9d 3d dc f1 4e 3e
       -0.0060474747 -0.053348538 0.076723866 0.2020945
000030 33 9f 9e 3c 45 ca a9 bd a3 68 f1 bc 73 8c 6a 3c
       0.019363021 -0.08290533 -0.02946884 0.014315712
000040 ed b4 33 bb 45 ab 55 be 9e e3 8a bd e0 e6 40 3d
       -0.0027421073 -0.20866115 -0.06781696 0.04709518
000050 62 11 c9 bc 02 34 fc bd 89 88 83 bd 56 6f 01 3d
       -0.024544422 -0.12314607 -0.064225264 0.03160032
000060 aa 5b 2f bd a3 f2 d0 3d 55 50 9b 3c 6a ce 02 3e
       -0.042812027 0.10202529 0.018959204 0.12774053
000070 23 05 a5 3c f7 37 a0 bd a3 fc 0f 3e 8f 0d 03 be
       0.020144051 -0.078231744 0.14061217 -0.12798141
000080 cc 14 a4 bd 20 54 f7 bc 9c 4c ed bc 2e fe fc 3a
       -0.08011779 -0.030191481 -0.028967194 0.0019301826
000090 b8 f8 87 3c 8b 8e 20 3c ab 47 ee bb 05 19 3d bd
       0.01659809 0.00979961 -0.007271727 -0.04616644
0000a0 86 f1 14 3c e3 51 94 3c 16 f4 e7 3b bb 9c d6 3c
       0.009090787 0.018105453 0.007078658 0.026197782
0000b0 ab 41 c2 bb 55 15 34 bd 0b 9f 24 3d d1 43 95 3d
       -0.0059282384 -0.043965656 0.040190738 0.072883256
0000c0 27 27 9f 3c 56 c4 a0 bd d7 14 b1 3a 63 4f 13 3d
       0.019427849 -0.07849948 0.0013510239 0.03596438
0000d0 4b 3c f4 bd 8b 2a 3b be 53 55 c9 bd 57 ab c0 3d
       -0.119255625 -0.18277948 -0.098307274 0.094076805
0000e0 70 d2 53 3d bd 96 1e be cd 2b 0e be 4f 90 0b 3d
       0.05171436 -0.1548719 -0.13883896 0.03407317
0000f0 4c f2 cf bd 93 33 b2 3d 55 62 6a 3d b9 0c 8f 3c
       -0.10153636 0.08701243 0.057222683 0.017462121
000100 b2 73 2e bd 4f fd a4 bd 83 7a 88 bd 1e 43 d4 bd
       -0.042590804 -0.08056127 -0.06663992 -0.10364364
000110 9e d1 18 be 7d 56 f3 bd 8c 1e 61 3e 96 ef 73 bd
       -0.14923713 -0.11881731 0.21984309 -0.05955466
000120 f0 98 15 be b0 fd 82 bd d3 01 d7 bd d6 36 2c be
       -0.14609122 -0.06396043 -0.10498395 -0.16817793
000130 34 62 e3 bd 10 c7 6f bd 5b 7d 69 3d 03 b1 5f 3d
       -0.11102715 -0.05853945 0.057004314 0.05461217
000140 60 34 7e 3c be 2d 9b 3c d1 7b 8a 3e 20 8a 95 3a
       0.015515417 0.01894271 0.2704759 0.0011408962
000150 f4 4c 1a bd fa b7 71 3d 1d 4c 4c bd 78 c3 8d bd
       -0.037671044 0.059013344 -0.049877275 -0.06922048
000160 46 c7 08 3e 63 81 36 bd fa 83 35 3c 1d a2 19 3e
       0.13357267 -0.044556987 0.011078829 0.15003248
000170 ae 30 78 bd 91 f1 86 3c 0e ad 2b bd a7 30 51 bc
       -0.0605933 0.01647261 -0.041913085 -0.012767947
000180 fe d1 e3 bc df 70 ec 3d ca 99 90 3c 80 a6 f4 3c
       -0.027810093 0.11544966 0.017651457 0.02986455
000190 a0 cc 70 bb 35 3a 5a 3c e1 72 29 3e 24 43 0e 3e
       -0.003674306 0.013319542 0.16547729 0.138928
0001a0 e9 2a 19 be 0b d8 2b 3d 00 57 96 bd 0c 67 ee 3c
       -0.14957775 0.04195408 -0.07340813 0.029101871
0001b0 49 b7 5c 3d 70 39 68 3d ef 7a b9 bd 7a 1f 81 bd
       0.05388573 0.0566954 -0.09056651 -0.06304832
0001c0 05 a5 2d be 58 34 a2 bd c0 7a af 3d 35 7a c4 bd
       -0.16957481 -0.0792014 0.085683346 -0.09593622
0001d0 c5 a0 1d bc 50 02 df bc b6 10 c8 bb 2e 18 e9 bc
       -0.00962085 -0.027222782 -0.0061055077 -0.028453913
0001e0 86 12 9e 3c eb 86 d9 3c 40 7d 8c bc 60 eb db bc
       0.019295942 0.026553592 -0.017149568 -0.026845634
0001f0 88 10 92 3c d6 c2 1c bd 88 10 71 be 32 c9 95 3d
       0.017830148 -0.038271748 -0.23541462 0.073137656
000200 34 f7 18 be 2f e3 2d be ea f8 12 bc fa 1d 50 bb
       -0.1493805 -0.16981195 -0.008970479 -0.0031756149
000210 01 f0 ea bd 21 8c b1 bd 48 4b 4a be e5 6a 9f 3b
       -0.11471558 -0.086693056 -0.1975528 0.0048650377
000220 83 fe c7 3d 06 e6 0c 3d e2 a8 ff bd d7 1d 3d bd
       0.09765341 0.034399055 -0.12483384 -0.046171036
000230 5c e8 47 bd f1 c7 13 be c0 5a 2e be 53 26 08 3c
       -0.04880558 -0.1443174 -0.17026806 0.008309918
000240 d5 98 90 bd c7 0d 08 bd 0b 29 60 bb d5 5a 3b 3d
       -0.070604004 -0.033216264 -0.003420415 0.04574092
000250 57 0e 96 ba 15 99 b4 3b fe 13 7c 3d a1 32 80 3d
       -0.0011448365 0.005511413 0.061542504 0.06259657
000260 dd c8 20 bd 63 5c a0 3c 8a 5f 70 bd d4 37 01 3c
       -0.03925406 0.019575303 -0.058684863 0.007886846
000270 17 90 c2 3c bd 87 ae bb b3 d7 7b 3d cf 23 04 be
       0.023750348 -0.00532624 0.061485004 -0.12904285
000280 06 fd 00 be 81 ff c5 3d e0 85 8e bd 72 4b 0c bd
       -0.12596521 0.09667874 -0.069591284 -0.034251638
000290 f2 66 b4 3d fb 3b d2 3d e1 0d e1 bd eb 7c 5d 3d
       0.08808698 0.102653466 -0.10988975 0.05407421
0002a0 0b c1 25 3d 3a c8 2a 3e bc 4e a1 bd f2 7a 16 bd
       0.040467303 0.16677943 -0.078763455 -0.036738344
0002b0 72 0c ac 3d 40 cd 35 3d 42 48 94 3d 64 77 65 3d
       0.08400811 0.044385195 0.072403446 0.056022063
0002c0 0d ff 4f bb 5c 71 8b 3d 69 e0 62 3c f7 97 a0 bc
       -0.0031737715 0.06808731 0.013847449 -0.019603712
0002d0 0e a5 03 be 8d 2a 8e 3a 06 c1 db bd f6 b1 1d be
       -0.12855932 0.0010846421 -0.10730176 -0.15399918
0002e0 c0 e5 c3 bd 6b e4 c3 3d 99 21 ec bd d7 01 1c 3d
       -0.09565306 0.09565052 -0.11529846 0.038087692
0002f0 5e 25 ea bc 70 bd 3b bc f0 92 45 3c a6 68 c4 bc
       -0.028582271 -0.01145874 0.012058958 -0.023975682
000300 56 b6 b3 3a 68 52 e2 3c 40 6e 57 3c 26 00 fc bc
       0.0013710957 0.027627185 0.013148844 -0.03076179
000310 1b 22 9c 3c 56 4a bc bc 46 7d 40 be b4 01 9f 3c
       0.019059232 -0.022984665 -0.18797788 0.019409992
000320 bc 8c 12 be eb 7a e9 bb 0a bf d3 bb ed ab db 3c
       -0.14311498 -0.0071252487 -0.0064619826 0.026815379
000330 65 5d f7 bd 6d a5 df bd 65 8c cc bc a7 2e 24 be
       -0.120783605 -0.10920224 -0.02496929 -0.16033421
000340 cd 38 fd bb c7 89 69 3d 0b 08 a5 3d b8 44 c9 bd
       -0.0077277184 0.05701616 0.08058175 -0.0982756
000350 14 c9 72 bd e1 25 78 bd 35 09 d8 bd 3a c1 2c be
       -0.059273794 -0.060583 -0.10548631 -0.16870585
000360 04 d7 c5 3d 99 fb dd bb 5c 56 04 be 72 09 08 3e
       0.096601516 -0.0067743775 -0.12923568 0.13284853
000370 97 36 a1 3e ba 9c c1 3d f7 90 91 3d 38 4b d2 3c
       0.3148696 0.09453721 0.07107728 0.025670633
000380 50 5a 0f bc 3f e9 d1 bd 11 3c 38 bd 09 09 83 be
       -0.0087495595 -0.10249566 -0.04497916 -0.2559283
000390 6d 58 4a 3d b8 7e e5 bc 35 eb 71 bd c0 cd 85 bd
       0.049400736 -0.028014526 -0.0590622 -0.06533384
0003a0 ed cd b8 3d 80 71 4a bc 7c 85 5a bd dd 38 ab 3d
       0.09023652 -0.012356162 -0.053349957 0.08360455
0003b0 e8 14 53 3d f3 a5 5e 3d 0c 6c 8d bc 2a d0 be bc
       0.05153361 0.05435748 -0.017263435 -0.02329262
0003c0 2a 28 e5 bd 92 28 a8 bd 16 b3 83 bd 20 06 f7 bc
       -0.11189301 -0.08210863 -0.06430642 -0.030154288
0003d0 eb 42 a4 bd 81 66 76 3c c5 0e 60 3c a1 c9 c5 bd
       -0.08020576 0.015039087 0.013675396 -0.09657598
0003e0 62 ae 09 3b e3 3b 14 be 73 c2 01 3d 4a 64 86 bd
       0.0021008481 -0.1447597 0.03167958 -0.06562097
0003f0 2f b3 50 be 9a 12 8f bd d2 6d 4c bd 36 ed 5b be
       -0.20380853 -0.0698597 -0.04990942 -0.21477208

fc1.bias f4 [256]
000000 26 1f 8e bd 90 0d f4 bd 5e 81 86 3c 61 96 da 3c
       -0.06939535 -0.11916649 0.016419109 0.026683034
000010 f7 22 95 3b 8a 07 1a 3c 1f 22 f9 bc 85 33 67 bc
       0.0045512873 0.0094012115 -0.030411778 -0.014111404
000020 b9 11 29 bd 2f b4 2b bc aa cd 2e 3d 09 f5 1d 3c
       -0.041276667 -0.010479971 0.042676605 0.00964094
000030 09 1e 81 bc b7 20 ee bb 34 69 f3 3b ad 83 a3 bb
       -0.015761392 -0.0072670835 0.0074283127 -0.004990062
000040 b2 b7 39 bd 7f fe 30 bd e5 80 1f bd d2 10 08 bd
       -0.0453412 -0.043211456 -0.038941283 -0.033219166
000050 89 60 38 bc c7 da dd bc b5 3b 32 bd 3f 9a 13 3b
       -0.0112534845 -0.02708186 -0.043513972 0.0022522358
000060 6f 83 ae bc 80 95 d2 3c 6e a9 43 3d 66 98 9c bc
       -0.021302907 0.025706053 0.047769003 -0.019115638
000070 d2 d3 90 bd af 6b ac bc b1 64 42 3c c0 21 20 bb
       -0.070716515 -0.021047441 0.011864827 -0.002443418
000080 c0 5a ed bc 88 b4 d1 bd 36 c5 0f bd fe 35 32 bd
       -0.028973937 -0.10239512 -0.035100184 -0.043508522
000090 d7 6f 8b bc 35 e7 84 3d 2d a0 ed 3c 72 55 63 3c
       -0.017021103 0.06489412 0.029007042 0.013875352
0000a0 8d 70 d5 bd 1e b8 8d bd cf 97 de bd 8c c3 00 bd
       -0.10421858 -0.06919883 -0.10868799 -0.031436488
0000b0 0f 83 c1 bc 69 bd 3c bd af 6b 93 3d b7 7a db bc
       -0.023622064 -0.046079073 0.071982734 -0.026791913
0000c0 d0 d3 f6 ba b7 47 95 bc 18 50 15 3d 57 b0 36 bd
       -0.0018831436 -0.018222673 0.036453336 -0.044601765
0000d0 5c 59 18 bd b2 ea e0 bc 67 35 6d bd 28 0d 79 bb
       -0.037194595 -0.027455661 -0.057912257 -0.0038002227
0000e0 5b b7 93 3c 61 47 54 3d 85 c5 de bc 41 fc 25 bd
       0.018031767 0.051825885 -0.027193794 -0.04052377
0000f0 de 72 2c bd f3 db 92 3d b9 26 49 3d 86 3c 84 3d
       -0.042101733 0.07170858 0.049109194 0.064568564
000100 d6 7e 40 3d f7 d1 11 3d 92 31 fd bc 49 17 f5 3c
       0.04699596 0.03560063 -0.030907426 0.02991833
000110 b0 5c 15 bd 0d 1a f6 3c 75 c9 f6 3c d3 35 34 bc
       -0.036465347 0.030041719 0.03012536 -0.010999161
000120 3e 2b 93 3d ec a1 e0 3d c0 09 f7 bd 04 db 98 3a
       0.07185982 0.10968384 -0.120624065 0.0011661951
000130 4f 5f a0 3c 17 f9 d2 bc 9e de 94 3c 83 29 5d bd
       0.019576697 -0.02575354 0.018172558 -0.053994667
000140 b8 60 1e 3d 53 a0 54 bb 4e 2f 6a 3d 99 75 54 bc
       0.038666457 -0.0032444193 0.05717402 -0.012967491
000150 c4 1e 59 3c 5d 69 f0 bc 2f 5a 62 3d de 73 74 3d
       0.013251964 -0.029347116 0.055261787 0.059680812
000160 c6 9e 29 3c 3e 6c 9a bc 86 d1 19 bd 65 1c c1 3d
       0.010352796 -0.018850442 -0.037553333 0.09429244
000170 e6 36 5a bc ba 48 0e bd 63 0f 0e 3d 8d 0c 1c 3d
       -0.013318753 -0.034737326 0.034682643 0.038097907
000180 5d a4 75 bd 1c 89 67 bd b9 a5 2b be cb 4b 60 bd
       -0.059971202 -0.056527242 -0.16762437 -0.05475978
000190 5f 09 6c bd 84 2b ce bc d1 2e 25 bd 92 02 11 be
       -0.057626124 -0.025167234 -0.04032785 -0.14161137
0001a0 fc 49 e7 bc 9b e4 1a bc ac 8e 3e 3d 4e 68 f5 bd
       -0.02823352 -0.009453918 0.04652278 -0.11982785
0001b0 31 b0 b2 bc d2 0d 8f bd 0d a7 2f be 0d cb 7d 3c
       -0.02181253 -0.06985058 -0.17153569 0.015490306
0001c0 e2 57 8e 3b 51 4f cb bb 29 a2 28 3d d5 4d 29 bb
       0.0043439725 -0.0062045236 0.041170273 -0.0025833745
0001d0 fd 95 08 3d 8d 93 2e bc 75 81 4e bd d8 e8 fb bc
       0.033346165 -0.010655296 -0.05041643 -0.030750677
0001e0 66 59 10 bc 8b c8 60 bc ba 24 61 bd 26 55 0d bd
       -0.008810377 -0.013719688 -0.054966666 -0.034505032
0001f0 b3 4f 1c bd f9 18 2f 3c 13 ab 03 bd e8 f7 42 ba
       -0.038161945 0.010687106 -0.03214557 -0.00074374536
000200 f8 f8 00 bd aa b8 74 3c e4 a6 20 bd 9a 47 6a bd
       -0.031487435 0.0149366055 -0.03922166 -0.05719719
000210 01 c9 27 3c fe ba cf bc 9a 42 f2 bc b0 e1 c9 bd
       0.010240794 -0.02535772 -0.029572774 -0.098574996
000220 ad b8 68 bc 42 4c 97 3d 4b b4 8e bc 45 98 bd 3c
       -0.014204186 0.07387592 -0.017419955 0.023143897
000230 ec 80 92 bd 98 03 f8 bc 9b 13 0b be 11 83 f1 bd
       -0.07153496 -0.030275151 -0.13581698 -0.11792577
000240 35 cb 11 3c 22 36 68 3b 3d 0a 2f bc ff 95 1a 3d
       0.008898546 0.0035432656 -0.010683593 0.037740704
000250 ac ed 1f 3c d6 0f 26 3d 17 b4 ce ba 64 de 66 3d
       0.009761255 0.040542446 -0.0015770224 0.056364432
000260 ac 4d d2 bc 32 35 4b bd 2a a2 89 bd 94 53 bf 3c
       -0.025671802 -0.049611278 -0.067203835 0.023355283
000270 4f 1a 6f bd c4 3a 88 3c d3 e8 96 3c 64 d3 90 bd
       -0.0583747 0.016629584 0.018421566 -0.070715696
000280 1c 58 8f 3c 40 3a 48 bd 5a 3a 51 bd d8 a2 e4 bc
       0.017498069 -0.048883677 -0.05108104 -0.027909681
000290 95 41 13 3e 66 a8 0d be 97 ac 99 3c c4 10 39 bd
       0.14380486 -0.1383377 0.018759055 -0.045182005
0002a0 06 05 f8 bc 0b 94 b7 bd 2f dd ac bb f3 f8 2d bd
       -0.030275833 -0.08963784 -0.0052753906 -0.042473745
0002b0 d7 b5 4c 3c 93 2f 2c 3c ef cd 8c bc 9d fa 9e 3d
       0.012494526 0.010509389 -0.01718804 0.077626444
0002c0 cc 54 df b9 4b 73 b2 3c f0 c0 c4 bd 46 5f 53 bb
       -0.00042597053 0.021783492 -0.096071124 -0.0032252832
0002d0 49 76 95 bc 70 c4 71 3d 23 5f 12 bd 49 62 89 3c
       -0.01824488 0.059025228 -0.03573526 0.016770499
0002e0 c5 09 30 bd 87 9f ab 3b 4e 73 2b bd 21 43 f6 3b
       -0.042978067 0.005237523 -0.04185801 0.0075153266
0002f0 b5 de 50 bd e7 98 92 3d 22 65 ec 3d d3 e0 c2 bb
       -0.05099364 0.0715807 0.11542727 -0.0059472113
000300 34 da 00 bd 41 82 3f bd 33 6a 9f b9 e7 4f 39 bd
       -0.031458095 -0.04675508 -0.00030405968 -0.045242216
000310 9b 46 31 bd f3 72 60 bc 96 a5 40 3d cd 0c 64 3d
       -0.043280225 -0.013699281 0.047032915 0.05567627
000320 c2 4b a4 3c 91 3b 0f bd fd fd b6 bd d8 35 c2 bc
       0.020055655 -0.034968916 -0.08935163 -0.023707315
000330 0a 1b 55 3d a9 77 b1 3b d2 6b d8 ba 37 97 8a 3d
       0.05202774 0.005415876 -0.0016511625 0.06767123
000340 27 9c d5 3c 6f 3d 20 bd c8 cb aa 3b 65 b0 ec bd
       0.026075436 -0.039121088 0.005212281 -0.11557082
000350 ac 89 84 bc 5a db dd bb a9 6c 11 bd e1 5c 2e 3d
       -0.016178928 -0.0067705335 -0.035504017 0.042569045
000360 6f 34 2d bd 0a 0d 0d bd 2b 05 74 bd f6 c1 9d bc
       -0.042286333 -0.034436263 -0.05957524 -0.019257527
000370 2f ba 91 bb 57 d7 e9 bc 42 29 94 bd 6b 21 7a 3d
       -0.0044472436 -0.028545065 -0.07234432 0.061067026
000380 98 69 68 3d 53 94 a7 3c 7b 06 d5 3c 71 0d 75 bd
       0.056741327 0.020456469 0.026004067 -0.05982727
000390 1c 48 0f 3c 3d 55 96 3c d7 29 00 bd 6d 6f 4c 3c
       0.00874522 0.018351192 -0.0312899 0.012477738
0003a0 00 be d3 3c 98 15 10 ba 54 54 2b bd 4b 48 74 bc
       0.025847435 -0.0005496382 -0.04182847 -0.014909814
0003b0 f4 08 32 3b f8 7c a2 3c a2 26 56 bd 4c 92 90 bc
       0.002716598 0.01983498 -0.052282937 -0.017647885
0003c0 5c 95 18 bd 8a 90 b7 bc da f4 7b 3d b1 c3 a7 3d
       -0.037251815 -0.022407789 0.061512806 0.08191622
0003d0 51 36 56 3c d3 1a ab 3b 37 8b e7 bc 4b 17 01 3d
       0.0130744735 0.0052217036 -0.028264625 0.031516355
0003e0 2c 7b 1f bd 5b 32 a9 3a a2 36 89 bc ca 40 10 bd
       -0.038935825 0.0012908684 -0.016749684 -0.035218038
0003f0 80 3a 30 bd cf 17 96 3c 30 55 1b bd ab 97 92 3d
       -0.04302454 0.0183219 -0.037923038 0.071578346

fc2.weight f4 [10, 256]
000000 81 4d 81 be 60 bf 2f bd f6 5f f1 bb 0c a2 fa bd
       -0.25254443 -0.04290712 -0.0073661758 -0.12237939
000010 5d 85 ce 3d 9f 1b 34 bb 9e 56 97 3d 0e 31 e3 ba
       0.10084031 -0.0027482284 0.07389568 -0.0017333345
000020 ae 87 9a bd a9 71 89 bc 7d 97 9d 3d bc 2b 81 be
       -0.0754541 -0.01677783 0.0769491 -0.2522868
000030 e1 80 00 bd f0 4f 30 be cc 96 b8 3d 37 62 d8 3d
       -0.03137291 -0.17217994 0.09013137 0.10565608
000040 85 6a bb 3d 6c 3f 30 bc 40 08 9d 3c 24 f4 6a 3c
       0.09151176 -0.010757308 0.019168973 0.014340434
000050 a2 23 ce 3d c0 77 04 3e 6e b8 63 3d c1 3f 11 bd
       0.1006539 0.12936306 0.055595808 -0.03546119
000060 db e7 82 bb 0a 6c 7d bd 5b 5d d7 bd 22 6c 11 bc
       -0.0039949245 -0.061870612 -0.10515853 -0.0088758785
000070 aa bf af 3d 81 05 ca 3c 6b 4f d6 3d 78 fa 12 bd
       0.08581479 0.024660828 0.104643665 -0.035883397
000080 6a 27 7b be 0d 1a d7 3d eb 43 6d 3c a8 b4 7d 3c
       -0.24526754 0.10503016 0.014481525 0.015484966
000090 9f 34 92 bd 87 68 32 bd eb 35 81 be a3 bf 57 bd
       -0.07138943 -0.043556716 -0.2523645 -0.052672993
0000a0 e9 47 99 be 8f 34 87 3c a4 67 74 3d 49 f0 31 be
       -0.29937676 0.016504554 0.059669152 -0.17376818
0000b0 6f d0 94 3d 75 3e 50 bd 1a 9d 83 bd f8 bc 53 bd
       0.07266318 -0.050840814 -0.06426449 -0.051693887
0000c0 88 8a 0d bb 72 0f df bc 26 63 1f 3e d5 c0 12 3d
       -0.0021597464 -0.027229045 0.15565166 0.03582843
0000d0 ac 37 61 bd 50 55 bf bb fb d6 7f bc 43 2c 14 3d
       -0.054984733 -0.0058390275 -0.01561522 0.036175024
0000e0 5c ed 8b 3c 2a 2c d4 3d 0f 3c 3f 3b 88 4d b8 3b
       0.017080955 0.10359986 0.0029180085 0.005624477
0000f0 00 fe 09 bd 31 a5 a4 3d 13 58 3b be 7b fc 0f 3e
       -0.0336895 0.0803932 -0.18295316 0.14061157
000100 86 74 0b 3e 5a 22 d6 3b a9 f2 9b 3c e1 cf 56 bc
       0.13618669 0.0065348567 0.019036608 -0.013111086
000110 d7 68 b1 bc 25 74 a7 3d c2 38 e7 bd 05 3e 94 bd
       -0.021656437 0.0817645 -0.112901226 -0.07238392
000120 d7 dc 97 bd 36 c2 33 be 54 e2 53 bd 38 00 fe 3b
       -0.07415169 -0.17554554 -0.051729515 0.007751491
000130 28 8b ac bd f2 38 5f bd eb 70 7b bd 2e f2 c4 3d
       -0.084249794 -0.054497667 -0.061386984 0.096165046
000140 3b 16 e2 bd fd 47 d6 3d 06 75 d1 3d b3 ba 9f bd
       -0.110393964 0.104629494 0.102273986 -0.07799282
000150 8b 38 58 bd 85 9e 70 bc 46 2f bb 3a fb 95 60 3c
       -0.0527883 -0.0146862315 0.0014281056 0.013707633
000160 f2 29 3b 3b f2 71 01 3d 71 ab 97 ba 9f 33 9a 3d
       0.0028558937 0.031602807 -0.0011571479 0.07529377
000170 be d0 59 bc 02 4f 5a bd 1f ad f5 bc 84 a9 84 be
       -0.013294397 -0.053298004 -0.029989777 -0.2591058
000180 64 c4 6e bd f4 c2 2c be 84 95 95 bd 12 5a 5b bd
       -0.05829276 -0.16871244 -0.073039085 -0.053552695
000190 d5 a0 ee bc b5 8c 62 be b1 d7 77 be 42 9a 62 be
       -0.029129425 -0.22123988 -0.24203373 -0.22129157
0001a0 fe 5a 7a 3d b1 b0 04 be a9 3e 93 be 8e 34 30 be
       0.061121933 -0.12958027 -0.28758743 -0.17207548
0001b0 70 19 49 bb 25 31 ff bd 6b a5 eb bd c5 de 8f bc
       -0.0030685328 -0.124605455 -0.1150616 -0.01756228
0001c0 8b cf 02 3d 0e 51 35 3e cb 6b aa bd f9 21 a8 bc
       0.03193621 0.17706701 -0.08321341 -0.020524012
0001d0 5c 5d d8 ba 35 ed c7 bc ef d6 85 bd 7a 2f 4d bd
       -0.0016507315 -0.024405101 -0.06535136 -0.050094105
0001e0 d6 5a 37 bd 5e bb 10 3c f3 b3 ce bd 42 a5 cb bd
       -0.044764362 0.008833734 -0.10092916 -0.0994363
0001f0 b0 1a 7a bd b6 ea d1 3c 71 38 96 3d ac c4 74 bc
       -0.061060607 0.025624614 0.07334984 -0.014939468
000200 42 c2 5f 3c 96 50 6a ba ad 27 d2 3c 53 76 27 bc
       0.0136571545 -0.00089384 0.025653685 -0.010221082
000210 51 5a 45 bd 0f b0 18 be a4 bd 70 bd a1 b0 15 bd
       -0.048181836 -0.14910911 -0.058774605 -0.0365454
000220 7e 40 25 3e 59 d8 10 3e 05 ff 8c 3d 4a 58 f4 3c
       0.16137883 0.1414503 0.068845786 0.029827256
000230 0e 43 c5 3d 0b 4a 82 3c 41 43 62 bd 8a c3 99 3d
       0.0963193 0.015904447 -0.05523992 0.07507999
000240 53 9e 75 be d2 87 d7 bc eb b4 b8 3c a8 47 c1 bd
       -0.23986177 -0.026309881 0.022547206 -0.094374955
000250 0c 6d b1 bc 0b 58 a5 be 24 22 97 bb e9 13 91 be
       -0.021658443 -0.32293734 -0.004612224 -0.28335503
000260 c8 de a1 3c d1 0d 06 bc 83 f0 24 be 9f c9 2b be
       0.01975955 -0.008182005 -0.16107373 -0.16776131
000270 5b e8 1e be 5b 22 20 bc 37 c6 4a bb 87 1b 31 3d
       -0.15518324 -0.009773816 -0.00309409 0.043239143
000280 6a 37 e0 3d a4 c7 2b be 21 89 b3 bd 3d 65 36 be
       0.109480694 -0.16775376 -0.0876639 -0.17812057
000290 83 12 61 be 49 b0 03 3e 21 e3 a9 3c 3c da ed bc
       -0.21979718 0.12860216 0.020738186 -0.029034726
0002a0 14 3d 5f bd 1b ec 3e be 24 60 93 3d 46 c8 d6 3c
       -0.054501608 -0.18644755 0.07196072 0.026218545
0002b0 51 e4 91 3c 7a 33 d8 3c fc a7 b0 3d c0 83 22 be
       0.017809065 0.026391733 0.086257905 -0.15870571
0002c0 3a ea 04 3c c0 9f 20 bd 2e b2 86 bd 45 1f 6d be
       0.008112485 -0.03921485 -0.06576954 -0.2315646
0002d0 86 a3 e0 3d ed 3b eb 3d fd 52 3f be 93 d5 fe 3c
       0.109686896 0.11486039 -0.18684001 0.0311077
0002e0 c8 bb f4 3c 15 9d 63 bc 2f 3d 9b bc 1e e5 45 be
       0.029874697 -0.013892432 -0.018950073 -0.19325683
0002f0 b8 49 6c be a8 b9 48 be f3 92 35 be 5a 85 04 bc
       -0.23074996 -0.19602072 -0.17731838 -0.008088434
000300 d4 eb 00 bc 8e e8 cf bc 2d 9d 09 bc 3a 96 09 3e
       -0.007868726 -0.025379445 -0.00839929 0.13436213
000310 21 41 b6 3c 67 55 b1 3d 33 bc 15 3e 42 51 5a be
       0.022247853 0.08658867 0.14622574 -0.2132006
000320 6d 3a e6 bc 3f 2b 5a be cf 88 86 3d 54 88 b0 3c
       -0.028104031 -0.2130556 0.06569063 0.021549381
000330 95 1b 55 be a7 e5 e2 3c 6e 86 1b 3d e6 36 b3 3d
       -0.20811303 0.027697397 0.03797 0.087507054
000340 12 c7 e5 bd 9a 72 a4 bc 37 c2 0f be 5c e6 f6 bd
       -0.1121961 -0.020074178 -0.14038931 -0.12055656
000350 c1 ee 1f be 14 d4 2d bd 00 d7 4b be 0b e0 b1 3d
       -0.15618421 -0.04243858 -0.19906235 0.08685311
000360 75 ac 63 3c 6c c4 bb bc d5 7f 19 bd d6 cc 88 bb
       0.013896097 -0.02292081 -0.037475426 -0.004174809
000370 40 90 14 bd 2f 52 23 bd 43 44 01 3e f4 4c 9b be
       -0.03627038 -0.0398733 0.12623696 -0.30332148
000380 c3 1f 07 3e 7f a2 5d bb dd c9 eb 3d 11 17 8e bd
       0.1319571 -0.003381878 0.11513112 -0.06937993
000390 ef 20 14 be 77 b0 74 bc 55 cc 4b 3d ad 50 50 ba
       -0.14465688 -0.014934651 0.049755413 -0.0007946592
0003a0 15 bc fb 3c bf f4 18 be 25 56 2d be 59 3a f5 3c
       0.030729333 -0.14937113 -0.16927393 0.029935049
0003b0 bd 05 a0 bc cf 19 e3 3c 4d 29 54 bd 13 94 4d 3d
       -0.019533986 0.027722267 -0.0517972 0.050190043
0003c0 4f 7f 0d be 8b 8b b9 3d 47 7c de 3d 12 76 43 3d
       -0.13818096 0.09059819 0.10863548 0.047720022
0003d0 36 80 12 be 01 5f 78 bd 36 1a 27 bc b0 1b fc 3d
       -0.14306721 -0.060637478 -0.01019912 0.123099685
0003e0 36 59 86 3b 02 96 57 be 23 bf d9 3d 71 e7 bb bc
       0.0040999902 -0.21053317 0.106321596 -0.022937508
0003f0 75 8a c4 3c b6 82 cd bd 57 d6 5c bd 0d 48 90 3d
       0.023991803 -0.10034697 -0.053915348 0.070449926

fc2.bias f4 [10]
000000 88 2d c3 3d 4c bf 74 3d bd d3 dd bd 10 1d 17 3d
       0.09530169 0.059752747 -0.108314015 0.03689295
000010 f0 72 9f bd 97 0a 92 be 6a dc 95 3d a4 a5 16 3d
       -0.077855945 -0.28523704 0.07317431 0.03677906
000020 23 9a 28 bd d7 57 a8 bd
       -0.04116262 -0.08219879
