saved_models/mnist_cnn.pt (torch, 684197 bytes, 10 tensors)

feature_extractor.weight f4 [4, 1, 2, 2]
0.19274889 -0.30612704 -0.80757064 -0.6823856 0.73074615 0.99522924 0.21919705 -0.22036766
-0.6422579 -0.5072348 0.11148102 -0.6960655 0.5492173 -0.2869658 0.9448618 -0.21698394
00000000: f75f 453e afbc 9cbe f3bc 4ebf d3b0 2ebf
00000010: 2e12 3b3f 58c7 7e3f 3175 603e 0fa8 61be
00000020: 046b 24bf 24da 01bf 2950 e43d 5931 32bf
00000030: 8199 0c3f 2eed 92be 77e2 713f 0a31 5ebe

feature_extractor.bias f4 [4]
0.46042293 0.24017067 -0.034282207 0.050133858
00000000: 8ebc eb3e 4def 753e 806b 0cbd 2959 4d3d

conv1.weight f4 [32, 4, 3, 3]
0.059409752 -0.040534645 -0.42889476 -0.14819229 -0.18052988 0.08245725 0.04989384 0.082140684
0.29895073 0.096509404 -0.069958605 0.19799712 -0.07222951 0.16227448 0.06307919 -0.086932205
-0.08919019 -0.37745118 -0.045589622 0.004551175 -0.18489122 -0.08408297 -0.23735854 0.01397319
-0.040422924 0.38005534 0.4005802 0.0013097661 0.007882923 0.16394494 -0.03989508 0.13726988
0.094321795 -0.033173185 -0.10058738 -0.21117595 0.08479462 -0.17927861 -0.21172875 -0.04848166
-0.08386004 0.23631422 0.06388342 -0.10951619 -0.23885009 0.06660505 -0.29913923 0.2625919
0.11506539 -0.027822467 -0.3910144 0.069395274 -0.085959524 -0.00834091 -0.17206953 -0.027750859
-0.19109425 -0.11037947 0.08961931 0.24954887 0.06914983 -0.20336823 0.12427229 -0.12474106
-0.035452895 0.055012424 -0.04715631 0.19656678 0.067040525 0.026955003 -0.22013319 0.13571027
0.12061077 -0.12476665 0.02807647 -0.21947661 0.34291905 0.3032317 0.27383915 -0.204151
-0.12470973 -0.21451312 0.0077684894 0.07711593 0.19856332 -0.044552177 -0.32770726 -0.22234881
0.0020036201 0.23383532 -0.05458493 -0.0940585 -0.119856454 -0.2317595 -0.036963392 0.17385572
0.08690855 -0.15782088 -0.02977907 -0.30197516 0.20064762 0.14390348 0.25888586 -0.0734604
-0.07978395 -0.14488314 -0.14441545 0.08203089 0.04317589 -0.26951113 0.024562743 -0.261875
0.057527263 0.018613791 0.24893375 0.02699066 0.051065315 -0.2683432 0.022709299 0.17083137
0.19224481 0.03378866 0.11677992 0.024153594 -0.154128 -0.05537026 0.010720164 -0.22541279
-0.031903856 -0.14332964 0.07569954 -0.12402814 -0.040664945 0.17539285 0.20974231 -0.16381362
-0.058377966 0.15980908 0.10749134 0.043552984 -0.16865107 0.11690839 -0.09755996 -0.117543034
0.07962122 -0.24647513 0.0194936 0.02517729 -0.11310175 -0.18658386 0.07169297 -0.20174627
-0.1307549 -0.2432304 0.14824675 -0.047962587 0.14167953 -0.09094557 -0.14918005 -0.08626675
0.15856196 0.058174405 0.14985864 -0.16528396 0.20319751 -0.12679802 -0.27621883 0.15443885
-0.14208555 -0.004899577 0.100455634 -0.37340033 0.2517637 -0.025314938 -0.27850032 -0.036952574
0.044461474 -0.09482383 -0.20278116 0.14499967 0.13211702 0.057177685 0.20103231 0.27404985
0.16941494 0.3118825 0.29395103 0.3310205 0.44257286 -0.22918439 -0.2604093 -0.051719807
0.06976364 -0.07624729 -0.1177867 0.067142636 0.019302253 -0.03489386 0.2254948 0.1466021
0.19277722 -0.04593182 0.007945253 0.14560714 0.284618 0.28128967 0.35272616 -0.21421286
-0.10989299 -0.23242585 -0.033985857 -0.039660428 -0.077620566 -0.13766012 -0.11172215 0.07435529
-0.20917423 -0.025048217 0.11848546 -0.27482918 0.08074764 0.13125539 -0.14610979 0.040878266
0.100268774 0.1610604 0.08598884 -0.14838755 0.20211908 -0.029467357 -0.3170875 0.24153951
-0.16962029 -0.20643651 -0.0030363968 -0.18028353 0.077690825 -0.118781306 0.20595586 0.37776145
0.011961527 0.23510985 0.18553482 0.038860794 0.27297533 -0.047379762 -0.017049264 0.24526808
-0.3244241 0.2206674 0.13717926 -0.0036943879 -0.052821156 -0.075850435 -0.043857105 0.08300813
00000000: a457 733d a807 26bd 1898 dbbe b8bf 17be
00000010: d3dc 38be 59df a83d 7c5d 4c3d 6039 a83d
00000020: 1210 993e b9a6 c53d 7546 8fbd c2bf 4a3e
00000030: 11ed 93bd 482b 263e aa2f 813d 8309 b2bd
00000040: 59a9 b6bd 4841 c1be 2fbc 3abd 0622 953b
00000050: 2054 3dbe b133 acbd 1e0e 73be cfef 643c
00000060: 8292 25bd 9d96 c23e d918 cd3e 75ac ab3a
00000070: 6027 013c 2fe1 273e 0669 23bd 7a90 0c3e
00000080: c92b c13d 9be0 07bd c200 cebd 823e 58be
00000090: cda8 ad3d d094 37be 6ccf 58be b594 46bd
000000a0: d0be abbd 5bfc 713e 4fd5 823d 064a e0bd
000000b0: 1e95 74be 3a68 883d c728 99be 7272 863e
000000c0: 67a7 eb3d f1eb e3bc 0a33 c8be 1c1f 8e3d
000000d0: 8c0b b0bd 50a8 08bc ff32 30be c555 e3bc
000000e0: 36ae 43be a20e e2bd 548a b73d bd89 7f3e
000000f0: 6d9e 8d3d c33f 50be 7882 fe3d 3e78 ffbd
00000100: 0e37 11bd b554 613d fa26 41bd cd48 493e
00000110: 8b4c 893d bdd0 dc3c 986a 61be a2f7 0a3e
00000120: c802 f73d a885 ffbd a000 e63c 7abe 60be
00000130: 1693 af3e 2f41 9b3e a534 8c3e f60c 51be
00000140: d167 ffbd 54a9 5bbe d08e fe3b f5ee 9d3d
00000150: 2f54 4b3e 587c 36bd 3fc9 a7be 68af 63be
00000160: 2b4f 033b 8772 6f3e 7394 5fbd bea1 c0bd
00000170: 4d77 f5bd 5d52 6dbe ed66 17bd 3c07 323e
00000180: 1cfd b13d cc9b 21be 3cf3 f3bc 7d9c 9abe
00000190: 9276 4d3e 6f5b 133e b08c 843e 6872 96bd
000001a0: c465 a3bd 3f5c 14be a5e1 13be d0ff a73d
000001b0: 34d9 303d 5dfd 89be ce37 c93c 7b14 86be
000001c0: b5a1 6b3d f37b 983c 7de8 7e3e 841b dd3c
000001d0: dd29 513d 4864 89be da08 ba3c 6bee 2e3e
000001e0: d3db 443e fa65 0a3d 502a ef3d c2dd c53c
000001f0: bbd3 1dbe edcb 62bd a0a3 2f3c 9cd2 66be
00000200: 9ead 02bd 01c5 12be 5c08 9b3d 7702 febd
00000210: 4990 26bd 2f9a 333e b0c6 563e c2be 27be
00000220: bc1d 6fbd fea4 233e 6b24 dc3d 9d64 323d
00000230: deb2 2cbe aa6d ef3d 84cd c7bd 67ba f0bd
00000240: 7310 a33d fa63 7cbe 0bb1 9f3c 9b40 ce3c
00000250: e4a1 e7bd d70f 3fbe c4d3 923d 9396 4ebe
00000260: 9de4 05be 6411 79be ffcd 173e 6b74 44bd
00000270: 7014 113e ac41 babd a8c2 18be 9fac b0bd
00000280: 115e 223e 4948 6e3d 8b74 193e 3340 29be
00000290: 0213 503e 57d7 01be 8e6c 8dbe 3825 1e3e
000002a0: e07e 11be a18c a0bb afbb cd3d 542e bfbe
000002b0: 2ce7 803e 4661 cfbc 9897 8ebe 955b 17bd
000002c0: 3c1d 363d ff32 c2bd dda5 4fbe cb7a 143e
000002d0: af49 073e 2633 6a3d 6adb 4d3e 4350 8c3e
000002e0: 1c7b 2d3e 10af 9f3e c080 963e 857b a93e
000002f0: e998 e23e 50af 6abe 5e54 85be 26d8 53bd
00000300: 3de0 8e3d 8a27 9cbd 273a f1bd 1482 893d
00000310: c21f 9e3c ddec 0ebd 1ce8 663e dc1e 163e
00000320: 6467 453e 0123 3cbd ce2c 023c 0a1a 153e
00000330: 73b9 913e 3305 903e 8698 b43e 9e5a 5bbe
00000340: 930f e1bd 0b01 6ebe c134 0bbd f972 22bd
00000350: 88f7 9ebd c6f6 0cbe 95ce e4bd 9647 983d
00000360: c531 56be eb31 cdbc 81a8 f23d 69b6 8cbe
00000370: 055f a53d d067 063e ce9d 15be f86f 273d
00000380: b759 cd3d 04ed 243e eb1a b03d e8f2 17be
00000390: 4ef8 4e3e 8765 f1bc 4b59 a2be 2256 773e
000003a0: f1b0 2dbe 1864 53be 49fe 46bb 3f9c 38be
000003b0: 5e1c 9f3d 9d43 f3bd 18e6 523e f369 c13e
000003c0: 48fa 433c a3c0 703e d7fc 3d3e 7f2c 1f3d
000003d0: 6cc3 8b3e 4811 42bd e6aa 8bbc 8e27 7b3e
000003e0: ea1a a6be a3f6 613e b878 0c3e 8b1d 72bb
000003f0: ff5a 58bd 7957 9bbd 82a3 33bd 2b00 aa3d

conv1.bias f4 [32]
-0.03337771 -0.1857102 -0.14605169 -0.03409955 -0.02317144 0.17469217 0.09891147 0.10095135
0.14198028 -0.15349111 0.18355967 0.09231753 -0.060333446 -0.17390765 -0.043306965 0.05611322
-0.16599715 -0.016313098 -0.2705861 0.1614828 -0.15858741 0.0202411 0.024351016 0.064001806
-0.02752764 -0.17541935 0.049690694 0.15083426 -0.024717141 0.0011346899 0.053308822 0.073710606
00000000: 11b7 08bd d12a 3ebe 938e 15be f8ab 0bbd
00000010: 08d2 bdbc 81e2 323e 1992 ca3d 95bf ce3d
00000020: 4763 113e c62c 1dbe 11f7 3b3e f910 bd3d
00000030: 3420 77bd d914 32be a562 31bd fad6 653d
00000040: 28fb 29be 0ca3 85bc 438a 8abe bf5b 253e
00000050: bd64 22be aad0 a53c c87b c73c 6113 833d
00000060: a581 e1bc 21a1 33be 7888 4b3d 4c74 1a3e
00000070: 9a7b cabc e0b9 943a 5a5a 5a3d 96f5 963d

conv2.weight f4 [64, 32, 3, 3]
0.12515678 0.09190455 0.07402786 0.08727157 0.0967158 -0.060507566 -0.043345436 -0.2364485
-0.20946354 -0.040033616 0.056264512 -0.10470204 0.020394027 0.054781284 -0.15351816 0.055189647
0.014279255 -0.14875107 -0.09315052 -0.06939004 -0.07714084 -0.07125383 0.013663157 -0.124010816
-0.026170947 -0.14001949 -0.25297096 -0.072014265 0.0115314135 0.17967328 -0.12468894 0.057397455
-0.111758165 -0.066652596 -0.1389434 -0.30307347 -0.07147364 0.08372757 0.059794288 -0.02834338
-0.038252987 -0.11967597 0.05418745 -0.07586984 -0.084304065 0.103533655 -0.035258647 -0.05040489
0.076304086 0.011799511 0.056446258 0.21990225 -0.02078789 0.08708678 -0.11497517 -0.024582496
-0.050496154 0.074578345 0.102144845 0.066336505 -0.11463348 0.01405263 -0.05952969 -0.11736076
0.121234566 0.06443558 0.12867573 -0.055040862 -0.09905127 -0.011365448 -0.07874941 0.08646158
-0.00867624 -0.052295618 -0.13396685 0.058921237 -0.21559538 -0.077893674 -0.16617335 -0.2397644
-0.06992585 -0.0659524 0.037806172 0.112627596 -0.051435065 -0.048285954 0.08778236 0.10989536
0.06690449 -0.12884602 -0.100189626 -0.13314606 -0.1448375 0.05170236 0.09873568 -0.019502562
-0.049602855 -0.07900631 -0.12070712 0.0321198 0.11562369 0.09660414 -0.09924184 -0.10224998
-0.0038125177 0.18115278 0.09833007 -0.15089026 0.12692186 0.19397579 0.07085675 -0.08195369
-0.16881663 -0.24959049 0.14088073 0.07262352 -0.19921471 0.09728581 0.12783879 0.17604376
-0.06450221 0.052557122 -0.008603024 -0.03174971 -0.061219156 -0.18622962 0.04489714 0.11936122
0.013201467 -0.084662184 -0.13771185 -0.15728298 0.19360237 0.018981421 -0.023482746 0.12751994
-0.30453673 -0.22418423 -0.08760325 0.021362606 -0.06602938 -0.00079435366 -0.037054602 -0.1415932
-0.038792834 -0.025258834 -0.12062483 -0.005145684 -0.087804675 -0.1032144 -0.14235514 -0.16123345
-0.2645855 0.056660015 -0.06419196 -0.06895636 -0.044061463 -0.08956674 -0.02830055 0.029514404
0.056227393 -0.10014449 -0.01918863 0.1270143 0.09685111 -0.017135194 -0.038884997 -0.16061096
-0.13360724 -0.07328018 -0.1773995 0.04846919 -0.061487075 0.028860312 0.1180982 -0.058609426
0.13117866 0.2906612 0.012690634 0.11610692 0.007217888 0.024848118 0.09834781 -0.044658028
-0.12381352 0.061549813 0.10949959 -0.0080889845 -0.0998329 -0.007967518 0.04456318 0.092766784
-0.041696735 0.009445138 -0.14666228 0.0694344 -0.093876414 -0.1801552 -0.037135392 -0.01146617
0.11283669 -0.003911951 0.011342203 -0.20144644 -0.09161587 -0.1282304 -0.17259054 0.055428747
0.073863775 0.06644449 -0.16259076 -0.009178117 -0.23915681 -0.112656906 -0.018326595 -0.20926218
-0.09589026 0.035838183 -0.1201677 0.008434138 -0.0053926446 0.027104001 -0.1037184 -0.12608202
-0.22736897 0.16281883 0.16658497 0.06856902 0.0041436916 -0.053429358 0.04367049 0.14029889
0.119473234 -0.08932634 0.23512027 0.12621526 -0.0041534943 0.034744017 -0.14016928 -0.03176048
0.0032483463 -0.047315463 -0.21845871 -0.07730137 -0.16521941 -0.072066724 -0.004439937 -0.0032842627
0.038758904 0.0131224785 -0.078969195 -0.15375288 0.008859045 0.15334378 0.062281705 -0.015272824
00000000: 1929 003e 7438 bc3d eb9b 973d 70bb b23d
00000010: ef12 c63d c8d6 77bd fc8a 31bd 8e1f 72be
00000020: 9c7d 56be 4afa 23bd 9e75 663d 066e d6bd
00000030: 6011 a73c 5762 603d dd33 1dbe 8a0e 623d
00000040: 89f3 693c 3352 18be b3c5 bebd 5e1c 8ebd
00000050: 04fc 9dbd 87ed 91bd 6fdb 5f3c 62f9 fdbd
00000060: 7464 d6bc 4561 0fbe 6985 81be 377c 93bd
00000070: 41ee 3c3c 46fc 373e ea5c ffbd 9819 6b3d
00000080: 77e1 e4bd 2881 88bd 2e47 0ebe 722c 9bbe
00000090: c660 92bd 5c79 ab3d dbea 743d 6030 e8bc
000000a0: 2aaf 1cbd ad18 f5bd a9f3 5d3d a661 9bbd
000000b0: 9ca7 acbd 7409 d43d 5f6b 10bd 5c75 4ebd
000000c0: 5145 9c3d bc52 413c 3134 673d 0e2e 613e
000000d0: 5d4b aabc 8e5a b23d 1a78 ebbd 3b61 c9bc
000000e0: 0ed5 4ebd 88bc 983d 5131 d13d 6fdb 873d
000000f0: f5c4 eabd 013d 663c 67d5 73bd d75a f0bd
00000100: d449 f83d cdf6 833d 92c3 033e 8772 61bd
00000110: 64db cabd 2536 3abc 5f47 a1bd c512 b13d
00000120: ca26 0ebc ee33 56bd 9b2e 09be 6557 713d
00000130: 09c5 5cbe b886 9fbd 5929 2abe cd84 75be
00000140: 4935 8fbd 0d12 87bd a5da 1a3d 4ca9 e63d
00000150: 93ad 52bd 7ec7 45bd 3dc7 b33d d210 e13d
00000160: 3905 893d 36f0 03be 3830 cdbd 7157 08be
00000170: 4850 14be dbc5 533d ef35 ca3d d6c3 9fbc
00000180: 5d2c 4bbd 0fce a1bd 4b35 f7bd 0d90 033d
00000190: 1dcc ec3d 64d8 c53d 4e3f cbbd 7068 d1bd
000001a0: 6fdb 79bb 1d80 393e 4761 c93d fa82 1abe
000001b0: cef7 013e 97a1 463e 581d 913d 56d7 a7bd
000001c0: 44de 2cbe a694 7fbe 0a43 103e a4bb 943d
000001d0: f1fe 4bbe c83d c73d 2ce8 023e d144 343e
000001e0: bc19 84bd 2346 573d b3f3 0cbc fc0b 02bd
000001f0: f0c0 7abd fab2 3ebe 10e6 373d a873 f43d
00000200: f74a 583c 5e63 adbd 5604 0dbe ca0e 21be
00000210: b33f 463e ed7e 9b3c e35e c0bc 9694 023e
00000220: 3dec 9bbe 8d90 65be 5569 b3bd a200 af3c
00000230: 693a 87bd 2c3c 50ba 91c6 17bd cffd 10be
00000240: 3ce5 1ebd 9deb cebc 270a f7bd 209d a8bb
00000250: f0d2 b3bd 1262 d3bd 8cc5 11be 621a 25be
00000260: c077 87be 5514 683d 1377 83bd fe38 8dbd
00000270: cb79 34bd c46e b7bd 8ed6 e7bc 31c8 f13c
00000280: b24e 663d 8e18 cdbd 7931 9dbc 0910 023e
00000290: e059 c63d 1b5f 8cbc e045 1fbd 3377 24be
000002a0: 56d0 08be eb13 96bd 37a8 35be a187 463d
000002b0: dfd9 7bbd 766c ec3c 78dd f13d 7010 70bd
000002c0: b353 063e 8bd1 943e 60ec 4f3c 77c9 ed3d
000002d0: 0884 ec3b 488e cb3c 946a c93d 56eb 36bd
000002e0: f191 fdbd a81b 7c3d 5241 e03d a987 04bc
000002f0: 3175 ccbd 318a 02bc e287 363d 83fc bd3d
00000300: 32ca 2abd c8bf 1a3c a32e 16be 9f33 8e3d
00000310: 4742 c0bd 9b7a 38be 481b 18bd 9adc 3bbc
00000320: ec16 e73d d32f 80bb a6d4 393c fa47 4ebe
00000330: 1aa1 bbbd d44e 03be 93bb 30be 4109 633d
00000340: e445 973d 0c14 883d 317e 26be d05f 16bc
00000350: 86e5 74be aab8 e6bd a821 96bc d348 56be
00000360: 1d62 c4bd 0fcb 123d 7c1a f6bd 572f 0a3c
00000370: c8b4 b0bb 3609 de3c 506a d4bd a51b 01be
00000380: 69d3 68be fbb9 263e 4095 2a3e ea6d 8c3d
00000390: cec7 873b bed8 5abd d4df 323d 83aa 0f3e
000003a0: 62ae f43d baf0 b6bd 5ec3 703e 933e 013e
000003b0: 091a 88bb be4f 0e3d 8988 0fbe 4717 02bd
000003c0: 35e2 543b dccd 41bd a4b3 5fbe 2e50 9ebd
000003d0: 472f 29be b897 93bd e47c 91bb c93c 57bb
000003e0: a8c1 1e3d aaff 563c 9aba a1bd 6571 1dbe
000003f0: 8725 113c 2706 1d3e 1a1b 7f3d de3a 7abc

conv2.bias f4 [64]
0.00033302946 -0.081090055 0.03238399 -0.07111719 0.018566959 -0.09418321 -0.0036273077 -0.079820454
-0.06620464 -0.027274383 -0.11325898 -0.02495449 -0.022798385 0.008094914 -0.0412725 -0.03625086
-0.0163206 -0.057173144 -0.037140615 -0.026434537 -0.10381201 -0.073929764 0.031595506 -0.0159813
-0.027825799 -0.007859091 -0.06833993 -0.06448514 -0.049806055 -0.011474185 -0.11657985 -0.03812314
-0.06121833 -0.009875276 0.0005049513 0.06676652 0.0135687 -0.10445362 0.007825878 -0.030978039
-0.09665643 -0.057216994 -0.06020054 -0.026790163 -0.06305685 0.007029827 -0.099311136 -0.029388983
-0.019710697 0.040478695 -0.04244788 -0.1262003 -0.052124336 -0.05813917 -0.028678058 -0.13247675
-0.0019633933 -0.008121104 -0.02285135 -0.06434181 -0.025707344 -0.09719417 0.023095833 -0.116826825
00000000: 759a ae39 8b12 a6bd 13a5 043d e4a5 91bd
00000010: bc19 983c 20e3 c0bd 20b8 6dbb e878 a3bd
00000020: 4c96 87bd 876e dfbc 53f4 e7bd 5c6d ccbc
00000030: aec3 babc 88a0 043c 5a0d 29bd c87b 14bd
00000040: c7b2 85bc 632e 6abd c220 18bd 3e8d d8bc
00000050: 649b d4bd 7d68 97bd 4a6a 013d 37eb 82bc
00000060: eef2 e3bc 6bc3 00bc cef5 8bbd c910 84bd
00000070: 6f01 4cbd 38fe 3bbc 6bc1 eebd 0227 1cbd
00000080: 12c0 7abd e9cb 21bc b55e 043a e3bc 883d
00000090: 414f 5e3c c8eb d5bd 1d38 003c a8c5 fdbc
000000a0: cef3 c5bd 5e5c 6abd d794 76bd 0b77 dbbc
000000b0: f323 81bd 775a e63b a363 cbbd 2ac1 f0bc
000000c0: 5478 a1bc fdcc 253d d4dd 2dbd a73a 01be
000000d0: 5480 55bd 5723 6ebd 3fee eabc fca7 07be
000000e0: 46ac 00bb 610e 05bc c132 bbbc a4c5 83bd
000000f0: 3598 d2bc bd0d c7bd 7933 bd3c e742 efbd

fc1.weight f4 [256, 576]
-0.090529345 -0.060587943 -0.08032363 0.0022430855 0.08361143 0.04938951 -0.11542161 -0.10964367
-0.05605034 -0.057849374 -0.031898122 0.05550896 -0.10480486 0.026287705 0.029241327 0.01993182
0.03923105 0.056157324 0.07087326 -0.038410325 0.020230297 -0.11029295 -0.06212669 0.04358567
-0.119705796 -0.021951742 -0.035806365 -0.072996005 -0.10046669 0.09466873 -0.023348173 -0.005915457
-0.084445246 -0.10572399 -0.06374333 -0.07287018 -0.07373393 0.12385602 0.03766598 -0.09775087
-0.036451854 -0.028010558 -0.11659443 -0.04616598 -0.059887175 0.0004895746 0.018240327 -0.07404445
-0.012148352 0.036165476 0.19201851 -0.022954332 -0.052041665 -0.052362792 -0.009479174 -0.08059076
0.16444384 0.035274554 -0.036936842 -0.054911222 -0.07037116 -0.007535639 0.08632368 0.039448168
-0.0336367 -0.0076889084 -0.052399844 0.042110763 -0.07072838 -0.07258222 0.0880717 -0.0015271208
-0.017010605 -0.023005769 0.06291683 0.010478858 -0.0042733103 -0.064921014 0.023645412 0.0009304732
-0.01725544 0.016587432 0.09328509 0.049404826 -0.05046992 0.022923686 -0.1319077 0.024765298
-0.09458749 -0.054271247 -0.09368352 -0.060406663 -0.066117756 0.026556348 -0.023295168 0.0042190426
0.058958337 0.06937452 -0.008016762 0.12754856 -0.11102937 0.050014205 -0.14249977 0.008715965
-0.043659743 -0.0784642 -0.08772188 -0.09262597 -0.03158795 -0.0750464 0.03733245 -0.08689435
0.06162728 -0.07562264 -0.022338817 -0.035450093 -0.016883902 -0.027222782 -0.012068357 -0.028453913
0.019295942 0.026553592 -0.017149568 -0.026845634 0.011914644 -0.038271748 0.015423536 -0.026904052
-0.010189017 -0.016502118 0.021276494 -0.030970275 -0.037632316 -0.040033367 0.028673401 -0.01121494
0.040600073 0.06966061 -0.08562849 0.072697654 -0.08168586 0.083196215 -0.02512318 0.086550534
0.0324021 0.101545885 0.0003289977 -0.09681445 -0.10630632 -0.07952415 -0.091234505 -0.0063662203
-0.0297987 -0.16063094 0.028616643 -0.022909049 -0.03049306 -0.069313176 -0.02483835 -0.026051247
-0.009899263 0.108823754 -0.0037309665 -0.0019242631 -0.088107795 0.026141789 -0.07623678 -0.017602364
-0.14809752 -0.10465267 0.01886495 -0.031183364 -0.06355209 -0.038435236 0.0061151492 0.025526708
-0.10889342 0.03136896 -0.1401377 -0.19634849 -0.104696825 0.017215906 -0.02998631 -0.1604581
-0.081794776 -0.06231469 -0.03775049 0.17650916 -0.04326573 -0.05571164 -0.11016521 -0.063662626
-0.041363496 0.21754448 0.07389705 -0.057097238 0.03170881 0.08569666 -0.021289263 0.07380773
0.039878946 0.03338262 -0.100753404 -0.10539725 -0.073113725 0.03194005 0.0081021255 -0.025129694
-0.17319308 0.10083703 -0.08101324 0.008785119 -0.06245086 0.14324771 -0.104446314 -0.008212447
-0.01438355 0.0039610267 -0.005990058 -0.008943121 0.014469877 -0.010786578 -0.019441595 -0.016606227
0.020517066 -0.026225114 0.019041568 0.124860495 0.035832424 -0.026455294 0.027867088 -0.050881267
0.0038888853 -0.07676306 -0.12799174 -0.06517938 -0.055763427 0.021669326 -0.039946772 0.09395201
-0.095712915 -0.04406261 0.031301584 0.012238622 0.028959826 0.029857855 -0.03949277 -0.024185672
-0.008872001 -0.0024708714 0.023540065 -0.030754825 -0.10804588 -0.00043629948 -0.056646734 -0.13397567
00000000: 7367 b9bd 102b 78bd b780 a4bd bb00 133b
00000010: 783c ab3d a84c 4a3d 2a62 ecbd dc8c e0bd
00000020: 0b95 65bd 77f3 6cbd 9ba7 02bd 5d5d 633d
00000030: eea3 d6bd 5059 d73c 828b ef3c 0e48 a33c
00000040: bdb0 203d 3905 663d 0026 913d 2554 1dbd
00000050: 02ba a53c 45e1 e1bd 8e78 7ebd e386 323d
00000060: 5028 f5bd 24d4 b3bc b2a9 12bd ee7e 95bd
00000070: 7bc1 cdbd aee1 c13d ab44 bfbc 73d6 c1bb
00000080: a1f1 acbd d285 d8bd dd8b 82bd f63c 95bd
00000090: d101 97bd 3aa8 fd3d a547 1a3d 9c31 c8bd
000000a0: 8a4e 15bd 6676 e5bc 0fc9 eebd 8a18 3dbd
000000b0: 414c 75bd cc56 003a bd6c 953c 9ea4 97bd
000000c0: e209 47bc 4022 143d 80a0 443e b90a bcbc
000000d0: a429 55bd 5e7a 56bd 8a4e 1bbc c50c a5bd
000000e0: f763 283e 0d7c 103d 164b 17bd 97ea 60bd
000000f0: c11e 90bd 86ed f6bb 78ca b03d 6794 213d
00000100: a3c6 09bd 3df3 fbbb 38a1 56bd 567c 2c3d
00000110: 0ada 90bd fda5 94bd ef5e b43d ac29 c8ba
00000120: d359 8bbc 9876 bcbc 8ada 803d 84af 2b3c
00000130: 2007 8cbb 4ff5 84bd 06b4 c13c 00eb 733a
00000140: 485b 8dbc 5ee2 873c 410c bf3d b75c 4a3d
00000150: 8cb9 4ebd 74ca bb3c d012 07be 98e0 ca3c
00000160: 16b7 c1bd 874b 5ebd 25dd bfbd fa6c 77bd
00000170: bf68 87bd b38c d93c 82d5 bebc e53f 8a3b
00000180: 4c7e 713d 3a14 8e3d bd58 03bc 179c 023e
00000190: 5e63 e3bd b2db 4c3d 76eb 11be 68cd 0e3c
000001a0: 8fd4 32bd d7b1 a0bd 87a7 b3bd afb2 bdbd
000001b0: 5e62 01bd edb1 99bd e9e9 183d aaf5 b1bd
000001c0: e36c 7c3d 0be0 9abd e5ff b6bc 1e34 11bd
000001d0: 1c50 8abc 5002 dfbc 5cba 45bc 2e18 e9bc
000001e0: 8612 9e3c eb86 d93c 407d 8cbc 60eb dbbc
000001f0: a435 433c d6c2 1cbd 00b3 7c3c e365 dcbc
00000200: d6ef 26bc 732f 87bc 0b4c ae3c 60b5 fdbc
00000210: 5824 1abd 07fa 23bd 7be4 ea3c debe 37bc
00000220: 434c 263d 39aa 8e3d fd5d afbd 82e2 943d
00000230: eb4a a7bd c762 aa3d 21cf cdbc 6841 b13d
00000240: 10b8 043d 4af7 cf3d 537d ac39 a846 c6bd
00000250: 21b7 d9bd 8fdd a2bd 28d9 babd ba9b d0bb
00000260: 671c f4bc 707c 24be 736d ea3c c2ab bbbc
00000270: 95cc f9bc 11f4 8dbd cc79 cbbc 6d69 d5bc
00000280: 8530 22bc fdde de3d 3b83 74bb 8e37 fcba
00000290: dc71 b4bd 4e27 d63c 0722 9cbd d532 90bc
000002a0: e0a6 17be 2454 d6bd ab8a 9a3c 4174 ffbc
000002b0: 9927 82bd 446e 1dbd 9761 c83b 631d d13c
000002c0: 8303 dfbd bd7c 003d 4280 0fbe 940f 49be
000002d0: 4a6b d6bd 5f08 8d3c daa5 f5bc 214f 24be
000002e0: 0584 a7bd b03d 7fbd 42a0 1abd d1be 343e
000002f0: 6837 31bd e331 64bd 4c9e e1bd 8d61 82bd
00000300: c56c 29bd fbc3 5e3e 5657 973d cbde 69bd
00000310: 19e1 013d bb81 af3d d266 aebc 8228 973d
00000320: 1b58 233d 37bc 083d cd57 cebd 83da d7bd
00000330: a6bc 95bd 92d3 023d c7be 043c cadc cdbc
00000340: 8759 31be a583 ce3d 45ea a5bd 76ef 0f3c
00000350: 79cc 7fbd 87af 123e f3e7 d5bd 808d 06bc
00000360: fba8 6bbc 80cb 813b 4048 c4bb 2b86 12bc
00000370: 1013 6d3c 30ba 30bc fb43 9fbc c809 88bc
00000380: 6813 a83c 0dd6 d6bc 10fd 9b3c dcb6 ff3d
00000390: 05c5 123d c6b8 d8bc 8549 e43c e068 50bd
000003a0: abdc 7e3b f435 9dbd 4410 03be c47c 85bd
000003b0: 3168 64bd df83 b13c 3a9f 23bd e969 c03d
000003c0: 2205 c4bd ff7a 34bd 1736 003d 8084 483c
000003d0: 283d ed3c 7698 f43c 2cc3 21bd 0821 c6bc
000003e0: df5b 11bc 58ee 21bb 18d7 c03c 8bf1 fbbc
000003f0: 2947 ddbd 20bf e4b9 6806 68bd eb30 09be

fc1.bias f4 [256]
-0.025189044 -0.0026845483 0.021530218 -0.035419207 -0.0156008145 0.009557252 0.03147178 -0.01617752
-0.0021471744 -0.01060101 0.0073773405 0.0031045538 -0.012827983 0.086801395 0.028397365 -0.059913076
-0.031056244 -0.06903767 -0.064075716 -0.020847827 0.016484285 0.02692309 -0.004099116 0.021658903
0.026484014 -0.013121371 0.025536736 -0.020689601 0.046856333 -0.012604652 0.03608408 0.00034852134
0.08284581 -0.04331 -0.0326567 -0.04047887 -0.0009276952 0.0009081021 0.0015025501 0.015473636
0.01619411 -0.041250106 -0.04860955 -0.038286068 0.020668311 -0.0508497 -0.0053830906 0.02085026
-0.008957984 0.033372615 -0.022241509 -0.06230526 -0.00601294 0.050317626 -0.04279008 0.007892131
0.024323938 0.002502097 0.038442668 -0.020390555 -0.03258348 -0.01659986 0.03473348 -0.05538172
0.029377235 -0.012064221 -0.05624823 0.008934624 -0.03577201 -0.012120455 -0.04460259 -0.013332981
0.016312065 0.019256344 0.035891265 0.009864286 -0.047992025 0.011202394 0.023449823 0.0036068098
-0.050206304 -0.012045767 0.039927814 0.0009495202 0.054715168 -0.0357026 0.028618 0.071523204
0.013917086 0.022551853 -0.044522516 -0.028340526 -0.008182167 -0.08961125 0.034747854 -0.027925855
-0.04030511 -0.038901694 -0.050424356 -0.068168126 -0.036036488 -0.0366084 0.06392945 -0.046555825
0.07039672 0.08412509 0.023100091 -0.047229573 0.023324255 0.07396138 0.0015406557 -0.03391957
0.0023142938 -0.016609628 0.06746198 0.061529733 0.03163044 0.044002008 -0.040479064 0.01778421
0.009620516 -0.015710745 -0.025638944 -0.03628783 -0.042230077 0.058541585 0.025314266 0.031027807
-0.03177826 -0.0047844565 -0.08169305 -0.027871167 0.0077947914 0.047726694 0.004143055 0.059448536
-0.033208657 -0.0038857379 0.020621456 0.010324357 0.0018456548 -0.029527498 -0.039461575 -0.046077836
-0.03648599 -0.035362933 -0.0036465945 0.087418705 0.010667681 -0.0105549395 -0.0012187193 0.004373097
-0.0389307 -0.033840016 -0.039423354 0.016416164 -0.0018402329 -0.014553044 0.076277435 0.00051281153
-0.022738343 -0.006974801 0.071411446 -0.029448185 0.033279587 0.048658032 0.018804451 -0.027984222
-0.030295895 -0.04932415 -0.044170063 -0.04728445 0.02640352 0.03445225 0.011164875 -0.05270493
-0.0035305736 0.07361325 -0.031055609 0.01650101 -0.04065329 -0.032635562 0.035104696 -0.0038772647
0.008209897 0.008115918 -0.03217145 -3.423049e-05 -0.055397946 0.046037022 -0.012837577 0.00849786
-0.067039594 -0.066057034 -0.021492755 -0.01834131 -0.043205038 0.02637183 -0.011038298 -0.028272193
0.008998466 0.038875923 -0.0629424 -0.0225664 0.011905227 0.027880203 0.010486894 0.00592433
0.052815527 -0.045359083 -0.042037655 -0.043895576 -0.059684906 0.0007748484 -0.0059933397 -0.040164948
-0.053589877 0.034244336 -0.013253615 -0.047685746 -0.0026418706 0.029848944 0.028749932 0.007938082
0.047662634 0.055534575 0.030339282 -0.052168943 -0.042621225 0.0054580807 0.008078239 0.02762836
0.023186592 0.020658555 -0.009769568 0.008812164 -0.010042494 0.027551286 -0.00432884 -0.03115873
-0.025272695 0.007547411 0.061022904 0.012796124 0.061932147 0.0036775437 -0.035294484 -0.039686564
-0.04323888 -0.040857762 0.029267943 -0.010558489 -0.026138151 0.042883165 -0.03840721 -0.01311197
00000000: 4159 cebc 3fef 2fbb 2460 b03c bb13 11bd
00000010: 8f9a 7fbc 0596 1c3c 8ee8 003d b886 84bc
00000020: 9cb7 0cbb dcaf 2dbc 9ebd f13b c575 4b3b
00000030: 762c 52bc eec4 b13d 97a1 e83c 6a67 75bd
00000040: aa69 febc 9f63 8dbd 213a 83bd 10c9 aabc
00000050: 0d0a 873c d08d dc3c e151 86bb 036e b13c
00000060: 01f5 d83c 05fb 56bc 6b32 d13c 3d7d a9bc
00000070: 6dec 3f3d be83 4ebc e6cc 133d beb9 b639
00000080: 10ab a93d d465 31bd 08c3 05bd 2ccd 25bd
00000090: 9230 73ba b30d 6e3a 37f1 c43a 2285 7d3c
000000a0: 83a9 843c dff5 28bd cf1a 47bd dad1 1cbd
000000b0: 9750 a93c c647 50bd a364 b0bb 2ace aa3c
000000c0: 82c4 12bc b9b1 083d d333 b6bc cd33 7fbd
000000d0: 3208 c5bb db19 4e3d a744 2fbd ff4d 013c
000000e0: ff42 c73c 39fa 233b 0f76 1d3d 180a a7bc
000000f0: 4176 05bd 6efc 87bc b244 0e3d f1d7 62bd
00000100: 87a8 f03c 03a9 45bc 8b64 66bd 8762 123c
00000110: ac85 12bd df94 46bc 35b1 36bd 9372 5abc
00000120: e1a0 853c 7bbf 9d3c b802 133d d09d 213c
00000130: 4993 44bd 3f8a 373c d819 c03c 3a60 6c3b
00000140: 20a5 4dbd 9c5b 45bc 598b 233d 39e9 783a
00000150: 031d 603d e43c 12bd 4c70 ea3c c27a 923d
00000160: 7d04 643c aabe b83c 3e5d 36bd 642a e8bc
00000170: 7f0e 06bc 1a86 b7bd c453 0e3d c3c4 e4bc
00000180: f916 25bd 6257 1fbd c589 4ebd bb9b 8bbd
00000190: ff9a 13bd b1f2 15bd 72ed 823d 52b1 3ebd
000001a0: 282c 903d c649 ac3d 673c bd3c cc73 41bd
000001b0: 8212 bf3c 1079 973d d4ef c93a 3fef 0abd
000001c0: 68ab 173b ea10 88bc 8229 8a3d 9a06 7c3d
000001d0: ec8e 013d 733b 343d 60cd 25bd 31b0 913c
000001e0: 5e9f 1d3c d2b3 80bc c308 d2bc 8ca2 14bd
000001f0: 72f9 2cbd 4dc9 6f3d dd5f cf3c 072e fe3c
00000200: ec29 02bd eec6 9cbb b04e a7bd 1352 e4bc
00000210: 736b ff3b 117d 433d 77c2 873b 4f80 733d
00000220: cd05 08bd dda7 7ebb 54ee a83c 7e27 293c
00000230: e6e9 f13a a7e3 f1bc 76a2 21bd 1dbc 3cbd
00000240: 5572 15bd b9d8 10bd b4fb 6ebb 9408 b33d
00000250: 7fc7 2e3c a0ee 2cbc 6fbd 9fba 324c 8f3b
00000260: cc75 1fbd d49b 0abd 627a 21bd 317b 863c
00000270: f833 f1ba e46f 6ebc 5837 9c3d 336e 063a
00000280: c345 babc df8c e4bb 2a40 923d 523d f1bc
00000290: 2d50 083d a54d 473d cb0b 9a3c 2b3f e5bc
000002a0: 192f f8bc 1f08 4abd abeb 34bd 57ad 41bd
000002b0: 324c d83c cd1d 0d3d e1ec 363c 20e1 57bd
000002c0: 3261 67bb 8bc2 963d 5568 febc 202d 873c
000002d0: 1084 26bd deac 05bd f1c9 0f3d b519 7ebb
000002e0: ce82 063c a1f8 043c 36c6 03bd b592 0fb8
000002f0: f5e8 62bd 5191 3c3d b354 52bc 9c3a 0b3c
00000300: 0e4c 89bd e948 87bd 9311 b0bc 8440 96bc
00000310: c4f7 30bd bc09 d83c fad9 34bc 169b e7bc
00000320: 4d6e 133c 5c3c 1f3d f2e7 80bd 2cdd b8bc
00000330: 240e 433c 0665 e43c 39d1 2b3c e220 c23b
00000340: 1855 583d 72ca 39bd ad2f 2cbd d9cb 33bd
00000350: 2978 74bd 321f 4b3a c763 c4bb 0084 24bd
00000360: 0f81 5bbd ca43 0c3d b125 59bc 2152 43bd
00000370: 3c23 2dbb c685 f43c fa84 eb3c bb0e 023c
00000380: e539 433d 3978 633d 168a f83c 1aaf 55bd
00000390: 9893 2ebd b3d9 b23b 975a 043c df54 e23c
000003a0: cff1 bd3c 213c a93c 8a10 20bc e560 103c
000003b0: 4689 24bc 3cb3 e13c f1d8 8dbb 9840 ffbc
000003c0: af08 cfbc 4650 f73b 27f3 793d d6a6 513c
000003d0: 90ac 7d3d f202 713b f390 10bd 618e 22bd
000003e0: 401b 31bd 785a 27bd 53c3 ef3c 83fd 2cbc
000003f0: ad1f d6bc 42a6 2f3d e150 1dbd 97d3 56bc

fc2.weight f4 [10, 256]
-0.037914615 0.001999628 0.009268162 -0.21850367 0.091976546 -0.014656046 0.07263344 -0.008956858
0.047525506 -0.019027753 0.020087538 -0.24412338 -0.0042807553 -0.15559879 0.024656657 0.0077183493
0.16682355 0.0022394604 -0.0013997746 0.06037178 -0.017864969 0.038190957 0.0681534 -0.039697994
-0.22698446 0.07254959 -0.20517878 -0.005415256 0.057345774 0.036309257 0.13065545 -0.020581767
-0.24199595 0.049286954 0.0765957 0.10479307 -0.047923185 0.13989003 0.12972303 -0.061982132
-0.19499381 0.03948956 0.02709286 -0.032110464 0.01747629 -0.22483481 -0.011772397 -0.3071602
-0.03474358 -0.2498767 0.037182767 0.033686098 -0.02525087 -0.0009787633 -0.028190564 0.08900063
-0.015639927 0.065496296 -0.15203431 -0.2534632 -0.24347709 0.07453956 0.021828594 -0.19014896
0.022320809 0.044355195 0.059148386 -0.038987353 -0.03358107 0.06504453 0.0082771005 -0.02202159
0.003959027 -0.027799893 -0.22776997 0.027027465 0.1047329 -0.007188863 -0.06042086 0.08819008
0.0031381154 0.053566843 0.11196824 0.08571201 -0.29852146 0.07686201 -0.223394 0.1162416
-0.009230496 0.08521005 -0.008088965 0.0038553418 -0.045641292 0.13617703 -0.15366425 -0.03067329
-0.052453343 -0.052131996 -0.01530392 0.019866116 -0.024917247 -0.06578905 -0.19025674 0.09170192
0.047206968 -0.2540473 -0.20615372 -0.029159939 -0.23416772 -0.23549384 -0.28810644 0.086750716
0.038900323 -0.053803276 -0.2597116 -0.19143507 -0.05100513 -0.15378256 -0.025861872 0.053217355
-0.28522456 -0.00052652915 -0.03815312 0.040341076 -0.05252232 0.054008856 -0.13779598 -0.043859623
0.012955161 -0.037491005 -0.0055278135 0.08023955 0.033307906 -0.25912297 -0.046022378 0.08029775
0.041234065 0.08897987 0.084118076 0.0472196 0.037012644 0.04021721 -0.021280784 0.025649246
-0.01627464 -0.051159546 0.029604105 -0.104360044 -0.024042051 -0.21399435 -0.02069128 -0.06918248
0.087971464 0.022801053 -0.14897688 -0.12266372 -0.04065104 0.011474266 0.06648515 0.09415392
-0.018077288 -0.14472733 -0.2263025 -0.051900975 -0.055099692 0.10742599 -0.040635083 0.10994084
-0.066511564 -0.027851086 0.08250281 0.0301825 0.07610282 0.07774243 0.045413934 -0.076085374
0.011389433 -0.15877001 -0.044930942 -0.26525548 0.016282305 -0.0136947 -0.30061138 0.013878287
-0.14123505 -0.012559584 0.00038622256 -0.19872952 -0.037071563 -0.37054726 -0.12494892 0.011547147
-0.10836923 -0.026038667 -0.026612008 -0.045789234 0.021776933 0.03629545 0.09400515 -0.0067554675
0.10843952 -0.20968375 0.016646234 0.023094162 -0.054227807 0.13565962 0.039533135 0.09271823
-0.105901554 -0.05113212 -0.2752427 -0.044619445 -0.0035669536 -0.2686615 -0.05414346 -0.0070060203
0.06089238 0.09909823 -0.11346727 -0.022434395 -0.050501075 0.113369174 0.079004414 -0.29319954
0.041132025 0.069185734 0.12056674 -0.0474487 -0.080686174 -0.024804255 -0.023919467 0.0061557502
-0.034857124 -0.016091421 0.033565737 0.10802398 -0.042039655 -0.002663772 0.11660876 0.018914642
-0.023604576 0.01893219 0.16356012 0.045101576 -0.13877572 -0.053996295 0.0212535 0.1353553
0.0019955977 -0.052343745 0.078915834 -0.061229255 -0.045326438 -0.15746008 -0.046028055 0.032256246
00000000: 5b4c 1bbd 310c 033b 7dd9 173c 6dbf 5fbe
00000010: 335e bc3d ea1f 70bc d7c0 943d c9bf 12bc
00000020: 1baa 423d 17e0 9bbc 9f8e a43c 7bfb 79be
00000030: 9445 8cbb 4a55 1fbe c2fc c93c 35ea fc3b
00000040: cbd3 2a3e e9c3 123b a478 b7ba 6648 773d
00000050: 8e59 92bc 1f6e 1c3d 0394 8b3d 5d9a 22bd
00000060: 9d6e 68be e194 943d 631a 52be 7672 b1bb
00000070: 67e3 6a3d 04b9 143d 8bca 053e 189b a8bc
00000080: c9cd 77be 1ee1 493d 35de 9c3d c09d d63d
00000090: 1a4b 44bd 553f 0f3e 1dd6 043e fae0 7dbd
000000a0: 75ac 47be cebf 213d d8f1 dd3c 4386 03bd
000000b0: 702a 8f3c 193b 66be 03e1 40bc 1a44 9dbe
000000c0: 494f 0ebd addf 7fbe f54c 183d 6ffa 093d
000000d0: eada cebc d949 80ba e6ef e6bc f645 b63d
000000e0: 4e1f 80bc ec22 863d e2ae 1bbe eec5 81be
000000f0: 0f52 79be 32a8 983d e1d1 b23c 69b6 42be
00000100: 21da b63c cbad 353d 9445 723d 34b1 1fbd
00000110: 4e8c 09bd 1136 853d ad9c 073c 9f66 b4bc
00000120: baba 813b 9abc e3bc 883c 69be b468 dd3c
00000130: 347e d63d 8e90 ebbb dd7b 77bd 009d b43d
00000140: d7a8 4d3b e868 5b3d 9b4f e53d c789 af3d
00000150: ced7 98be d469 9d3d 66c1 64be 1310 ee3d
00000160: 823b 17bc 9b82 ae3d 9487 04bc e7a9 7c3b
00000170: 5df2 3abd fe71 0b3e 295a 1dbe 8d46 fbbc
00000180: 51d9 56bd 5c88 55bd 4bbd 7abc 44be a23c
00000190: 411f ccbc 69bc 86bd aad2 42be 37ce bb3d
000001a0: 185c 413d 7d12 82be f619 53be d3e0 eebc
000001b0: aac9 6fbe 4c25 71be b082 93be 5caa b13d
000001c0: f255 1f3d d360 5cbd ebf8 84be 8e07 44be
000001d0: c1ea 50bd 2d79 1dbe 47dc d3bc 71fa 593d
000001e0: f408 92be c606 0aba 7246 1cbd af3c 253d
000001f0: a521 57bd 6438 5d3d 641a 0dbe 26a6 33bd
00000200: e241 543c 2b90 19bd a922 b5bb a254 a43d
00000210: df6d 083d c4ab 84be f681 3cbd 2673 a43d
00000220: 0de5 283d 143b b63d 1946 ac3d 5769 413d
00000230: 929a 173d cdba 243d 0a55 aebc 5e1e d23c
00000240: 6552 85bc ac8c 51bd 4f84 f23c b8ba d5bd
00000250: d6f3 c4bc 5621 5bbe c280 a9bc 8baf 8dbd
00000260: 622a b43d 46c9 ba3c 658d 18be 1e37 fbbd
00000270: b481 26bd 8ffe 3b3c 5e29 883d c5d3 c03d
00000280: d216 94bc 6733 14be d8bb 67be 1e96 54bd
00000290: 37b0 61bd 2802 dc3d f970 26bd aa28 e13d
000002a0: 3737 88bd f627 e4bc 3cf7 a83d 4a41 f73c
000002b0: ccdb 9b3d 6c37 9f3d f603 3a3d a6d2 9bbd
000002c0: bf9a 3a3c 9b94 22be 8209 38bd 91cf 87be
000002d0: 7862 853c bc5f 60bc bce9 99be c161 633c
000002e0: ec9f 10be b7c6 4dbc ea7d ca39 c07f 4bbe
000002f0: 5ad8 17bd 5fb8 bdbe 38e5 ffbd 3f30 3d3c
00000300: b0f0 ddbd 0b4f d5bc 6d01 dabc 7e8d 3bbd
00000310: 8a65 b23c 8aaa 143d c685 c03d f85c ddbb
00000320: 8a15 de3d 56b7 56be af5d 883c f82f bd3c
00000330: fa1d 5ebd 5bea 0a3e 7fed 213d 0ee3 bd3d
00000340: eae2 d8bd ea6f 51bd 9cec 8cbe e1c2 36bd
00000350: 8dc3 69bb 008e 89be 88c5 5dbd c292 e5bb
00000360: 4a6a 793d 03f4 ca3d 8761 e8bd 56c8 b7bc
00000370: 37da 4ebd 192e e83d 11cd a13d 401e 96be
00000380: 0e7a 283d 40b1 8d3d b2eb f63d 9159 42bd
00000390: cb3e a5bd 4b32 cbbc c2f2 c3bc 2db6 c93b
000003a0: 58c6 0ebd 28d2 83bc 3a7c 093d ad3b dd3d
000003b0: c631 2cbd ae92 2ebb 93d0 ee3d e1f2 9a3c
000003c0: 625e c1bc ae17 9b3c 4e7c 273e 6ebc 383d
000003d0: 391b 0ebe 382b 5dbd d21b ae3c 949a 0a3e
000003e0: 93c8 023b 6566 56bd a09e a13d 87cb 7abd
000003f0: 37a8 39bd 373d 21be ea87 3cbd 201f 043d

fc2.bias f4 [10]
-0.0032122321 0.06190174 -0.0715325 -0.041289132 -0.08648908 -0.081679165 -0.044195093 -0.010152706
0.06504967 -0.10963278
00000000: 5084 52bb ae8c 7d3d a27f 92bd cb1e 29bd
00000010: 3021 b1bd 6847 a7bd ea05 35bd 8957 26bc
00000020: c338 853d 2787 e0bd
