saved_models/mnist_qnn.pt (torch, 683561 bytes, 8 tensors)

conv1.weight f4 [32, 4, 3, 3]
000000 10 6a 23 3e 0b 9d 9a be c5 f6 de be 2f dc d4 3c
       0.15958428 -0.3019794 -0.43547645 0.025983898
000010 a9 13 9d 3e 09 1a 74 3e 17 bb 41 3e 1d 4d 91 bd
       0.30679062 0.23838057 0.18919025 -0.07094786
000020 f4 1c 5a be 66 bd 15 3e f6 e4 b9 3e f1 9b 93 3d
       -0.21300107 0.14623031 0.36307496 0.07207478
000030 b2 ae ff 3c 01 8a bd be f5 41 8a 3e 83 ab 23 be
       0.03121123 -0.3701935 0.27003446 -0.15983395
000040 21 09 10 3e 90 3c 86 3e dc 5d 7c 3e f2 76 9f 3e
       0.14065982 0.2621808 0.2464518 0.31145436
000050 e1 d4 2a 3e 7c 3c 38 be 17 d2 99 be e3 df 21 bd
       0.1668277 -0.17991823 -0.30043098 -0.039520156
000060 f0 7f 55 3d f5 e5 5d 3d 8f d4 d7 bb 8d dc a2 bd
       0.052123964 0.054174382 -0.0065866183 -0.07952223
000070 38 49 5b 3e c5 34 92 3e 84 53 82 3d dd 0c aa 3e
       0.2141465 0.28555885 0.063635856 0.3321294
000080 ba 9b 27 be 28 77 e6 3c a7 d4 e8 3d 5a bc 88 bd
       -0.16367999 0.02813299 0.11368685 -0.0667655
000090 12 c0 c8 3d 2e 80 80 be 02 7e 86 bd c6 f8 1b 3e
       0.098022595 -0.25097793 -0.06567003 0.15231618
0000a0 30 a1 a9 be ea e2 f2 bd c4 83 e0 3c c6 3f 65 bd
       -0.3313079 -0.11859687 0.02740658 -0.055969022
0000b0 e8 52 b1 be dd 43 6a 3e 6f 58 f3 3e 95 8b fb bd
       -0.34633565 0.2287745 0.47528407 -0.122824825
0000c0 20 49 25 bd f5 f6 e0 3e 96 12 98 be 3d 77 bb bd
       -0.04035294 0.43938413 -0.2970168 -0.09153602
0000d0 5a be b8 3e 79 69 f8 3c 13 f5 44 be bc be 94 3e
       0.36082727 0.03032373 -0.19234113 0.2905177
0000e0 7c 15 13 3e 25 5b ab be 0e aa 19 3e ce 88 d6 3e
       0.14363664 -0.33467975 0.15006277 0.4190125
0000f0 c6 94 fd bc 29 40 cb 3d 19 5a 1c 3e 25 97 23 bd
       -0.03095473 0.09924347 0.15268745 -0.039939065
000100 2e ea c8 bd f8 3f 80 bd cd ea 3a be c1 08 5a be
       -0.09810291 -0.06262201 -0.18253632 -0.21292402
000110 4c d7 b0 3d 82 18 a9 bd e6 91 65 bd 7f 2e 2c 3d
       0.086348146 -0.082566276 -0.056047343 0.04203653
000120 5a 3e a7 3d 96 36 c3 bd ce d0 0e be 8f f1 1b 3d
       0.081661895 -0.09531896 -0.1394684 0.038072165
000130 58 9c b7 be 8b fe d4 3d 98 9d 92 3d 6a bf 7e bd
       -0.35861468 0.10400113 0.07158965 -0.062194265
000140 87 fe 81 3d 50 38 92 be 25 77 be 3e 91 4d 8b be
       0.06347375 -0.28558588 0.37200275 -0.27207616
000150 7a ee 8d 3e 07 f0 db bb d6 5d d5 bd 27 be b1 3e
       0.27721006 -0.006711963 -0.104182884 0.34715387
000160 0b 87 aa 3b 56 2e 09 3e 66 88 bd be 1f 39 9f 3e
       0.0052040867 0.13396582 -0.37018126 0.31098267
000170 0e a0 1f bd 2b 75 1b bd d2 d7 6d 3e 64 ca 8e be
       -0.038971 -0.037953537 0.2322686 -0.27888787
000180 f3 44 5a 3c c8 88 2f 3e cc a4 80 3d ad 15 33 bd
       0.013322103 0.17142022 0.062814325 -0.043721844
000190 d1 f9 33 3c ec 5c a3 3d 99 6d 75 bd 5e 39 ca bd
       0.010984854 0.07976708 -0.059918974 -0.09874223
0001a0 e2 b1 1c 3e bd 9f fb bd 2f c1 13 be 87 26 de 3c
       0.15302232 -0.12286327 -0.14429162 0.02711798
0001b0 43 d4 eb 3b 6a b8 54 3e 89 a3 0e bd e3 bb 05 be
       0.0071969344 0.20773473 -0.034823928 -0.13059954
0001c0 c3 c1 39 be e1 7c 8c be b0 f6 c1 3c 00 d4 91 bb
       -0.1814032 -0.27439025 0.0236772 -0.004450321
0001d0 b2 b3 49 3d d1 83 64 be 3b 3c e8 bd 01 6e f0 bd
       0.049243636 -0.22315909 -0.11339613 -0.117397316
0001e0 d0 1e 86 3e cb 23 07 3e ca bf 79 3e c5 25 0c be
       0.26195383 0.13197248 0.24389568 -0.13686283
0001f0 5c 86 d3 3c 52 98 cb ba 00 07 1f be 2e 58 17 be
       0.025820903 -0.0015533066 -0.15530014 -0.14779732
000200 f4 ce d2 bd 36 69 39 3e 59 ba b2 3e 27 4c 78 3d
       -0.102933794 0.18106541 0.34907797 0.0606195
000210 ce 53 84 be a9 f3 84 be ed a5 82 bd c9 c2 32 bd
       -0.25845188 -0.25967148 -0.06379304 -0.043642793
000220 eb ca 9f bd 7e c7 2d bd 4d 7e 1e 3e e8 b9 ef 3c
       -0.078023754 -0.04242658 0.15477867 0.029263452
000230 d2 d2 81 be 60 58 0b 3c 78 c8 8f 3e 3d a7 8a bc
       -0.25356156 0.008504957 0.28082633 -0.016925449
000240 08 f9 4a be e7 3b b1 bd d1 e6 27 be 81 f0 3d bd
       -0.1982156 -0.086540036 -0.16396643 -0.04637194
000250 83 7a 43 bc 09 09 3d be b0 da 81 3e ea b9 c0 3d
       -0.011931065 -0.18460478 0.25362158 0.0941046
000260 e5 c1 87 be 89 9a 43 3d 1e 69 1e 3e bb 2a e7 3d
       -0.26515117 0.047754798 0.15469787 0.11287447
000270 93 81 65 be b7 fb 89 3d ea ee e7 3d 8c 32 35 be
       -0.2241271 0.06737464 0.11324866 -0.17695063
000280 5a 0c 11 be ef 2c ae 3e 5a ef 5c bb 46 5a 53 3e
       -0.14164868 0.34018657 -0.0033712 0.20639905
000290 49 23 3b 3e 08 c0 2b be b4 c9 96 be 29 02 ca 3d
       0.18275179 -0.16772473 -0.29450762 0.09863693
0002a0 9e 4e fd bd 2d c9 e0 bd f7 a7 94 3e d7 82 79 3d
       -0.12368511 -0.10975871 0.29034397 0.060915794
0002b0 89 2e 03 bd 2a 96 56 3c 03 2d 7f 3e 82 18 67 3e
       -0.0320268 0.013097325 0.24919514 0.22567943
0002c0 8c 84 16 3e fd 58 2a 3d da 57 a8 3d d1 c6 fd bd
       0.14699 0.041588772 0.08219881 -0.12391437
0002d0 8d 78 29 3e 3c 3b 54 bd 24 12 02 3e df eb cd bd
       0.16549893 -0.051814303 0.12702233 -0.100547545
0002e0 77 7d 99 3d 02 fe 57 be 56 84 7c be 17 f0 07 3e
       0.07494634 -0.2109299 -0.24659857 0.13275181
0002f0 3d 74 69 be 3d 5f 7a bd 36 50 4e 3e 60 c5 9e be
       -0.22798248 -0.061125983 0.20147786 -0.3100996
000300 a3 e3 f8 3d 49 96 e3 3c de d2 9f be c8 34 b0 bd
       0.12152793 0.027781622 -0.31215566 -0.08603817
000310 57 a7 1c be 04 2b 0e be 0c 02 61 be a9 77 b2 bc
       -0.1529821 -0.13883597 -0.21973437 -0.021785574
000320 a8 af 6a bd f3 cb 13 3e 37 5c a4 3d 76 6f bc 3e
       -0.057296425 0.14433269 0.08025401 0.36803788
000330 43 24 d6 bd fe 9b 5a bd dd 9b 2c 3e a1 b1 0e bd
       -0.10456135 -0.053371422 0.16856332 -0.03483737
000340 e8 d2 e3 3c 63 c7 23 bd 77 85 2a bd fd 61 98 3d
       0.027810529 -0.039985072 -0.04163119 0.07440565
000350 1e 55 12 3e df 35 26 be f7 fa 1c be ad 06 35 3d
       0.14290282 -0.16231488 -0.1533011 0.04419582
000360 a4 29 d6 bc 7c 37 19 be 3c 85 50 3e 27 73 64 be
       -0.026142903 -0.14962572 0.20363325 -0.22309552
000370 40 94 65 3c a8 c9 ca 3d 27 89 13 be 74 6d 98 3d
       0.014012396 0.09901744 -0.14407788 0.074427515
000380 07 ab 47 3e 1c 31 62 3e d6 a0 00 3e 98 7d 78 be
       0.19498836 0.22089046 0.12561354 -0.2426666
000390 db d9 a8 3e 8e a2 90 be 97 b9 6f bd 6f f8 6d 3c
       0.3297871 -0.2824902 -0.0585266 0.014524563
0003a0 6d 98 1f be 6c 9d e0 bd 8e 3c e4 3d b3 d5 9e 3e
       -0.1558549 -0.10967526 0.111443624 0.31022415
0003b0 d8 bb 5b be a5 1d 9a 3e a2 29 58 bd a9 74 30 be
       -0.21458375 0.30100742 -0.05277408 -0.17232002
0003c0 ec 6e ff bd a4 49 c4 bd 98 66 5b bd 7b a1 95 bd
       -0.124723285 -0.09584358 -0.053564638 -0.073061906
0003d0 cd f9 8e 3e 68 e2 c7 3d 6f 35 91 bb b2 9b df bd
       0.27924958 0.097599804 -0.0044314186 -0.109183684
0003e0 55 4b a2 3d 4e 17 40 bc e0 48 ce bd c0 d8 d8 3d
       0.07924525 -0.011724306 -0.100724936 0.10588217
0003f0 03 90 2d be ae 99 0e be 29 d4 3f 3d 3a 7c 2a be
       -0.16949467 -0.13925812 0.04683319 -0.16648951

conv1.bias f4 [32]
000000 1e ae 17 bc be f3 65 be 60 99 00 bd 04 0a 79 be
       -0.009257821 -0.22456262 -0.03139627 -0.24320227
000010 0b 3a c3 bd dc 02 49 be 92 1f d8 bd 28 a6 0a be
       -0.09532555 -0.19629997 -0.105528966 -0.13539946
000020 9f a4 43 bd 86 f0 dc bc 73 3c 8d bc 7f 26 7b bc
       -0.047764417 -0.02697016 -0.017240738 -0.015329002
000030 6d b7 1a bd e1 84 78 bd 0b e5 9d bb 1d 71 b9 bd
       -0.037772585 -0.0606736 -0.004818564 -0.09054778
000040 fd 2f 18 be 05 11 ab 3d 3a 23 c7 bc 7d 8a ae bc
       -0.14862056 0.083528556 -0.02430879 -0.02130627
000050 22 dd 90 bd d9 08 18 be e4 0f 7f be 24 80 76 bd
       -0.07073428 -0.14847125 -0.24908406 -0.0601808
000060 83 06 59 3d d5 2d 6c 3d 2f a9 8f 3d a8 53 ab bd
       0.052984726 0.057660896 0.07014691 -0.083655655
000070 09 91 e4 3d 3c e7 cc bd 2a a4 98 3b 59 eb da 3d
       0.11160476 -0.10005042 0.0046582418 0.1068942

conv2.weight f4 [64, 32, 3, 3]
000000 53 f4 ab bd d3 e0 8e bd 29 fd a4 3d 9e 9d dc bc
       -0.083962105 -0.069764756 0.08056099 -0.026930626
000010 dc 04 6c be 3c da bb 3b c0 54 7a be 99 61 50 bd
       -0.23048729 0.0057328027 -0.24446392 -0.050874326
000020 38 20 3b bd 2f 8c 74 3d ac 7d d9 ba dd 4f 16 3c
       -0.045685023 0.059704002 -0.0016593239 0.009174314
000030 da 4f 1d bd 56 a1 75 bd 5f 55 8f 3d 37 3b 87 bd
       -0.03840623 -0.059968315 0.06998705 -0.06603091
000040 99 8f 57 3d 65 86 c3 bd bd 90 af 3d d2 9e 86 bc
       0.05262718 -0.09547118 0.085725285 -0.016433153
000050 41 6d c8 bb 9d c8 82 3b ff 11 4d 3e 34 85 05 3e
       -0.0061165397 0.0039912 0.20026396 0.13039094
000060 35 e2 1a ba 1b a4 7e 3e e4 41 92 3c 1f ef b7 bd
       -0.0005908341 0.24867289 0.017853685 -0.089811556
000070 1b 69 30 be f2 63 eb 3c f2 40 0a be 9d 05 2f be
       -0.17227595 0.028734181 -0.13501337 -0.17091985
000080 91 fb 23 bd 8d 11 0b 3d 4a 07 8c bd 29 d5 ae 3d
       -0.040034834 0.033952285 -0.06837328 0.08536751
000090 9e db d2 3d 4e 02 33 bb 29 50 c8 3d 95 28 1d 3d
       0.10295795 -0.0027314606 0.09780914 0.03836878
0000a0 cc 1a bb bd 1c 87 96 bd 02 6c e5 bd 70 17 a7 bb
       -0.091359705 -0.07349989 -0.112022415 -0.0050992295
0000b0 5c fc 36 be 02 25 af bc 59 bf a8 b9 66 aa 0a bd
       -0.17869705 -0.021379951 -0.00032186022 -0.03385391
0000c0 36 2b 4b bd 75 78 a4 3d f3 fb 00 bd 48 ce 01 3c
       -0.049601756 0.08030788 -0.031490277 0.007922716
0000d0 63 41 b7 3d 72 1c 95 bd 2c 54 a6 3d 2d af f2 bd
       0.089480184 -0.07280816 0.08121523 -0.118498184
0000e0 a2 8e 53 bb fd 97 8a 3d 1c 61 81 3d 56 a9 1a 3e
       -0.003228106 0.06767271 0.0631735 0.15103659
0000f0 d2 31 85 3d e2 50 1c bb 6c f9 92 bc 57 17 e3 bb
       0.06503643 -0.002385192 -0.0179412 -0.0069302726
000100 fc a5 21 3c 0e 3c 40 bc e1 ee 30 bd a5 0c 8d be
       0.009866234 -0.011733068 -0.043196563 -0.2754871
000110 69 92 00 3d 75 60 8d 3b f5 fa e7 bb d1 85 d1 3b
       0.031389628 0.004314477 -0.007079477 0.006394126
000120 9f 94 c4 bc 25 ac b4 bc a3 03 d4 bd c3 d7 09 3d
       -0.02399665 -0.022054741 -0.10352256 0.033653032
000130 b5 d2 0a bd 9a 55 22 bd be 21 d9 bc ab 1d 21 bd
       -0.033892352 -0.039632417 -0.026505347 -0.039334934
000140 a2 f9 ee bd fa f5 18 3d 45 ea 30 3d a5 02 19 3d
       -0.116687074 0.037343957 0.043192167 0.037356038
000150 4b 20 0a be 8a fd 9e bc ec e0 42 3e 1e 75 e4 bd
       -0.13488881 -0.019408006 0.19031113 -0.11155151
000160 19 81 42 3e aa 14 97 bc 3f 20 bf bd c5 ac 12 bd
       0.1899456 -0.01844247 -0.09332322 -0.035809297
000170 42 c8 7e bd dc 58 40 bd 36 90 73 bc 59 5d e1 bd
       -0.0622027 -0.046959743 -0.014865926 -0.11004133
000180 ae f5 35 bd ae fb ff bd ab 0d 0a be 9e 04 51 bd
       -0.04442375 -0.12499176 -0.13481776 -0.051029794
000190 c3 31 05 3e 5a fa ff 3b d8 07 85 bd 7c 09 af 3b
       0.13007264 0.0078118267 -0.06495637 0.005341707
0001a0 57 6a fb bd a7 10 e9 bc dd 88 2b bd f9 3d 73 bd
       -0.12276142 -0.028450323 -0.04187857 -0.059385274
0001b0 aa 32 d0 3d d9 83 33 be 3b 5d bf 3c a1 bb 5a be
       0.101659134 -0.17530765 0.023359885 -0.21360637
0001c0 16 d5 88 be 93 f2 fc bd 0a bc 0d bd b1 fc ef bd
       -0.26725072 -0.12350955 -0.034603156 -0.11718119
0001d0 b6 57 6d bc 3e b9 ab bc 05 f7 13 be a4 80 90 bd
       -0.014486244 -0.020962354 -0.14449699 -0.07055786
0001e0 ae c2 04 be f8 20 8a be 13 89 0f be 3a de 11 be
       -0.1296489 -0.26978278 -0.14017133 -0.14244929
0001f0 66 db 98 3d 48 03 45 3e 33 d9 91 3c 20 41 49 be
       0.07463722 0.19239533 0.017803764 -0.1965375
000200 82 42 1d 3c 09 88 e4 bd 06 9f 42 be 8a 72 40 3d
       0.009598376 -0.11158759 -0.19005975 0.046984233
000210 c7 ee 15 be 6a 6a 80 3c 57 3f 86 3a 53 fb 34 3d
       -0.14641868 0.015675742 0.0010242265 0.044184994
000220 bd a3 fe bb 29 d5 05 3e f0 3a b1 bb 82 72 84 bd
       -0.007770984 0.13069595 -0.005408637 -0.06467153
000230 4c 49 10 be 11 fe 10 bd 17 fb b2 bd 40 27 6f bd
       -0.1409046 -0.035398547 -0.08739298 -0.05838704
000240 05 4a a8 3d a0 7c 82 bd dc c2 60 3d 63 09 dd bd
       0.08217243 -0.063714266 0.054873332 -0.10792806
000250 b7 b2 7c be 21 3c 2d be f7 e0 43 be 2d 22 45 be
       -0.2467755 -0.16917469 -0.19128786 -0.19251318
000260 d0 7c 8c 3b ea d6 9e 3c 35 b6 e3 3d 57 e5 0f 3e
       0.0042873397 0.019389588 0.111187376 0.1405233
000270 64 04 1a be 3f 2f e4 3d 12 06 bd 3c e6 e5 b2 3d
       -0.15040737 0.11141824 0.023074184 0.08735256
000280 36 70 be 3c 08 7d eb bd 57 8c ab 3c 52 ea c0 3c
       0.023246866 -0.11498457 0.020940943 0.023549233
000290 e0 a6 3c bd 65 cc 06 be 37 a4 2b be 8d 9d 01 be
       -0.046057582 -0.13163908 -0.16761862 -0.12657757
0002a0 51 29 cc 3d 52 14 c4 bd 8b 9f ea bc 0d 36 f0 b9
       0.09968818 -0.09574188 -0.02864053 -0.00045816638
0002b0 37 95 a5 bd bc 36 0f 3d f2 e6 ec 3d 92 f2 25 3e
       -0.08085101 0.03496431 0.11567487 0.16205814
0002c0 00 7b 53 3e 62 45 84 3d 5f 15 04 3e 99 15 a0 bc
       0.2065239 0.06458546 0.12898777 -0.019541549
0002d0 48 ed 06 be b7 58 fd 3d 1f b6 98 bd f8 9d cd 3d
       -0.13176453 0.12370437 -0.07456612 0.10039896
0002e0 28 51 a6 bd 5d 03 28 be ff 98 03 be 55 29 f4 3d
       -0.08120948 -0.16407533 -0.12851332 0.11921946
0002f0 bc be 1f 3d 44 46 7d 3d 4d 2a 80 3e 01 e5 1e be
       0.039000258 0.06183459 0.25032273 -0.15517046
000300 10 65 ac 3d 79 86 9a bd 41 41 67 bd 31 42 c7 3c
       0.08417714 -0.0754518 -0.056458715 0.024323555
000310 a7 1b db bd 9e ee 03 3d 5e a4 7f 3d 57 79 86 bb
       -0.10698634 0.032209985 0.062412612 -0.0041038203
000320 c4 83 54 bc 3b bf 5f bd c2 51 ce 3d 07 84 22 be
       -0.0129708685 -0.05462573 0.10074188 -0.15870677
000330 10 b9 9e bd f0 e0 44 bc 7b 6c 09 bd 9a a0 10 3d
       -0.077501416 -0.01201652 -0.03355072 0.03530941
000340 c8 e6 80 be 8a 37 cf 3d 1c f8 66 3b e6 d4 0d bd
       -0.25176072 0.10118015 0.00352431 -0.034626864
000350 4a 38 a9 3d ae e4 0a 3d f7 95 09 bd 44 bc ff 3d
       0.082626894 0.033909492 -0.033590283 0.12487081
000360 24 b5 99 3d 16 fe d0 3c b0 8d 6e 3d 7a 04 35 be
       0.07505253 0.025511783 0.058240592 -0.17677489
000370 da ff 77 bd a8 61 ae bd 20 a3 27 3e 19 b8 61 be
       -0.060546733 -0.0851472 0.16370821 -0.22042884
000380 4b bf c0 3d 23 1c 46 bd 8a 95 1a 3d 18 c1 01 bc
       0.09411486 -0.048366677 0.037740268 -0.007919572
000390 c1 80 8b 3d 04 53 13 3e 62 de 8a bd d1 65 92 3d
       0.06811667 0.14387137 -0.067806974 0.07148326
0003a0 be bb 1c 3d eb b7 5d be f9 67 5d 3e 41 8d a9 3d
       0.038264982 -0.2165219 0.21621694 0.08278895
0003b0 c7 68 83 be 3b 2d 1c 3e 9a d7 01 3d 9c 82 15 bc
       -0.25665876 0.15251629 0.031699754 -0.009125378
0003c0 1d a6 9a 3d 2d 77 34 3d c1 7b 6d 3b 68 b9 b5 3d
       0.07551215 0.044058967 0.0036237093 0.08873254
0003d0 da ef c4 3d be 28 f3 bd 8d 9e 39 3d 1e 71 ef bd
       0.096160606 -0.11873005 0.04531722 -0.11691497
0003e0 0c 45 ec bc f7 8f 5f bd 6e af 60 bc 9d c8 7e 3b
       -0.028841518 -0.054580655 -0.013713701 0.00388769
0003f0 e7 ee 53 3d 59 af 63 3e d1 6e 72 3e 2d 59 6c 3d
       0.051741507 0.22234859 0.23675086 0.057702232

conv2.bias f4 [64]
000000 ec 0c 12 bd 49 d6 f2 bd 2d 85 83 bd b6 9f 04 bd
       -0.035656855 -0.11857278 -0.06421886 -0.032378875
000010 a6 3d d5 bc 31 b9 ba bd b7 20 b2 bd 89 97 ad 39
       -0.026030373 -0.09117354 -0.08697646 0.00033110034
000020 d3 ad 1c bd 0a 2e e8 bd 38 5f ce bd 6b 52 1e bd
       -0.03825171 -0.11336906 -0.10076755 -0.03865282
000030 ba c5 79 bd 94 05 82 bb 4e d1 8e bd d9 eb ef bd
       -0.060979582 -0.00396795 -0.069735155 -0.11714906
000040 dc f0 8c bd 79 75 e5 bd 8a b0 a4 bd 3d 27 6a bc
       -0.06881878 -0.11204047 -0.08041485 -0.014291582
000050 60 4b ae bc 8e 5a a6 bd 3f e7 4f bc a9 42 c2 bd
       -0.021276176 -0.08122741 -0.012689411 -0.09485371
000060 27 48 83 3c e6 14 bf bd 9d f5 aa bd e4 7a 9a bd
       0.016025616 -0.09330158 -0.08347628 -0.07542971
000070 76 29 18 bd 55 af 6e bd 20 e8 77 3d f7 fe 6e bc
       -0.037148915 -0.05827268 0.060524106 -0.014587156
000080 f0 47 12 bc cf a3 4b bd 35 5e 67 bd 3d 06 c8 bd
       -0.008928284 -0.049716767 -0.056486327 -0.09766815
000090 a2 80 e7 3c 0e 61 c6 bc 45 10 b4 bd 0d 51 64 bd
       0.02825958 -0.024216201 -0.08792166 -0.05574136
0000a0 15 9a 7c bd 09 9a 89 bd 16 c7 85 bb 0d 76 47 3c
       -0.06167038 -0.06718833 -0.004082571 0.012174142
0000b0 a9 8a 30 bd 8b ce 27 bd 76 f5 0a bd 74 bf cf bd
       -0.043100987 -0.04096846 -0.033925496 -0.10143939
0000c0 5d 87 87 bd 74 62 1e 3b 5e f4 f0 bd bd ea 48 3d
       -0.06617615 0.002416757 -0.11765359 0.04905199
0000d0 79 d8 97 bd 96 60 56 bd 9e ec 04 bd 67 2e 88 bc
       -0.07414336 -0.052338205 -0.03245222 -0.016623689
0000e0 93 8e 37 bd 1b 4d c5 bc 49 7b 5d bd 6f 88 25 bd
       -0.044813704 -0.024084618 -0.054072652 -0.040413316
0000f0 e8 9a 91 bd 37 88 e1 bd cd d9 ac bc d0 bd be bc
       -0.07109624 -0.11012309 -0.02109995 -0.023283869

fc1.weight f4 [256, 576]
000000 8e fd 6e bd 28 69 87 3d b5 97 b8 bd ce 11 ac 3a
       -0.058347277 0.06611854 -0.09013311 0.0013127865
000010 9e 88 01 3e 4e db 28 3d 7e c1 54 3d 76 c6 13 bd
       0.12649772 0.04122477 0.05194234 -0.03607794
000020 72 d4 85 3c f5 90 19 bd eb fe 06 bd fd b1 13 3d
       0.016336653 -0.037491757 -0.032957952 0.036058415
000030 53 fe 1d 3d 15 99 54 be 4b 35 72 bd 9e 68 da 3b
       0.03857262 -0.20761521 -0.059132855 0.0066653034
000040 c6 61 ac bd d9 20 15 3e 46 20 be bb 49 e8 1b bd
       -0.08417086 0.14563312 -0.005802187 -0.03806332
000050 a3 33 7f bd a4 59 9d 3c 80 bd 94 bd d9 3e a8 bd
       -0.062305104 0.019207783 -0.07262707 -0.08215112
000060 7d f2 bd bd ad e8 84 3c 22 4d 0b be 91 69 c6 3b
       -0.092747666 0.01622423 -0.13603643 0.006055065
000070 91 4d 5c 3d 5c 7b b6 bd 43 17 b3 bd 09 69 17 bd
       0.05378491 -0.08910248 -0.08744671 -0.036965404
000080 81 90 53 be af ad c4 3c a0 41 09 3e e9 e0 ce 3d
       -0.20660593 0.0240086 0.1340394 0.10101492
000090 a5 be 60 3d c5 b7 d6 bc 7f 36 32 3c a2 38 3d bd
       0.054869313 -0.026210675 0.010877251 -0.046196587
0000a0 8a 03 f7 bd 5c 63 a5 3d 3a 98 50 3d c1 37 a6 3b
       -0.12061222 0.08075592 0.050926425 0.0050725644
0000b0 c7 6e 70 3a b9 f0 50 3d fd 14 6f 3d 3a 4f 0b 3e
       0.00091717805 0.05101082 0.058369625 0.13604441
0000c0 0f 40 30 3d 6a 5b b0 bc 02 95 6d bd 40 a7 66 3d
       0.04302984 -0.021527965 -0.058003433 0.056311846
0000d0 88 bd 73 bd ba 2c e5 bd 96 43 23 bd 59 8e 16 bd
       -0.059506923 -0.111901715 -0.039859377 -0.036756847
0000e0 91 07 ea bb 55 36 07 3b 24 4b 89 3d 60 11 78 3c
       -0.0071420153 0.002063175 0.06703785 0.015140861
0000f0 85 c1 1e bd d8 77 97 3d 8e 72 ba bd 95 a8 97 3d
       -0.038758773 0.07395905 -0.09103881 0.07405201
000100 d0 59 a3 bd bb a2 d4 3b cb 86 7a bb a1 38 3c be
       -0.07976115 0.0064891255 -0.0038227316 -0.18380977
000110 ef 88 ad bd 5e 41 8f bd 0c 88 dd 3d b2 e6 e8 3d
       -0.08473384 -0.0699489 0.108169645 0.11372127
000120 1a e6 dd bc 70 b5 c6 3d 53 62 42 3e e5 68 48 3c
       -0.02708726 0.09702575 0.1898282 0.01223204
000130 7c 5a 8a bb 8a 84 3e bd 0f fe 0d be 7f f6 8b bd
       -0.0042222124 -0.046513118 -0.13866447 -0.06834125
000140 76 43 33 3c a5 28 23 bd 34 02 af bc c5 15 4a 3c
       0.010941377 -0.039833684 -0.021363355 0.012334292
000150 6d 31 e7 ba 49 89 1a bd e6 6f 6d 3b cf 4f 2b be
       -0.0017638631 -0.03772858 0.0036230027 -0.16729663
000160 e0 a2 07 be 9f 21 15 3d b4 19 21 3c 9b c6 7d 3d
       -0.13245726 0.036409017 0.009832788 0.061956983
000170 c8 d4 e0 3a 42 53 75 3d df e2 07 3e 2d 8a d4 bc
       0.0017153258 0.059893854 0.13270138 -0.025944794
000180 d2 61 05 be cd 02 31 3d e4 44 bd bc fd a3 dd bc
       -0.13025597 0.04321556 -0.023104139 -0.027055735
000190 80 14 1b be f2 41 f6 bd 54 b3 90 3d 86 e7 24 3c
       -0.15144539 -0.12024297 0.07065454 0.010064965
0001a0 c4 19 df bc e7 52 ee bc 38 9c 38 3d da 37 4b 3d
       -0.027233966 -0.029092265 0.045070857 0.04961381
0001b0 06 9c 6a bd 80 cc cd bd fa a4 85 bd fb 8a 54 3d
       -0.0572777 -0.10048771 -0.065256074 0.051890355
0001c0 ae 76 e5 bc 25 04 a5 3d 14 7d 3a be c7 24 22 bd
       -0.028010692 0.08057431 -0.18211776 -0.039585855
0001d0 36 13 fe 3d 4e 0d 0a 3e 84 62 c4 3d 98 62 48 3e
       0.12406008 0.13481638 0.09589103 0.1956886
0001e0 36 db 0f be 1f 92 b5 bc 75 8e a1 bd 8c 60 14 bd
       -0.14048466 -0.022164403 -0.078885 -0.036224887
0001f0 00 37 94 3d 2a 51 d5 bd 76 22 31 bc f2 29 96 3c
       0.07237053 -0.104158714 -0.010811439 0.018330548
000200 bf 5b fd 3b 23 5b 27 bc 60 74 09 3e 7a ab 1a bd
       0.0077318843 -0.0102146 0.134233 -0.03776119
000210 bd 28 23 be c7 77 42 3c 32 c5 17 3d 04 b5 ba 3d
       -0.15933509 0.011869377 0.037053294 0.09116557
000220 41 8b 16 bc ca 17 1c bd 03 bf e3 3b a0 39 02 bd
       -0.009188474 -0.038108625 0.0069502606 -0.031793237
000230 28 51 fd 3d 8e 3c 18 3d 1b d9 2e bd 0e 2e 3f bd
       0.12368995 0.037167124 -0.042687517 -0.04667478
000240 e5 bd f4 bb 9e 8c b2 3c 36 27 60 bd ec 1b 3a 3d
       -0.0074689263 0.021795567 -0.054724894 0.045436785
000250 63 7a 4b bd 61 bf 8a bb a1 b3 e4 ba 6f b3 0b be
       -0.049677264 -0.00423424 -0.0017448553 -0.13642667
000260 6f 6a 6f 3d fc 67 a2 bd 63 e7 16 3e 18 55 35 3d
       0.058451112 -0.0792999 0.14736705 0.044270605
000270 26 62 f1 3d 54 20 2b bd cf 22 93 bd d3 62 f1 bc
       0.117862985 -0.041778877 -0.071843736 -0.029466068
000280 ee 17 62 bd 9b 08 08 bd 05 35 ee bd 40 b7 77 3c
       -0.055198602 -0.03321133 -0.116312064 0.015119374
000290 60 42 f9 3c 8b 8d 25 3d 5f 63 63 3e d9 0c 16 3e
       0.030427158 0.04041819 0.22205876 0.14653338
0002a0 58 f4 d7 bd 63 99 46 3d cf 6c f6 3b e0 89 9b 3d
       -0.10544652 0.048486125 0.007520295 0.07594657
0002b0 c1 80 6a bc 2a 68 71 bd 42 f3 ca 3c ec 02 45 bd
       -0.014312924 -0.05893723 0.024774197 -0.04809849
0002c0 a5 0f 2c 3b 72 fe 3f be ff 17 2b 3e 82 a9 a0 3c
       0.0026254442 -0.18749407 0.16708373 0.019612078
0002d0 6f c9 9e 3d 60 57 5c 3d a4 d8 d9 bc df 9d 34 bd
       0.07753264 0.053794265 -0.02659256 -0.04409587
0002e0 95 90 c5 3c e7 5a b7 3c 0b 61 8d bd 4c 5e 80 bd
       0.024116794 0.022382213 -0.06903275 -0.06267986
0002f0 90 9f 53 3c 9b a4 2d 3c 49 6f 0a 3e 57 c2 3a be
       0.012916461 0.010598327 0.13519014 -0.18238197
000300 a7 8e 13 3d d8 ee 69 bd 49 50 88 3d 5e 7d 83 bd
       0.036024716 -0.057112545 0.06655938 -0.06420396
000310 37 b2 00 be b8 d0 49 bc 97 e0 48 3d 6c 22 1f bd
       -0.12567984 -0.012317829 0.04904231 -0.038851187
000320 f4 eb be bd fe 3b c4 3d 00 cd 74 3d 47 0f c6 bd
       -0.09322348 0.09581755 0.059765816 -0.09670883
000330 f3 6a 97 bd 3d 28 87 3d a1 e9 c8 3d 75 f0 a4 3b
       -0.07393446 0.06599472 0.09810186 0.0050335475
000340 d2 25 c0 3d 71 fd d6 3d 00 9c 47 3d c7 e5 e1 3c
       0.09382214 0.10497559 0.048732758 0.027575387
000350 33 90 bf bd 06 75 44 ba 92 32 96 bc 22 26 18 bd
       -0.09353676 -0.00074942445 -0.01833466 -0.03714574
000360 20 8f 90 3c 3f 94 be 3d 13 34 bf bb 26 5c 6d bd
       0.017646372 0.093056194 -0.005835065 -0.057949208
000370 76 c2 8b 3d f8 0f 97 bd 82 36 ea 3d 93 cc f3 bc
       0.068242 -0.07376093 0.11436178 -0.029760635
000380 74 83 34 3e 09 08 0e 3d 65 15 3e bd a7 7e f4 b9
       0.1762827 0.03467563 -0.046407122 -0.0004663367
000390 ed dd 1e ba 25 e3 f3 3c f6 85 09 3d 12 93 ad bd
       -0.0006060291 0.029771397 0.03357502 -0.08475317
0003a0 68 38 02 3e fa 3d d6 3d ba 85 25 bd 13 92 94 3e
       0.1271683 0.1046104 -0.040410735 0.29017696
0003b0 d9 38 50 3d 46 21 81 be 41 e7 2c bd 4c bf c8 3d
       0.050835464 -0.25220698 -0.04221273 0.09802112
0003c0 18 d2 da bd 11 26 65 3d a4 e6 a2 bc 3c 66 49 3d
       -0.106846035 0.055944506 -0.019885369 0.049169764
0003d0 03 ec 45 3c 8f 4b fe bc 22 36 9f 3c d8 66 b3 3d
       0.012080195 -0.031041889 0.019434992 0.0875985
0003e0 27 25 54 3d d6 0f 6d be 4e c7 99 bd 88 68 d8 3d
       0.051793244 -0.23150572 -0.075087175 0.10566813
0003f0 61 08 16 ba 34 5a c1 3b e5 6c 8f bd 2d 8b b0 bc
       -0.00057232945 0.0059006456 -0.07003192 -0.02155074

fc1.bias f4 [256]
000000 d5 0d 0c bd 9f 5d ca bc 7a 25 1d bd ed 3e 92 3c
       -0.03419288 -0.024702845 -0.03836582 0.017852271
000010 09 4d 08 bc 9f e1 ff bc a5 2c 2e bd b0 b9 79 3d
       -0.008319148 -0.031235514 -0.042523045 0.0609681
000020 62 c3 83 bc 8a 60 3c 3d e4 1f 30 bd 61 10 77 bb
       -0.016084377 0.045990504 -0.042999163 -0.0037698972
000030 bf 70 ca bc fa 72 0e bb 88 17 15 3c 34 a9 03 3d
       -0.024711965 -0.0021736012 0.009099849 0.032143787
000040 29 d5 f5 3a de 48 42 3d 28 fd 81 ba 69 d5 33 3c
       0.0018755543 0.047432773 -0.0009917365 0.010976174
000050 9c 65 d1 3c 9c f5 ae bc 5a f7 17 3d 06 4d 21 bd
       0.025561146 -0.02135735 0.037101127 -0.039380096
000060 0b 7e 35 ba 79 8c f1 3b aa ef 03 bc 4d 21 e0 bc
       -0.0006923384 0.007371482 -0.008052746 -0.027359629
000070 d6 69 fa 3b 13 0c 49 bc 42 1b f6 3b fc 02 1e 3c
       0.007642011 -0.012270945 0.0075105736 0.009644266
000080 17 38 1f 3c b6 32 08 3d 2f e1 01 3d 3a 4a 40 bd
       0.009717963 0.033251487 0.031708892 -0.046945788
000090 bb 9f 8f bc 76 19 3b bd 3f 44 77 bd f2 1e 8e bc
       -0.01753222 -0.04567858 -0.06036782 -0.01734874
0000a0 07 f0 28 bd a8 22 f5 bc b8 88 48 bc ba 7f 96 3c
       -0.041244533 -0.029923752 -0.012239628 0.018371452
0000b0 26 4b 61 bc a1 22 21 3c 67 cb 59 3d 17 b9 6c bd
       -0.013750827 0.009834916 0.053172495 -0.057793703
0000c0 c4 7f da bc 92 85 0f bc ed 97 15 3d f2 6f 8e 3b
       -0.026672252 -0.008759873 0.03652184 0.004346841
0000d0 f0 45 4b 3c 89 3e 93 bd 83 ad ef bc f5 0c 34 bd
       0.012406811 -0.07189662 -0.029257542 -0.04395767
0000e0 29 3e 3a 3c d0 7f 5d 3d a9 1d 0e 3d e9 e9 87 3c
       0.011367359 0.05407697 0.034696255 0.01659103
0000f0 e2 b3 1e bd ed 07 29 bd 2e ac b4 bd 73 67 6c bc
       -0.03874577 -0.041267324 -0.08821903 -0.014428961
000100 3b 1f 22 3d 4d d9 9e bd 65 fa d8 bb 54 5f c3 3c
       0.039580565 -0.077562906 -0.006621646 0.023849167
000110 36 d3 7e ba 37 fb 9d bb 76 69 94 3b 12 ca dd bc
       -0.0009720804 -0.004821207 0.0045291735 -0.027073894
000120 a0 78 1f bd d1 26 5d 3d 5e 88 b1 bc 40 d1 8f bb
       -0.038933396 0.053992096 -0.02167147 -0.004388958
000130 a2 b3 3e 3d 6d 17 9f bc 0d 33 f6 ba 09 45 22 bd
       0.04655803 -0.01942035 -0.0018783525 -0.03961662
000140 6a 91 5d bc 53 42 8f bd 0a be cd 3c ae f3 2b bd
       -0.013523439 -0.06995072 0.025115032 -0.041980438
000150 2a ca 07 3d be 36 ae bc fb 9c df bc 61 88 23 3c
       0.033151783 -0.021266337 -0.027296534 0.009981246
000160 84 12 13 bd 60 68 e5 bb fc 44 d7 bc 69 7f ee 3c
       -0.03590633 -0.007000968 -0.026278012 0.029113488
000170 d9 80 e8 bc 17 ae 96 3c 3e 87 a1 bb 99 01 43 3d
       -0.028381752 0.01839356 -0.004929452 0.047608946
000180 c9 0e a7 bc f6 70 d2 bc a4 94 d8 3c 25 a1 15 bd
       -0.020392792 -0.02568863 0.026438065 -0.036530633
000190 1e 07 5b bd 21 03 31 bd 80 10 8d 3d f1 49 a8 3b
       -0.053473584 -0.043215875 0.06887913 0.0051357676
0001a0 0d 1a 34 bd 47 e7 45 bd 34 83 20 3c fa 66 94 3d
       -0.043970156 -0.048316266 0.009796906 0.07246204
0001b0 0e a8 29 3b 03 26 bf bc d3 49 1b bd b5 54 f6 bc
       0.0025887522 -0.023333555 -0.0379122 -0.030069688
0001c0 e3 6c 96 bc 5f 6c b2 bc f4 0f 53 3d f2 82 10 3d
       -0.018362468 -0.021780191 0.051528886 0.03528113
0001d0 eb 2a 94 bd 65 be 2e bd 45 49 a8 bc 2c 1d 58 bd
       -0.072347485 -0.042662043 -0.02054275 -0.052762195
0001e0 d4 5a 5d bd e9 f6 f5 bc 21 33 80 3d 02 52 90 bd
       -0.0540417 -0.030024962 0.06259752 -0.07046892
0001f0 0e bd 8b 3d e5 1c 84 3d 31 c6 0b 3d a1 92 15 bd
       0.06823169 0.06450824 0.034124557 -0.03651679
000200 d5 6e ae 3a 2b d2 84 3d c4 e4 57 bd 9d f8 1f bd
       0.0013308177 0.06485399 -0.052708402 -0.039055455
000210 6a e2 3b 3d c2 ef 80 bc 4c 38 c6 3c 21 54 b2 bc
       0.045870222 -0.015739325 0.024196766 -0.021768631
000220 d7 e0 7f 3d a0 48 ee bc 38 2b 1e bd cb a5 c8 bb
       0.062470283 -0.029087365 -0.038615435 -0.0061232797
000230 e0 8e 63 bc 96 ab 1a 3c 73 52 dc bc 1d 34 05 3c
       -0.0138890445 0.009440323 -0.026894784 0.008130101
000240 c7 3e b5 3c 8b ca aa 3c 20 e2 6e 3c f5 84 2c 3c
       0.022124661 0.020848533 0.01458028 0.010529746
000250 66 79 2a bd 7e 4c a5 3c 0c a9 21 bd 11 4f 62 bc
       -0.04161968 0.020178076 -0.039467856 -0.013812796
000260 2d 1f 88 bb 0f e4 c6 3c 18 4b 5c bc 0f b5 0a 3d
       -0.004154107 0.024278669 -0.013445638 0.033864077
000270 bd 06 75 3c f4 32 bf 3b fc 90 de bc 08 85 62 bc
       0.01495522 0.0058349315 -0.027168743 -0.013825662
000280 a3 88 23 bb bb cb 02 bc 64 76 5b bd a1 d1 d2 bc
       -0.0024953268 -0.007983143 -0.053579703 -0.025734724
000290 2a 88 44 bc 30 e8 31 bd 17 2f 88 bd 0f 93 9e 3c
       -0.011995355 -0.043434322 -0.06649607 0.019357232
0002a0 7b 8a c3 3c 0a e2 92 bb 4a 28 ac 3a 95 46 67 3c
       0.023869744 -0.0044825124 0.0013134566 0.014115949
0002b0 df 7f 2a bc d0 da 2a bc c7 84 85 3b 6b 37 fb 3c
       -0.010406463 -0.0104281455 0.004074666 0.030666074
0002c0 d5 b7 36 3d 4a ca 82 3d 35 89 90 3d 54 f5 83 bc
       0.04460891 0.0638624 0.0705742 -0.016108193
0002d0 26 79 99 bc 4f 27 5e bd b3 13 66 3b 5f fd 04 bd
       -0.018734526 -0.054236706 0.0035106956 -0.032468196
0002e0 18 de f7 3c cc 63 5a 3b f7 2c ac 3b 21 4e 6c bd
       0.03025727 0.0033323644 0.0052543837 -0.057691697
0002f0 37 04 8e bc f3 79 57 bd 6e 0b 86 3b 9b 93 18 bd
       -0.017335994 -0.052606534 0.004090718 -0.037250143
000300 1c 02 88 3c ab aa cd 3c 72 e9 47 3b 54 8c 76 bd
       0.016602568 0.025105795 0.0030504134 -0.06019242
000310 3a b6 f7 3c 14 b3 fa 3c 9c 5d 00 bd d9 a9 09 3d
       0.03023826 0.03060297 -0.031339273 0.033609245
000320 6d a7 16 bd b1 7b b2 3b 25 be 50 3b d4 0b 27 3d
       -0.036780763 0.005446874 0.0031851616 0.040782765
000330 56 93 9e 3c 14 51 71 3c 36 b1 0c bd 41 92 e8 3c
       0.019357365 0.014728803 -0.03434869 0.028390052
000340 09 ee a4 bd b9 b4 41 3d 53 32 bb 3c da 4c 0f bd
       -0.08053214 0.04729149 0.022851145 -0.0349854
000350 15 63 22 bd 7e 2e 28 bd 6f e1 4e bd 3a 39 da bc
       -0.039645273 -0.041059963 -0.05050796 -0.026638616
000360 68 e5 9f bd cc bc 59 3d e1 14 dd bc eb 08 d0 bc
       -0.07807428 0.053158566 -0.026987495 -0.025394877
000370 59 99 3c bd 6c 8a 05 3c eb 91 31 bd 05 44 ef bc
       -0.04604468 0.008150678 -0.04335205 -0.029207239
000380 ce 9f 6c 3d a0 17 69 3d 31 ba 08 3d 83 c0 70 3c
       0.05776959 0.056907296 0.03338069 0.014694336
000390 cf 8b 76 bd e7 36 33 bd 04 5d 97 bd 07 fc 03 bd
       -0.060191926 -0.04375353 -0.07390788 -0.032222774
0003a0 a9 74 3f 3c b7 40 3b 3d d5 38 a3 bc 39 9a e3 3b
       0.011685529 0.045716014 -0.01992456 0.006945875
0003b0 a2 14 7a bd 9a ee e1 3c 2b 0e 4b 3c 99 54 0e bd
       -0.061054833 0.027579594 0.012393515 -0.034748647
0003c0 2f b9 f5 bc ae d4 92 3b 51 49 96 3b 96 0b 7d 3b
       -0.029995529 0.00448092 0.0045863767 0.0038611642
0003d0 b9 a4 d0 3c 3b 65 b5 3d 09 de 84 3c a9 5e 70 bd
       0.02546917 0.08857199 0.016219156 -0.058684025
0003e0 48 2f bd bc e0 b3 00 3b 02 0a 7b 3c 2a 7f 2b 3d
       -0.023093835 0.0019638464 0.01532221 0.04186932
0003f0 f0 f8 88 3d bb 81 85 ba a7 5d c0 bb df 5a b8 3b
       0.06688106 -0.0010185757 -0.005870539 0.005626067

fc2.weight f4 [10, 256]
000000 da a6 c8 3d 8e 92 f3 3d 09 d5 43 3d 91 39 6c be
       0.097974494 0.118931875 0.047810588 -0.23068835
000010 a4 f6 41 bc 0d 6f 16 3e 51 19 26 3e 97 83 c4 3c
       -0.011838589 0.146908 0.16220595 0.023988528
000020 fa 91 e2 3b 98 cb 84 bc d2 c9 3d be 85 74 af bc
       0.0069143744 -0.016210362 -0.1853402 -0.021417866
000030 90 75 2d bd e4 6c 84 bd ff 0c 48 3c fb e8 00 bc
       -0.042348444 -0.06466082 0.01221013 -0.007868047
000040 f5 34 9c 3c 28 35 76 3d 19 e4 05 bd 44 d1 dd bd
       0.01906822 0.060109288 -0.032688234 -0.1083093
000050 75 bc 2e be 9e ac 3c be 40 ff 48 3c 72 29 43 bc
       -0.17064078 -0.18425223 0.012267888 -0.011911737
000060 99 86 91 3d ce 9a 97 3d cb 02 b7 3d 07 5d 24 3b
       0.071057506 0.074025735 0.089360796 0.0025079863
000070 84 26 32 3d 37 1f 85 bb cd 3d a4 3d 28 13 2b bd
       0.043493763 -0.004062559 0.080196 -0.041766316
000080 6b 7f 50 be f2 8e 41 bc 4a 82 ca 3d 6f 60 a8 bd
       -0.20361106 -0.011813866 0.09888132 -0.08221518
000090 45 1e 92 3d c5 e8 be ba 59 2e 51 3d 18 9e 89 3d
       0.0713468 -0.001456522 0.05106959 0.06719607
0000a0 85 9d 01 3d dd 71 00 3d 1c 87 c7 3c 94 dd b3 bc
       0.031644363 0.03135859 0.024356417 -0.021956243
0000b0 ae 96 81 be 1b 86 71 bd 1c 7c 72 be 37 4d 7a bc
       -0.25310272 -0.058965784 -0.23680156 -0.0152771985
0000c0 82 de d2 3d 60 ca 79 bd 97 7d 6f bc 1c 34 e9 bd
       0.10296346 -0.060984015 -0.014617345 -0.11386892
0000d0 87 2b 4a bd 0d d3 db 3d f9 c7 5e 3d b1 17 4d bc
       -0.049357917 0.10733614 0.054389928 -0.0125178555
0000e0 b3 33 0f be 7f b5 07 3e a3 27 b5 3d ff b4 42 bd
       -0.13984565 0.13252829 0.08845451 -0.047535893
0000f0 53 32 11 be 17 0c 22 3d 3f 27 e5 bd 95 b7 61 3a
       -0.14179353 0.03956231 -0.11189126 0.00086104247
000100 ae 10 67 bd 77 84 31 bd b9 c5 08 3b 2b 0d 58 be
       -0.05641239 -0.04333922 0.0020869805 -0.21098773
000110 48 09 35 be 4f bb 0a be d4 3c 29 3e 73 c6 80 3d
       -0.17679322 -0.13548015 0.1652711 0.06287851
000120 ee 34 4e bd 12 99 9d be 72 86 05 3d 12 fe f4 bd
       -0.050343446 -0.30780846 0.03259892 -0.119625226
000130 bb ea 8c bd 52 38 04 3d 34 f7 17 bd 67 c3 53 3d
       -0.06880709 0.032280274 -0.037100986 0.051700022
000140 1f e9 86 be 5a a7 e4 3c 78 d9 df 3b 80 af 00 3e
       -0.26349732 0.02791183 0.006831344 0.12566948
000150 51 56 d0 3d 64 ef 01 3e b1 f6 a0 3c b4 83 d2 bc
       0.101727135 0.12688977 0.019648882 -0.025697567
000160 5b 61 0c bd 55 63 94 3d 3b ea 5c be cb 36 b1 3d
       -0.034272533 0.072455086 -0.21573727 0.08653029
000170 f3 14 44 3e 60 e6 43 bc ad b6 6f ba 06 3b b0 3d
       0.19148616 -0.011956781 -0.0009144347 0.08605008
000180 90 8a ab bd 89 dc f9 bb 62 09 46 bd c5 ef f9 3c
       -0.08376038 -0.007625167 -0.048348792 0.030509839
000190 fa 3c d0 3c 2f 69 24 3d f1 7c 4c 3d 07 0b b7 3d
       0.0254197 0.040139373 0.04992384 0.0893765
0001a0 ac 21 b0 bd 73 f8 08 be 00 66 3f bd 38 70 b0 3d
       -0.086001724 -0.13376026 -0.046728134 0.08615154
0001b0 71 4e d1 3c 9c 2e ba 3d dc 08 d2 3d 40 f4 ac 3d
       0.0255501 0.09090921 0.10255596 0.084450245
0001c0 f4 9f c2 bd 89 2d 21 3d b6 5f 0c be a4 fd 27 be
       -0.09503165 0.039350066 -0.13708386 -0.1640535
0001d0 1e c3 1c be 5d 21 48 be b7 3c cd bd cc fd 23 3e
       -0.15308806 -0.19543977 -0.10021346 0.16014785
0001e0 dd 83 68 bd 79 aa 24 bd 5d de 5c be 9d 39 d3 bd
       -0.05676638 -0.040201638 -0.215692 -0.10313723
0001f0 a2 8a fb bd 27 cc 5a be 95 0b 68 be a4 46 d2 3c
       -0.122823015 -0.2136694 -0.22660668 0.02566845
000200 28 3f 7b be cf 47 0a be 00 87 02 bd 64 66 8b 3c
       -0.24535811 -0.13503955 -0.031867027 0.017016597
000210 6d 1c 09 3e 0e b4 01 3e d1 b8 0e bd 94 4f 3f bc
       0.1338975 0.12666342 -0.034844223 -0.011676688
000220 ed a2 5f be a5 64 e2 bb db 67 3f bc 63 2c 68 3c
       -0.21839495 -0.0069089704 -0.011682476 0.014170739
000230 b1 15 7d bd ef 40 d6 bc dd 3a 17 bd 87 d6 3a 3c
       -0.061788265 -0.02615401 -0.03692137 0.011403686
000240 08 46 5b be 6e c2 bd b9 d8 5c 6c be 29 f6 2b be
       -0.21413434 -0.0003619375 -0.23082292 -0.16793121
000250 6e 34 9e 3c d7 76 41 3d c1 e3 ad 3c f2 f7 52 3d
       0.01931211 0.047232475 0.021226766 0.05150599
000260 64 36 9f 3d 9a e2 41 be d1 d7 a9 be 82 49 5c 3d
       0.07774046 -0.18934098 -0.33172467 0.05378104
000270 c7 a9 c8 3d 64 aa e7 3d 27 bf 87 3d eb e2 a8 3d
       0.097980075 0.11311796 0.06628256 0.08246406
000280 2a 25 d0 3c a9 e6 0a 3e 9d 1a df bc 94 37 ae 3d
       0.025408346 0.13564552 -0.02723437 0.085066944
000290 aa e8 0b be 98 15 d8 bc f9 54 9a 3d a5 f7 1f be
       -0.13662973 -0.026377484 0.075357385 -0.15621813
0002a0 d5 f9 65 be 02 f5 1f be 03 5b ca 39 6c 44 65 bd
       -0.22458585 -0.15620807 0.0003859625 -0.055973455
0002b0 f6 31 cf 3d 5c d8 f1 bd 01 45 ed bc fd f8 03 bc
       0.10116951 -0.118088454 -0.028963568 -0.008054969
0002c0 6a cf 57 be d5 dc ce 3d 37 4f 77 bd 07 ac 37 be
       -0.21075216 0.10100714 -0.06037828 -0.17936717
0002d0 2e 5c 25 be 14 53 70 bc 39 c1 9d bb ab 8f 7e bd
       -0.16148445 -0.014668245 -0.0048142937 -0.06214873
0002e0 52 ed 11 be d8 c6 9c 3d 29 3a 5a bd 59 58 dd bc
       -0.14250687 0.07655114 -0.053278122 -0.027019667
0002f0 84 63 90 be d7 f3 22 bd 8c 33 a2 bd be 75 88 3d
       -0.28200924 -0.039783325 -0.07919988 0.066630825
000300 90 5a 8e 3d eb 27 8a 3d 5c 32 d9 3d 98 28 ea bd
       0.06950867 0.06745895 0.106053084 -0.11433524
000310 26 9c 69 bd c9 86 e0 bd cf 69 e8 bc 2b 61 39 bd
       -0.05703368 -0.10963208 -0.028370766 -0.045258682
000320 6c e8 62 3d 14 ce 06 bd 61 3c 0c be 8d 95 cf 3d
       0.055397436 -0.032911375 -0.13694908 0.101359464
000330 12 a7 43 be 40 20 a6 3d b2 04 c3 3c 93 e8 64 be
       -0.19106701 0.0811162 0.02380595 -0.22354345
000340 48 36 65 bd 53 ef 7e be ce a8 1d bd 24 d5 b4 3b
       -0.05595997 -0.24895982 -0.038491063 0.0055185724
000350 1e 3d 26 3d 1b 45 11 3d d8 99 62 39 b7 d7 44 be
       0.04058563 0.035466295 0.00021610351 -0.19222914
000360 9f f8 fd bd b8 8a 2b bb f2 97 11 be 14 22 e9 bd
       -0.12400936 -0.0026175212 -0.14218119 -0.11383453
000370 31 68 c4 3c ab 78 43 be 4d 96 ff 3c 29 f3 91 3d
       0.023975464 -0.19089 0.031199599 0.07126457
000380 e8 03 74 be 0e 79 96 3d 59 4d ee 3d 08 4b c8 3c
       -0.23829615 0.07347308 0.11635847 0.02444984
000390 8d a4 38 3b 84 3b 3a bc 84 91 30 bd ba 67 83 be
       0.0028174252 -0.011366729 -0.043107525 -0.25665075
0003a0 39 9c 85 be 77 c1 6c be bf 11 44 bc e1 94 6d 3c
       -0.2609575 -0.23120676 -0.011967122 0.0145008275
0003b0 aa 18 94 bd c0 a0 46 3d 51 65 ae bd a1 77 9b bc
       -0.07231267 0.048493147 -0.08515418 -0.018977942
0003c0 d1 4a 27 bd 64 a3 92 3d db ef 2a be f0 6e 88 be
       -0.040842835 0.071600705 -0.1669306 -0.2664714
0003d0 f5 bd d8 3d 1b ea 38 3c b1 8e ee 3d b7 fc 8c bd
       0.105831064 0.011286284 0.1164831 -0.06884139
0003e0 dc 36 19 bd 65 30 d8 bc 3c 61 63 bd a1 3b 12 be
       -0.037405834 -0.026390264 -0.05551265 -0.14280559
0003f0 1d d1 11 3d 39 27 20 be f9 e1 f9 3c 32 aa d7 3d
       0.035599817 -0.15639962 0.03050326 0.10530509

fc2.bias f4 [10]
000000 d8 20 13 3d 41 8b 48 3d 15 2d 69 3d b2 b6 b0 3a
       0.035919994 0.048960928 0.05692776 0.0013482182
000010 b1 cc 7f 3c 7d 45 63 bc 27 ad 03 bd d3 23 4e 3d
       0.015612767 -0.013871548 -0.032147553 0.050327133
000020 67 6d db 3d b5 9b c4 ba
       0.10714226 -0.0015000018
