saved_models/mnist_qnn_2l.pt (torch, 683603 bytes, 8 tensors)

conv1.weight f4 [32, 4, 3, 3]
0	0x3cefea42	0.029286508
1	0xbc5252b2	-0.012837099
2	0xbdfeab9b	-0.12435075
3	0x3c5da0bd	0.0135270925
4	0x3f0d5b29	0.55217224
5	0x3ea68df6	0.32530183
6	0xbc8e2c0a	-0.017354984
7	0xbe3f14b0	-0.18660235
8	0x3d75af08	0.059981376
9	0x3d18fa40	0.037348032
10	0x3ec271be	0.37977403
11	0xbe725454	-0.23664981
12	0xbd6d1984	-0.05788566
13	0xbee1c6a8	-0.44096875
14	0x3ecf0c2f	0.40438983
15	0xbcb9a2f2	-0.022660706
16	0xbc638e4f	-0.0138889095
17	0x3e7072ef	0.23481344
18	0x3a277f70	0.0006389534
19	0x3e906783	0.28203973
20	0x3dea5be0	0.11443305
21	0x3adefc09	0.0017012368
22	0xbf1ab2c3	-0.6042902
23	0xbe76768a	-0.24068657
24	0xbdf5930e	-0.11990939
25	0xbdbc8ade	-0.09206174
26	0xbd487bac	-0.048946068
27	0xbdef4ce5	-0.11684588
28	0xbe6c3674	-0.23067647
29	0x3e0c8b25	0.13724954
30	0x3d4b396c	0.04961531
31	0x3f3c82cc	0.7363708
32	0xbe665bc2	-0.2249594
33	0x3c4d8613	0.012544173
34	0x3e12a49b	0.14320605
35	0xbd5a4786	-0.053290866
36	0x3d8a7b18	0.067617595
37	0xbdd462ba	-0.10370393
38	0xbc702ce4	-0.01465914
39	0xbdb77b01	-0.08959008
40	0xbde17e68	-0.11010438
41	0x3e28729c	0.1644997
42	0xbe0b2fc2	-0.13592437
43	0x3e0480d3	0.12939768
44	0xbe30476b	-0.17214744
45	0x3e9eca8c	0.31013906
46	0x3e9b2c2a	0.30307132
47	0xbdc0aec7	-0.09408336
48	0x3eb4095a	0.35163385
49	0xbec8b43e	-0.39200014
50	0x3d80c3c1	0.06287337
51	0xbc1e7de9	-0.009673574
52	0xbddb1167	-0.106966786
53	0x3eccbab8	0.39986205
54	0xbd01440b	-0.03155903
55	0x3e968b8d	0.29403344
56	0x3dc5acfe	0.09652136
57	0xbbbce0c3	-0.0057640984
58	0x3e05f587	0.13081942
59	0x3ea40dc8	0.32041764
60	0x3cea3c69	0.028593259
61	0x3e96f820	0.2948618
62	0xbd792875	-0.0608296
63	0xbcffbd56	-0.031218212
64	0xbe8af89d	-0.27142802
65	0x3cf24117	0.029572053
66	0xbf0a3489	-0.5398641
67	0x3ed86074	0.42261088
68	0x3ccadd75	0.024763802
69	0x3d5ac220	0.05340779
70	0xbda56135	-0.080751814
71	0x3e08c5b6	0.1335667
72	0xbd8ce39a	-0.06879349
73	0xbd66320b	-0.05620007
74	0xbd19f587	-0.03758767
75	0xbbaba31c	-0.00523795
76	0xbe666c9c	-0.22502369
77	0xbe0c4fb2	-0.13702276
78	0x3dd906ca	0.10596998
79	0x3bb53f24	0.0055312086
80	0xbd377c99	-0.04479656
81	0xbd14c3d7	-0.03631958
82	0x3e8f9577	0.2804372
83	0x3d5d0d53	0.053967785
84	0x3ecd9f0e	0.40160412
85	0x3dda2f53	0.10653558
86	0x3d8a2210	0.06744778
87	0x3e3176a5	0.17330416
88	0x3e8fede3	0.2811118
89	0x3d434b67	0.04767933
90	0xbdccd2d9	-0.100011535
91	0x3d7325a1	0.059362058
92	0x3e048af1	0.12943627
93	0x3e1105bc	0.14162344
94	0xbc09a398	-0.00840082
95	0xbf2c9cfa	-0.6742703
96	0x3e09e271	0.13465287
97	0x3eb60dec	0.35557497
98	0x3efc95a3	0.49332914
99	0x3ba7336b	0.005102565
100	0x3dcda8c0	0.10041952
101	0xbd3893eb	-0.04506294
102	0xbe4ec325	-0.20191629
103	0x3e1c6258	0.1527189
104	0x3e901da0	0.28147602
105	0xbe59d110	-0.21271157
106	0xbefef716	-0.49797887
107	0xbe733550	-0.23750806
108	0x3ca4e5be	0.02012908
109	0x3e4894fe	0.19588086
110	0x3c9487d0	0.018131167
111	0xbe39559c	-0.18099064
112	0xbf1b7246	-0.6072124
113	0xbec1a85e	-0.37823766
114	0xbeb8560d	-0.36003152
115	0xbd9d2ba4	-0.076743394
116	0x3c312fba	0.010814602
117	0xbea3bd25	-0.31980243
118	0xbe88b40b	-0.26699862
119	0xbe6fefcd	-0.2343132
120	0x3f095e06	0.53659093
121	0x3e5651bf	0.20929621
122	0xbd41f8d1	-0.04735643
123	0x3d0e9d99	0.034818266
124	0x3d5c4fc0	0.053786993
125	0x3dc94024	0.09826687
126	0x3df677c0	0.12034559
127	0x3e5563d7	0.20838867
128	0x3dc9f699	0.09861488
129	0xbd930f5e	-0.071806654
130	0xbd51285b	-0.051063877
131	0xbe92f783	-0.2870446
132	0x3dac32f6	0.084081575
133	0xbe6739b6	-0.22580609
134	0x3d5f0cd9	0.05445561
135	0xbea0ca88	-0.3140452
136	0xbe7e07fe	-0.24807736
137	0xbed19172	-0.40931278
138	0xbddde814	-0.10835281
139	0x3dc19980	0.09453106
140	0x3ce929b8	0.028462276
141	0x3e1e88e6	0.1548191
142	0x3da27e2f	0.07934224
143	0xbd46ec35	-0.04856511
144	0x3cda96a0	0.026683152
145	0xbda051a8	-0.07828075
146	0xbe0ee18d	-0.13953228
147	0xbe4d04c5	-0.2002135
148	0xbd457de8	-0.048215777
149	0xbba6fdbd	-0.005096166
150	0x3e275b3b	0.16343395
151	0x3c8e51c9	0.017372983
152	0xbd953a4d	-0.072865106
153	0x3e022811	0.12710597
154	0x3ec55ea6	0.38548774
155	0x3e906fc1	0.2821026
156	0xbe157dbb	-0.14598744
157	0x3e319f5c	0.17345947
158	0x3e78bd80	0.24291039
159	0xbe543f35	-0.20727237
160	0xbdb3d5fe	-0.0878105
161	0xbccb1aa8	-0.024792984
162	0x3dda7bac	0.1066812
163	0x3e82439b	0.25442204
164	0x3ea3596f	0.3190417
165	0xbf0e6b76	-0.5563272
166	0xbf4cc04d	-0.7998093
167	0xbea34e1a	-0.31895524
168	0xbe282df7	-0.16423784
169	0xba109c05	-0.0005516413
170	0x3e3ca8c9	0.18423761
171	0xbca62bce	-0.02028456
172	0xbec0edfe	-0.37681574
173	0xbe9319a6	-0.28730506
174	0x3f48666e	0.78281295
175	0x3e90e288	0.2829783
176	0x3d9f475b	0.07777282
177	0xbdf32139	-0.11871571
178	0xbd85615c	-0.065127105
179	0xbc5bd019	-0.013416314
180	0x3da2c6d9	0.079480834
181	0x3e18197c	0.14853472
182	0x3dd3a262	0.103337064
183	0xbd9fed61	-0.07808948
184	0xbd1ddd56	-0.03854116
185	0x3ddce683	0.10786154
186	0xbe6e41f2	-0.23267344
187	0x3e1f6f44	0.15569788
188	0x3d8b30f7	0.06796449
189	0x3e02e18b	0.1278135
190	0x3ccb51f8	0.02481936
191	0xbe162dfb	-0.14665978
192	0x3ec8c215	0.39210573
193	0x3e602bf5	0.21891768
194	0xbe4f8c2f	-0.2026832
195	0x3d859b5f	0.06523775
196	0xbe803663	-0.25041494
197	0x3ee9224d	0.45533982
198	0xbe981ff5	-0.2971188
199	0xbcd4cd89	-0.025976913
200	0x3ed79eb4	0.42113268
201	0xbe9fa378	-0.31179404
202	0xbe8678eb	-0.26264128
203	0x3f5e4a56	0.8683218
204	0xbea5c5cd	-0.32377473
205	0xbe223902	-0.15842059
206	0x3e95938b	0.2921413
207	0x3e05bcfb	0.13060372
208	0x3e5d091f	0.2158551
209	0xbebc9053	-0.3682886
210	0xbd07cbbf	-0.03315329
211	0xbdc9e662	-0.09858395
212	0x3e6b3eec	0.22973222
213	0xbe27def6	-0.16393647
214	0xbd43cd72	-0.04780335
215	0x3e8619ed	0.26191655
216	0xbba533ab	-0.0050415597
217	0x3e33bc10	0.17552209
218	0x3e1e381d	0.15451093
219	0xbb260d93	-0.002533768
220	0xbd4ac0a5	-0.049500126
221	0xbe4edc75	-0.20201285
222	0xbd3b6cb7	-0.045757975
223	0xbd85a89d	-0.06526301
224	0x3d50b398	0.050952524
225	0x3d91429b	0.07092782
226	0x3ea3730e	0.31923717
227	0xbdf121ae	-0.11774002
228	0x3df9f9aa	0.12205823
229	0xbc7514ef	-0.014958604
230	0x3e9988b6	0.29987115
231	0xbd817d29	-0.063227005
232	0xbea45163	-0.32093343
233	0xbd269828	-0.04067245
234	0x3ce8c72f	0.02841529
235	0xbda1a435	-0.07892648
236	0xbf558294	-0.8340237
237	0x3e00d96a	0.12582937
238	0x3f199115	0.59987
239	0x3db00469	0.08594591
240	0xbd34d27c	-0.044146046
241	0x3e1cae6b	0.1530091
242	0x3e429b6f	0.19004606
243	0xbd84bf34	-0.064817816
244	0x3ec29944	0.38007557
245	0x3f0cab15	0.5494855
246	0xbe90832e	-0.28225082
247	0xbe9c5171	-0.30530885
248	0x3e3540a0	0.17700434
249	0xbdbe829f	-0.09302258
250	0xbe4d5fff	-0.20056151
251	0x3d691b58	0.056910843
252	0xbce28205	-0.027649889
253	0xbdf1d11f	-0.11807465
254	0x3d09017c	0.03344868
255	0xbe4b63f3	-0.19862346

conv1.bias f4 [32]
0	0x3d4c3dac	0.049863502
1	0xbe10ca90	-0.14139771
2	0xbd86b8c2	-0.065782085
3	0xbe117348	-0.14204133
4	0x3d5d1c97	0.053982344
5	0x3b6119fc	0.0034347763
6	0xbd377e03	-0.04479791
7	0xbd2cfb1a	-0.042231657
8	0x3e2b201d	0.16711469
9	0x3d6fddf7	0.05856129
10	0x3e6a8c90	0.22905183
11	0x3ddd11f1	0.10794438
12	0xbcaf4d6f	-0.021399228
13	0xbdf4922d	-0.11941943
14	0x3e053e88	0.13012135
15	0x3d7b630f	0.061373767
16	0x3e192c82	0.14958385
17	0x3e27fe75	0.16405661
18	0xbba52cb9	-0.0050407317
19	0xbdc6bac2	-0.0970359
20	0x3d948920	0.07252717
21	0xbde13841	-0.10997058
22	0xbe01d916	-0.12680468
23	0xbd3194ca	-0.043354787
24	0xbc66cb00	-0.014086485
25	0x3dc1c5bb	0.09461542
26	0x3e04101a	0.12896767
27	0x3e370703	0.17873769
28	0x3e14efe3	0.14544635
29	0xbdbe3b83	-0.09288695
30	0x3e76e81e	0.24111983
31	0x3defef48	0.11715561

conv2.weight f4 [64, 32, 3, 3]
0	0x3e2ea4e2	0.17055085
1	0xbe2f97bb	-0.17147724
2	0xbd49322e	-0.04912012
3	0xbe2ad52e	-0.16682884
4	0x3e3ca71f	0.18423127
5	0x3e834916	0.25641698
6	0x3cf6a422	0.030107561
7	0x3c9fd435	0.019510368
8	0x3dd4b88a	0.103867605
9	0x3c5b6512	0.013390796
10	0xbe093dfb	-0.1340255
11	0xbe7b2ebf	-0.24529551
12	0xbcaef5a1	-0.02135736
13	0x3e497386	0.19672975
14	0x3d9def8e	0.07711707
15	0x3e4940a6	0.19653568
16	0xbd8e64c4	-0.06952813
17	0x3d4eee82	0.050520428
18	0xbdbce119	-0.092226215
19	0x3e0a686b	0.13516395
20	0x3e4c4e68	0.19951785
21	0xbe1b4e04	-0.1516648
22	0x3d26a791	0.040687148
23	0x3e881032	0.26574856
24	0xbe6edc0f	-0.23326133
25	0xbe1ec75c	-0.15505737
26	0xbd8f1c71	-0.06987847
27	0xbe2f020d	-0.17090626
28	0x3d541354	0.051776245
29	0x3db9d907	0.09074598
30	0x3d6efd57	0.058347072
31	0xbe036b7b	-0.1283397
32	0xbd8b129b	-0.06790658
33	0x3da58887	0.08082681
34	0xbe25c982	-0.1619015
35	0x3cf7ec83	0.030264145
36	0xbc79863b	-0.015229757
37	0xbe2523f9	-0.16127004
38	0x3d6a96a7	0.05727258
39	0xbe18ee08	-0.14934552
40	0xbd2bab9d	-0.04191171
41	0x3e1d70c7	0.15375052
42	0xbd1be5ac	-0.03806083
43	0xbdab3a47	-0.08360725
44	0xbc9704b5	-0.018434862
45	0x3c3e8d21	0.011630327
46	0xbe95e92c	-0.2927946
47	0xbe429b30	-0.19004512
48	0x3e49acf5	0.19694884
49	0x3e207cf9	0.15672673
50	0x3bf95889	0.007609431
51	0xbd8d2abf	-0.06892919
52	0x3e186385	0.14881714
53	0xbdb104a1	-0.08643461
54	0x3c44e0a8	0.012016453
55	0xbcb7879a	-0.022403527
56	0xbc94ac35	-0.018148521
57	0xbe4d8445	-0.20069988
58	0x3e17da21	0.14829303
59	0x3ea2efb3	0.318235
60	0xbe8887bf	-0.26666066
61	0xbd7383b9	-0.059451792
62	0xbd951f54	-0.07281366
63	0xbdda4850	-0.10658324
64	0xbd8f6a9a	-0.070027545
65	0x3dc2b614	0.09507385
66	0x3db774c6	0.0895782
67	0xbe024ff7	-0.12725817
68	0x3d333e49	0.04376057
69	0xbd87b67d	-0.06626604
70	0x3da49b48	0.0803743
71	0x3e09e829	0.13467468
72	0xbd13accd	-0.036053468
73	0xbe414030	-0.18872142
74	0xbda1fdb8	-0.07909721
75	0x3d602b4f	0.054728802
76	0x3e03ca5f	0.12870167
77	0xbe1dda1b	-0.15415232
78	0x3df366fb	0.11884876
79	0x3e1fd6c7	0.15609275
80	0xbd4a05bb	-0.04932187
81	0x3de1befd	0.11022756
82	0x3e29334f	0.16523479
83	0xbe626afe	-0.22111127
84	0x3dab750c	0.08371934
85	0x3e803a7f	0.2504463
86	0x3e4b8b0b	0.1987726
87	0xbea17ef7	-0.3154218
88	0x3d504ef7	0.050856557
89	0x3e180dc0	0.14848995
90	0xbe0fefbc	-0.14056295
91	0xbd8152dc	-0.06314632
92	0x3e6b51b1	0.22980382
93	0xbd5351e3	-0.051591765
94	0xbe624edc	-0.22100395
95	0xbe299a59	-0.16562785
96	0xbe66fcba	-0.22557345
97	0xbc649e7a	-0.013953799
98	0xbcd6077a	-0.026126612
99	0x3e4180e9	0.18896832
100	0x3e3e7151	0.18597914
101	0xbc3c8c1a	-0.011508012
102	0xbbf964bd	-0.007610886
103	0x3db80d37	0.089868955
104	0x3def102d	0.11673007
105	0xbd8ce859	-0.06880254
106	0x3da779c5	0.081775226
107	0xbe711f59	-0.23547114
108	0x3dd7b8e3	0.10533311
109	0x3c84cc06	0.016210567
110	0xbe072237	-0.13196646
111	0xbe2ce408	-0.16883862
112	0x3e36281b	0.17788737
113	0xbdedde77	-0.116146974
114	0x3ce85c8f	0.028364448
115	0xbd4a8156	-0.04943975
116	0x3e343b25	0.17600687
117	0xbd794995	-0.06086119
118	0xbe000638	-0.12502372
119	0x3d7901b6	0.060792647
120	0x3da7c4c9	0.08191831
121	0x3d98a777	0.074538164
122	0x3e026838	0.12735069
123	0xbcfec145	-0.031098017
124	0x3e082e07	0.13298808
125	0xbcf40912	-0.029789481
126	0x3db6ac53	0.08919587
127	0xbe687395	-0.22700341
128	0xbe4f7009	-0.20257582
129	0x3e02a9bf	0.12760065
130	0xbb8a505e	-0.0042210063
131	0x3def8992	0.11696161
132	0xbe41e82c	-0.18936223
133	0xbd8a4df5	-0.067531504
134	0xbd1ecb26	-0.038767956
135	0x3e62785c	0.22116226
136	0x3e3594ea	0.17732587
137	0x3d28c810	0.04120642
138	0xbd1355b9	-0.035970423
139	0xbd22c30c	-0.039736792
140	0x3dda8fe7	0.106719784
141	0xbda690b0	-0.08133066
142	0xbde1ffb0	-0.11035097
143	0xbc447fac	-0.01199333
144	0xba9849ed	-0.0011618711
145	0xbf236d49	-0.6383863
146	0xbee88e20	-0.45420933
147	0x3de26118	0.110536754
148	0x3e3a2242	0.18177131
149	0x3d8d535d	0.06900666
150	0xbea5db32	-0.32393795
151	0xbdb565b9	-0.08857293
152	0xbde17e4b	-0.110104166
153	0x3db1e178	0.08685583
154	0x3dfd894c	0.12379703
155	0xbe33fcc3	-0.1757689
156	0x3d5f60c2	0.054535635
157	0x3e171e9b	0.14757769
158	0xbd16d8d9	-0.036827896
159	0xbb8096cd	-0.003924227
160	0xbdfd1cbf	-0.123589985
161	0xbc1f69cc	-0.009729814
162	0xbe5d175f	-0.21590947
163	0xbd9d9f60	-0.07696414
164	0xbcbbc349	-0.022920268
165	0xbe877dd2	-0.2646318
166	0xbda29db1	-0.079402335
167	0x3cfb9ee4	0.030715413
168	0x3e3eb7ac	0.18624753
169	0x3cdd9ae3	0.027051395
170	0x3b95f1a9	0.0045759273
171	0x3dd431f8	0.10361093
172	0xbe292c4e	-0.16520807
173	0x3dce268e	0.100659475
174	0x3dc3c40c	0.09558877
175	0xba3c3642	-0.0007179716
176	0xbb402bd5	-0.0029323
177	0x3bc6471d	0.006050958
178	0xbdc01797	-0.093794994
179	0x3d7e4f5f	0.062087413
180	0xbd47fff2	-0.048828073
181	0xbe3d953b	-0.18513958
182	0xbea4ccb9	-0.3218744
183	0x3dbdbac6	0.0926414
184	0x3e3a14e0	0.18172026
185	0x3d6d1f31	0.057891075
186	0x3da951db	0.08267566
187	0xbdf3c34a	-0.11902483
188	0xbe340807	-0.17581187
189	0x3e6b4c2c	0.22978276
190	0xbe3077bd	-0.17233177
191	0xbe26c74a	-0.1628696
192	0x3dccf460	0.10007548
193	0x3e870497	0.2637069
194	0x3d88b6de	0.06675504
195	0xbcf582f8	-0.029969677
196	0xbda4c762	-0.08045842
197	0xbd13b7b9	-0.036063883
198	0x3d42fedf	0.047606345
199	0xbe232c77	-0.1593493
200	0xbd400a39	-0.04688475
201	0xbe019485	-0.12654312
202	0xbd89329d	-0.06699107
203	0xbdf658f9	-0.12028689
204	0xbd590886	-0.052986644
205	0x3bd1cd72	0.006402665
206	0xbdb3237d	-0.08747003
207	0xbd617a38	-0.055048198
208	0xbe8bfca2	-0.2734118
209	0xbd9e4c92	-0.077294484
210	0x3df51d31	0.119684584
211	0xbdac60e2	-0.084169164
212	0xbcb528b7	-0.02211414
213	0x3ca3b911	0.019985707
214	0xbd336854	-0.043800667
215	0x3d9d0cfb	0.076684915
216	0x3df29088	0.118439734
217	0xbdd79f71	-0.10528458
218	0xbe5726e5	-0.21010931
219	0xbe0b9125	-0.13629587
220	0x3d94d83a	0.072678044
221	0x3e0d3fe0	0.13793898
222	0x3e85def0	0.2614665
223	0xbe3dd580	-0.18538475
224	0x3d31ffa1	0.043456677
225	0xbd7762e5	-0.060397048
226	0xbe202a40	-0.15641117
227	0x3e36b896	0.17843851
228	0x3bac2d2c	0.0052544083
229	0x3bcc4d34	0.0062347893
230	0xbdca1498	-0.09867209
231	0xbd9dd6f0	-0.07707012
232	0x3da3bc76	0.079949304
233	0x3d9791d2	0.0740086
234	0x3dd8ea23	0.10591533
235	0x3c97552e	0.018473234
236	0xbe05a89e	-0.13052604
237	0x3dd14734	0.10218659
238	0xbcdeec14	-0.02721218
239	0xbd81a615	-0.06330506
240	0xbc4e337d	-0.012585518
241	0x3d76ccb5	0.060253818
242	0xbd212659	-0.03934321
243	0xbdf45357	-0.11929958
244	0xbd80e06b	-0.06292804
245	0xbd09cb8a	-0.033641376
246	0xbd42fae1	-0.047602538
247	0xbe035413	-0.1282504
248	0x3c31596a	0.010824541
249	0x3ca8736b	0.020562848
250	0xbd97fe8f	-0.074216
251	0x3d75c2a4	0.060000077
252	0x3e29c445	0.16578777
253	0xbd926b1a	-0.07149334
254	0xbdc0abd0	-0.09407771
255	0x3dad1df9	0.084529825

conv2.bias f4 [64]
0	0xbd4fb285	-0.05070736
1	0xbce91aa0	-0.028455079
2	0xbcd95727	-0.026530815
3	0xbe2de22c	-0.16980809
4	0xbd5c5702	-0.053793915
5	0xbe18f789	-0.14938177
6	0x3d88f810	0.06687939
7	0xbe150f4b	-0.14556615
8	0xbd904033	-0.07043495
9	0xbdd3bd48	-0.10338837
10	0xbe231275	-0.1592501
11	0xbd432f2d	-0.047652412
12	0xbdfb8985	-0.12282089
13	0xbd0ad9c4	-0.033899084
14	0x3c02d927	0.0079863435
15	0xbe226047	-0.1585704
16	0xbd8525b5	-0.06501333
17	0xbe13c5dd	-0.14430948
18	0xbe0fd448	-0.14045823
19	0x3d488b73	0.048961114
20	0xbce0499f	-0.027378855
21	0xbda76751	-0.08174003
22	0x3b6823d5	0.0035421748
23	0xbe19ea31	-0.15030743
24	0xbdde44b7	-0.1085295
25	0xbddc7e8d	-0.10766325
26	0xbca2276c	-0.019794188
27	0xbe407b9f	-0.18797158
28	0xbc2119fe	-0.009832857
29	0xbe3f5318	-0.18684042
30	0xbaa9a97a	-0.0012944185
31	0x3d0dfc55	0.03466447
32	0x3dbcee12	0.09225096
33	0xbd868490	-0.06568253
34	0xbe51f248	-0.20502579
35	0xbe461af3	-0.19346218
36	0x3c797f68	0.01522813
37	0x3c7c4f76	0.015399804
38	0xbe1a1e96	-0.1505073
39	0xbd07f85b	-0.033195835
40	0x3c130fea	0.008975962
41	0xbe404db7	-0.18779646
42	0xbe1b60a4	-0.15173584
43	0x3d177f05	0.03698637
44	0xbe4bed08	-0.19914639
45	0xbc1ab7f6	-0.009443274
46	0xbd98339e	-0.0743172
47	0xbe871518	-0.2638328
48	0x3d4302a5	0.047609944
49	0xbdc5b202	-0.09653093
50	0xbc138a96	-0.009005209
51	0xbcef5804	-0.029216774
52	0xbd7ad5a2	-0.061238892
53	0x3c1d3ec8	0.009597488
54	0x3b7cc5de	0.0038570086
55	0xbd51dd7c	-0.051236615
56	0x3e25308e	0.16131803
57	0xbdbbd562	-0.09171559
58	0xbe5f1b3e	-0.21787736
59	0xbca39a0e	-0.01997092
60	0xbda244d6	-0.07923286
61	0xbe4c6d6b	-0.19963615
62	0xbda11c1b	-0.07866689
63	0xbdb55dc6	-0.088557765

fc1.weight f4 [256, 576]
0	0xbc5208a4	-0.012819443
1	0x3ccfee5c	0.025382213
2	0xbd0f826d	-0.035036493
3	0x3bf2464b	0.0073936335
4	0x3cb9b004	0.022666939
5	0x3ca878fd	0.020565504
6	0x3c630c3a	0.0138578955
7	0xbd073282	-0.033007152
8	0x3bb23da9	0.0054394794
9	0xb99666be	-0.00028686778
10	0x3c6917d5	0.014226873
11	0xbcb72cc1	-0.022360208
12	0x3aac44f0	0.0013143104
13	0xbbff9e8c	-0.0078008827
14	0x3a811c0d	0.0009850279
15	0xbc749573	-0.01492821
16	0xbba74e0b	-0.005105739
17	0x3c3e48a8	0.011614002
18	0x3c5b7046	0.013393467
19	0x3bb25b02	0.005442978
20	0x3afc7313	0.0019260369
21	0x3ca951d4	0.020668902
22	0xbd0b35eb	-0.033986967
23	0xbc2bf58b	-0.010495554
24	0xbcc2b39d	-0.023767287
25	0xbc6ccf66	-0.0144537445
26	0xbd123d7e	-0.035703175
27	0xbcadb2d2	-0.021203432
28	0x3c6194a0	0.013768345
29	0xbd1d1af3	-0.03835578
30	0xbce8ba4b	-0.028409144
31	0x3cead83e	0.028667565
32	0x3d2540e2	0.04034508
33	0x3b3d3b42	0.0028874432
34	0x3cd20970	0.025639266
35	0x3924355d	0.00015660138
36	0x3abc311f	0.0014357901
37	0xbd09f849	-0.03368405
38	0x3c837616	0.016047519
39	0x3c547f0a	0.012969742
40	0xbd43cd4a	-0.0478032
41	0xbd18a4aa	-0.03726641
42	0x3ba6103a	0.0050678523
43	0x3d010d79	0.03150699
44	0x3c8bc05d	0.0170595
45	0x3cafaa73	0.021443581
46	0xbca69fd3	-0.020339882
47	0xbd0b66e3	-0.034033667
48	0x3c00f458	0.007870756
49	0x3b9f6203	0.004863979
50	0xbc136b5b	-0.0089977635
51	0x3a5b2427	0.0008359574
52	0x37ce5ed8	2.4601279e-05
53	0xbcea3e70	-0.028594226
54	0x3ce9d811	0.028545411
55	0x3b7c6674	0.0038513215
56	0x3c2aa94d	0.010416341
57	0x3bfd42e4	0.0077289212
58	0xbc52fe14	-0.01287796
59	0xbd403d02	-0.04693318
60	0x3b3c69fb	0.0028749693
61	0x3c396610	0.0113158375
62	0xb9de57b9	-0.00042408498
63	0x3cd8482f	0.026401607
64	0xbc953fd2	-0.018218908
65	0xbc605869	-0.013692954
66	0x3bdf8a64	0.0068219174
67	0xbd1e0653	-0.03858025
68	0xbc3fd150	-0.011707619
69	0xbce7d8ff	-0.028301714
70	0x3d0da9fa	0.03458593
71	0x3cd64385	0.026155243
72	0xbcd970c3	-0.026543027
73	0xbc89c31c	-0.016816668
74	0x3d141cd2	0.036160298
75	0xbba6b7c9	-0.005087827
76	0x3b6889b5	0.003548247
77	0xbcc4da6b	-0.024029931
78	0xbcf19eed	-0.029494727
79	0xbcfe0d88	-0.031012312
80	0xbc3af81f	-0.011411696
81	0x3cda33e6	0.026636075
82	0x3ce42849	0.02785124
83	0x3c7c3bc3	0.015395108
84	0xbc4348fc	-0.011919256
85	0xbc1a72ec	-0.009426814
86	0xbd11333a	-0.035449244
87	0xbcbafb36	-0.022824865
88	0xbd1ae8ea	-0.03781978
89	0xbc634151	-0.013870553
90	0x3b73ee1f	0.0037220789
91	0xba153582	-0.0005691872
92	0xbcc8af10	-0.024497539
93	0xbcff1ee9	-0.031142669
94	0x3cc62111	0.02418569
95	0x3c4e2b39	0.012583547
96	0xbc073845	-0.008253162
97	0xbd41b80c	-0.04729466
98	0x3cd56a15	0.02605156
99	0xbb8be7eb	-0.00426959
100	0xbd2ba568	-0.04190579
101	0xbd205013	-0.039138865
102	0x3d04a464	0.032383338
103	0x3cc868a7	0.024463965
104	0xbd039975	-0.03212877
105	0xbc766a7b	-0.015040035
106	0xbca66dd0	-0.020316035
107	0x3c7975ea	0.015225867
108	0xbc9f8fe7	-0.019477798
109	0xbc9d8adb	-0.01923125
110	0xbd32e750	-0.043677628
111	0xbcf95ba2	-0.030439202
112	0xbd42137e	-0.04738187
113	0x3d434be0	0.047679782
114	0xbd1d7f21	-0.038451318
115	0x3c9eb94e	0.01937547
116	0x3c0972b1	0.008389161
117	0x3d51daa3	0.0512339
118	0x3c6f416e	0.014603002
119	0x3d069ed8	0.03286633
120	0xbd32de3b	-0.043668967
121	0x3cdad218	0.026711509
122	0x3b3825fa	0.0028098808
123	0x3ccddade	0.025128778
124	0xbcf76f3e	-0.030204412
125	0xbbc2e7c6	-0.0059480397
126	0xbc96e8ca	-0.01842155
127	0x3c9a6271	0.018845769
128	0x3c5fef25	0.013667856
129	0xbcd82ce1	-0.026388587
130	0xbcc30f67	-0.023811055
131	0xbd3a6b65	-0.045512576
132	0xbccf88ce	-0.025333788
133	0x3d440c99	0.047863577
134	0xbc064980	-0.008196235
135	0x3cac0e6f	0.021002976
136	0xbcff5f78	-0.031173453
137	0xbc994df4	-0.018713929
138	0xbb558b07	-0.0032584087
139	0xbc92266b	-0.017840585
140	0x3cd6d730	0.026225656
141	0x3cd409f0	0.025883645
142	0xbcb85c2c	-0.022504888
143	0xbcc331ee	-0.02382752
144	0x3cc4679a	0.023975182
145	0xbd331bfc	-0.04372786
146	0x3cab04d1	0.02087632
147	0xbccc587c	-0.024944536
148	0xbc80fa0c	-0.015744232
149	0xbc872f73	-0.016502118
150	0x3c97e26e	0.018540587
151	0xbcfdb560	-0.030970275
152	0xbd1a2458	-0.037632316
153	0xbcf9cd4c	-0.030493401
154	0x3d0571a9	0.032579098
155	0x3d082455	0.033237774
156	0x389ed345	7.573379e-05
157	0x3c17ee92	0.009273188
158	0xbd3c820f	-0.04602247
159	0x3c9b68d3	0.018970883
160	0x3be28782	0.0069131264
161	0xbcbe13c4	-0.023202784
162	0xbca2f938	-0.019894227
163	0x3c5dae20	0.013530284
164	0x39620838	0.00021556101
165	0x3bfa8de0	0.0076463073
166	0xbcb390b2	-0.021919582
167	0xbd1bc8de	-0.03803336
168	0xbd1ae3d2	-0.037814923
169	0xbd16e8ae	-0.036842994
170	0x3c630e03	0.013858321
171	0x3cef8015	0.029235879
172	0xbb1dc662	-0.0024074544
173	0xbaaa7f7b	-0.0013007963
174	0xbcd7f45c	-0.026361637
175	0x3c23489e	0.009966044
176	0xbc7d6717	-0.015466473
177	0xbcb6ba17	-0.022305531
178	0x3cb1b57c	0.021692984
179	0xbc366665	-0.011132811
180	0x3bea24ea	0.007145514
181	0x3cc1f9a6	0.023678612
182	0x3c81981d	0.015819604
183	0xbbe250c9	-0.006906603
184	0x3aefc2a7	0.0018292264
185	0x3cd53047	0.026023997
186	0xbccae914	-0.024769343
187	0x3c9f0e3c	0.019415967
188	0xbd501500	-0.050801277
189	0x3ca2588d	0.019817615
190	0x3d099ea8	0.033598572
191	0xbd4962ec	-0.049166605
192	0x3cf37e36	0.029723268
193	0xbd37b499	-0.044849966
194	0xbcd392c3	-0.025826817
195	0x3c79c837	0.015245489
196	0x3b4d73ba	0.0031349496
197	0x3d1800e1	0.037110213
198	0x3cf1aef6	0.029502373
199	0xbd434777	-0.047675576
200	0xbcf4450d	-0.029818082
201	0x3d0930a6	0.03349366
202	0xbc31f9b2	-0.010862755
203	0xbceb0734	-0.028689958
204	0x3b91b5e5	0.0044467323
205	0x3d0519d6	0.032495342
206	0x3ce62f85	0.028098831
207	0x3ce3ea3d	0.027821654
208	0xbd306ffa	-0.04307554
209	0xbc939f3e	-0.018020269
210	0x3bed75f7	0.0072467285
211	0xbd0a841c	-0.033817396
212	0xbc06f9e5	-0.00823829
213	0x3c8d5f21	0.017257275
214	0x3bdf0f39	0.0068072346
215	0xbd19d8b2	-0.037560172
216	0x3c3ced26	0.01153115
217	0xbcdb2a8a	-0.026753683
218	0xbc65d88a	-0.014028678
219	0x3d078488	0.033085376
220	0x3c379f74	0.01120745
221	0x3cc08918	0.023502871
222	0x3cbd0ff9	0.023078905
223	0x3d107827	0.035270836
224	0xbc5015d7	-0.0127005195
225	0xbbee6f30	-0.007276438
226	0xbcf4de87	-0.029891266
227	0xbd437638	-0.047720164
228	0xbd418595	-0.047246534
229	0xbb2ded42	-0.0026539122
230	0x3c078396	0.008271119
231	0xbce86c54	-0.028371967
232	0x3d15ea98	0.03660068
233	0x3c7e481d	0.015520123
234	0xbd014f60	-0.03156984
235	0xbd2c0d0e	-0.042004637
236	0xbcaa7973	-0.020809865
237	0x3b06fb62	0.0020596613
238	0xbc4cc4ab	-0.012498061
239	0xbc7e6035	-0.015525867
240	0x3c0729a8	0.008249678
241	0xbc8a5813	-0.0168877
242	0xbcc18671	-0.023623677
243	0xbca385e4	-0.019961305
244	0x3cf0547e	0.029337164
245	0x3d1e15b1	0.038594905
246	0xbca3430f	-0.019929437
247	0xbd54ca8f	-0.051950987
248	0x3cc7ed66	0.024405193
249	0x3aa5f1aa	0.0012660522
250	0x3cafbedb	0.021453312
251	0x3c2fe5d0	0.010735944
252	0x39f75878	0.00047177426
253	0xbba93763	-0.0051640733
254	0xbd24ef2b	-0.04026715
255	0x3c974644	0.018466122

fc1.bias f4 [256]
0	0xbc9dd75a	-0.019267727
1	0x3d4901dc	0.04907404
2	0xbd08d28c	-0.03340392
3	0x3d83d7b9	0.0643763
4	0xbca5e149	-0.020249026
5	0x3cc44146	0.023956906
6	0x3b83e975	0.004025633
7	0x3d9032db	0.0704095
8	0xbc136f82	-0.0089987535
9	0xbc5136b0	-0.012769386
10	0xbc552809	-0.013010033
11	0xbbaf313c	-0.0053464454
12	0xbd171edb	-0.03689466
13	0xbd218477	-0.03943297
14	0x3c256721	0.010095389
15	0x3d52cc55	0.051464397
16	0x3d0d65a0	0.034520745
17	0x3d3ff85a	0.046867706
18	0xbc800e05	-0.015631685
19	0xbd3de898	-0.046364397
20	0x3d4aeb86	0.04954102
21	0xba6a3c9f	-0.0008935425
22	0x3d7d5313	0.061846804
23	0xbd2b877f	-0.041877266
24	0x3cce7692	0.025203023
25	0xbbafb11c	-0.0053616893
26	0x3ccd5216	0.025063556
27	0xbd04214d	-0.03225832
28	0x3d95a7b5	0.07307378
29	0x3ce43e16	0.027861636
30	0x3c27cb73	0.010241377
31	0xbbc41381	-0.0059837704
32	0xbd46ed07	-0.04856589
33	0x3d084a51	0.033274
34	0x3d0f0b13	0.03492267
35	0xbce6d85f	-0.028179346
36	0x3d42d7d0	0.047569096
37	0xbd2f8cd3	-0.04285891
38	0xbd0ce545	-0.034398336
39	0x3c0cfda7	0.008605397
40	0xbd079a65	-0.033106226
41	0x3acd9b53	0.0015686549
42	0x3d85575a	0.065108016
43	0x3d7c80c8	0.061646253
44	0xbcaf9200	-0.021431923
45	0x3c84c928	0.0162092
46	0x3d7e753e	0.06212353
47	0xbccf1ffa	-0.025283802
48	0xbd01c47c	-0.031681523
49	0x3d6554dd	0.055989135
50	0x3ca8c47a	0.0206015
51	0x3d8edf4e	0.06976186
52	0x3c93668e	0.017993238
53	0xbcba357e	-0.022730585
54	0xbccfd37e	-0.025369402
55	0xbcc10871	-0.023563595
56	0x3d0574aa	0.032581963
57	0x3d073a54	0.03301461
58	0xbc0e27e1	-0.0086765
59	0x3d1be04f	0.038055714
60	0xbd81da02	-0.0634041
61	0xbd3a8835	-0.045540053
62	0xbd3724e0	-0.0447129
63	0xbc5937ac	-0.013257902
64	0x3cc33d70	0.023833007
65	0xbd33d690	-0.043905795
66	0xbb780f68	-0.003785098
67	0x3d33a7b0	0.04386109
68	0x3ab48dd4	0.0013775178
69	0x3d089519	0.033345316
70	0xbb86b110	-0.004110463
71	0xbd3946b8	-0.04523346
72	0xbc6656f8	-0.014058821
73	0x3d0c7ff5	0.034301717
74	0xbd2bfe55	-0.041990597
75	0x3d6a53fa	0.057208993
76	0x3d336292	0.043795176
77	0x3d0b07dd	0.033943046
78	0x3ca80deb	0.02051445
79	0x3cdd4ced	0.02701422
80	0xbdb96304	-0.09052089
81	0xbbb6e137	-0.005581047
82	0xbce8aa21	-0.028401436
83	0xbcad8a49	-0.021184104
84	0x3d47bbbd	0.048763026
85	0x3c938ed4	0.018012442
86	0xbd731541	-0.05934644
87	0x3c9cc504	0.019136913
88	0x3b892e79	0.004186448
89	0x3b05e1c8	0.0020428766
90	0xbd32fa26	-0.04369559
91	0x3ca47fce	0.020080473
92	0xbc0b2ecd	-0.008495045
93	0x3c93c071	0.0180361
94	0xbb8b1918	-0.004244935
95	0x3c197455	0.009366115
96	0xbce4e0a4	-0.027939148
97	0xbc0dcf75	-0.008655419
98	0x3d60c892	0.05487878
99	0xbd1440db	-0.036194663
100	0xbd0bfdfd	-0.03417777
101	0xbca4ef64	-0.020133682
102	0x3d46405d	0.048401225
103	0x3d12655e	0.035741203
104	0x3d022db9	0.031781886
105	0xbcd2691d	-0.025684888
106	0x3c949832	0.018138979
107	0x3d19e554	0.03757222
108	0xbbc5a534	-0.0060316566
109	0xbd31c6b3	-0.043402385
110	0xbd149020	-0.03627026
111	0xbd5bb534	-0.053639606
112	0x3cc87a66	0.024472427
113	0x3c9de6e5	0.019275138
114	0x3d8d88a9	0.069108315
115	0x3a9f11fb	0.0012136096
116	0xbd1653e0	-0.036701083
117	0xbd3482a5	-0.044069905
118	0xbd2b5c6a	-0.04183618
119	0xbd40dcb4	-0.04708548
120	0xbd14730a	-0.036242522
121	0xbcd3b1f4	-0.02584169
122	0x3cb9ca9a	0.022679616
123	0xbd29d094	-0.04145868
124	0xbcbbf9bc	-0.022946231
125	0x3c79e031	0.015251205
126	0x3d1565b5	0.03647395
127	0xbd820c72	-0.0635003
128	0xbae682e5	-0.0017586617
129	0x3d082f8c	0.03324847
130	0xbda28821	-0.07936121
131	0xbd1da8c2	-0.038491018
132	0xbb3865ff	-0.0028136966
133	0xbca31de0	-0.019911706
134	0x3da23bba	0.07921548
135	0xbd22a446	-0.039707445
136	0x3d711fd9	0.058868263
137	0xbb41a84b	-0.0029549773
138	0xbc805a33	-0.01566801
139	0xbc8bacd4	-0.017050184
140	0x3d55db45	0.052211065
141	0x3baf36b2	0.0053470964
142	0xbd5202da	-0.05127225
143	0xbb22e9d9	-0.0024858622
144	0xbc90043a	-0.01758014
145	0x3cbf4449	0.02334799
146	0xbccca993	-0.024983203
147	0x3d8f78fe	0.07005499
148	0xbd4f5eb4	-0.050627425
149	0xba9b8a49	-0.0011866774
150	0xbd155ff9	-0.03646848
151	0xbcaadb16	-0.020856421
152	0x3d1860b1	0.037201587
153	0x3d45db9a	0.04830513
154	0x3d3e4ad8	0.046458095
155	0x3c93db6b	0.018048963
156	0x3ca07eb0	0.01959166
157	0x3cff8b3f	0.031194327
158	0x3bdaae63	0.0066736205
159	0x3d5e26b6	0.054236136
160	0x3d909a10	0.07060635
161	0xbcc5a44e	-0.024126198
162	0xbc8909a6	-0.016728234
163	0xbd839d05	-0.064264335
164	0xbd04f3df	-0.032459136
165	0x3c8bf7cc	0.017085932
166	0x3d844a01	0.064594276
167	0x3cd6c465	0.026216695
168	0x3d3c858d	0.0460258
169	0xbd84f2b5	-0.06491605
170	0x3a0d4f16	0.0005390508
171	0xbb762f45	-0.0037564796
172	0xb930f1ca	-0.00016874741
173	0xbd46e53e	-0.048558466
174	0x3b757b15	0.0037457396
175	0x3d071299	0.03297672
176	0x3d774810	0.06037146
177	0xbc25bc8a	-0.010115752
178	0x3d45c734	0.048285678
179	0xbd034232	-0.03204555
180	0x3a890fd3	0.0010456986
181	0xbc9a7527	-0.01885469
182	0x3cae003a	0.021240342
183	0xbd398c40	-0.04529977
184	0x3d3f991a	0.04677687
185	0xb4f89ac3	-4.6306204e-07
186	0x3b01462a	0.001972566
187	0xbd377b6e	-0.044795446
188	0xbcd9cd2c	-0.026587091
189	0xbd2473d1	-0.040149514
190	0xbd14b56d	-0.036305834
191	0xbd3df293	-0.046373915
192	0x3cb9c608	0.022677436
193	0xbcb3ecf6	-0.021963578
194	0x3d3ed3ed	0.046588827
195	0xbd8b8953	-0.06813302
196	0xbb947885	-0.0045309686
197	0x3cada558	0.021197006
198	0xbd2fe639	-0.042944167
199	0x3c9a544c	0.018839024
200	0xbda89c02	-0.08232881
201	0xbd6952d5	-0.05696376
202	0x3baefeb2	0.0053404206
203	0x3c4dd7b9	0.012563639
204	0x3cc2658e	0.023730066
205	0x3d62128c	0.05519347
206	0xbd0785c7	-0.033086564
207	0x3d58f706	0.052969955
208	0xbd62da79	-0.055384133
209	0x3db7d725	0.089765824
210	0x3d19a041	0.037506346
211	0xbd415c05	-0.047206897
212	0xbd43cbbd	-0.04780172
213	0xbd85a276	-0.065251276
214	0xbc84f0e6	-0.01622815
215	0x3c66b7b8	0.014081888
216	0xbd707d16	-0.05871304
217	0xbd386158	-0.04501471
218	0xbcb0116b	-0.02149268
219	0x3cc4a043	0.0240022
220	0xbc9aca2b	-0.01889523
221	0x3b678c36	0.0035331375
222	0xbd059c1e	-0.032619588
223	0x3d02e3e0	0.0319556
224	0xbbd817f3	-0.006594652
225	0x3d30841b	0.043094736
226	0x3c8f1054	0.01746384
227	0x3d83eaf6	0.064412996
228	0x3c5e7b00	0.01357913
229	0xbd23b34c	-0.039965913
230	0xbd306da1	-0.0430733
231	0xbd2b201e	-0.041778676
232	0xbb9a0150	-0.0046998635
233	0xbca324f9	-0.01991509
234	0x3bdf08b0	0.0068064556
235	0xbcc4a654	-0.024005093
236	0xbc984858	-0.018589184
237	0x3cfa81d2	0.030579481
238	0xbd212c50	-0.0393489
239	0xbb70d5f6	-0.0036748624
240	0xbb99b370	-0.00469058
241	0xbd61b4a0	-0.055103898
242	0xbc2a766d	-0.0104042115
243	0xbd199385	-0.0374942
244	0xbc8331dc	-0.016014986
245	0x3ca9dd3f	0.020735381
246	0xbcb54680	-0.022128344
247	0xbd27dd22	-0.040982373
248	0xbcb1ed82	-0.021719698
249	0x3d4d0a0b	0.050058406
250	0x3b401339	0.0029308333
251	0x3da60f63	0.081084035
252	0x3c477bfd	0.012175557
253	0xbcd63f0b	-0.026153108
254	0xbc224a06	-0.009905344
255	0x3cfe3dcf	0.031035332

fc2.weight f4 [10, 256]
0	0x3c44b1f0	0.012005314
1	0x3e3a9725	0.1822172
2	0x3c073b6a	0.0082539115
3	0xbe99fea8	-0.300771
4	0xbd0abd51	-0.033871952
5	0x3e2aa7ac	0.16665524
6	0x3e517715	0.20455582
7	0x3ddb04ef	0.106943004
8	0x3b90f92e	0.004424236
9	0x3e322211	0.17395808
10	0xbee43a9f	-0.44575974
11	0xbcce064c	-0.025149487
12	0xbcf7ca48	-0.030247822
13	0xbda4ce1a	-0.08047123
14	0xba2eb5aa	-0.00066646433
15	0xbd73bd9d	-0.059507
16	0xbdb634c4	-0.08896783
17	0x3ded06a6	0.11573534
18	0xbd3ab70b	-0.04558472
19	0x3c9bf1c6	0.019036185
20	0xbe96a600	-0.29423523
21	0x3c17c95f	0.009264319
22	0x3cd53d1b	0.026030114
23	0xbc21fd8b	-0.0098871095
24	0x3dfd9f8c	0.12383947
25	0x3e14d105	0.1453286
26	0x3de0dfb1	0.10980166
27	0x3d058fa2	0.032607682
28	0x3d89ce39	0.06728787
29	0xbdfb2f05	-0.12264828
30	0x3cd0ce96	0.025489133
31	0xbd5f759a	-0.054555513
32	0xbdba19a3	-0.09086921
33	0x394e0c15	0.00019650192
34	0x3e079e76	0.13244042
35	0x3dc2df84	0.095152885
36	0x3df785a0	0.12086034
37	0xbc380667	-0.011231995
38	0x3caf8345	0.021424899
39	0x3de190e1	0.110139616
40	0x3b976bc7	0.0046210024
41	0x3d095f7a	0.03353832
42	0xbad0e0ad	-0.0015936099
43	0xbe65b5e9	-0.22432674
44	0xbc7a2e82	-0.015269877
45	0xba3e9e89	-0.00072715484
46	0xbe71e4fd	-0.23622508
47	0x3c73ccc1	0.01488036
48	0x3d3c814a	0.046021737
49	0xbd8e4ef6	-0.06948654
50	0x3d9e9f72	0.077452555
51	0xbe95b0da	-0.2923649
52	0xbd26e5f5	-0.040746648
53	0x3de7efb2	0.11325015
54	0x3ce01542	0.027353887
55	0xbdbe8726	-0.09303121
56	0xbe492f44	-0.19646937
57	0x3cd13260	0.025536716
58	0x3e153117	0.14569508
59	0xbed4ac88	-0.4153788
60	0xbe75c597	-0.24001156
61	0x3e0dac8f	0.13835357
62	0x3c5a9857	0.013341985
63	0x39a555b1	0.00031535098
64	0x3c900b20	0.01758343
65	0xbd4e0dff	-0.050306316
66	0xbc14dbc1	-0.009085597
67	0xbe8375eb	-0.25675902
68	0x3b3882d2	0.0028154147
69	0xbe1fa1ca	-0.15589061
70	0x3e53ad76	0.20671639
71	0x3d0f38da	0.034966327
72	0xbc2f5745	-0.010701959
73	0xbed0cd87	-0.40781805
74	0xbc5c7d8e	-0.013457669
75	0xbb697bf2	-0.0035626856
76	0x3cb8fbac	0.022580944
77	0x3e727561	0.23677589
78	0xbb217a7a	-0.0024639652
79	0xbe364801	-0.17800905
80	0xbda3263d	-0.07966278
81	0x3d59ef3f	0.05320668
82	0x3d8d2135	0.06891099
83	0x3e2a3f99	0.16625823
84	0x3e152d82	0.14568141
85	0x3e4ba279	0.19886197
86	0xbcbecfbc	-0.023292415
87	0x3dca5dcc	0.098811716
88	0xbdf26308	-0.11835295
89	0x3d3c8957	0.046029415
90	0xbbf1adb0	-0.0073754415
91	0x3dfdcbdd	0.123923995
92	0x3e7cc86e	0.24685833
93	0xbc36e2fe	-0.011162518
94	0xbb28fa97	-0.0025784129
95	0xbd1075b8	-0.035268515
96	0x3bceb293	0.006307909
97	0x3cb884a2	0.022524182
98	0xbef4016d	-0.47657338
99	0x3d129e70	0.03579563
100	0x3c9fd47f	0.019510506
101	0x3d33d443	0.0439036
102	0x3e65d72d	0.22445364
103	0x3e10f129	0.14154495
104	0xbe37b9da	-0.1794199
105	0xbb80fa59	-0.0039360938
106	0xbe6b72ee	-0.22993061
107	0x3e19bba6	0.15012988
108	0xbd5f5d22	-0.054532178
109	0x3e3968c5	0.18106373
110	0x38fe2443	0.00012118418
111	0x3e4eaded	0.20183535
112	0xbe6902ec	-0.22755021
113	0x3dec3bb0	0.11534822
114	0xbe030658	-0.12795389
115	0x3d87c440	0.066292286
116	0xbd3bdd8f	-0.04586559
117	0xbd44c90e	-0.048043303
118	0xbbb1bcc5	-0.0054241144
119	0x3d57eddd	0.05271708
120	0xbccbd5d8	-0.024882242
121	0xbd324908	-0.04352668
122	0xbcfb3b8b	-0.03066804
123	0x3c52f8fd	0.012876746
124	0x3d2200f4	0.03955169
125	0xbd76f16b	-0.060288828
126	0xbeacd49e	-0.33755964
127	0xbdf9a818	-0.121902645
128	0xbdb6cdc8	-0.089259684
129	0xbd0a6e33	-0.0337965
130	0xbe86e2a6	-0.26344794
131	0x3c8b782d	0.017025078
132	0x3e6b49e9	0.22977413
133	0x3e351409	0.17683424
134	0xbe6c5d1b	-0.23082392
135	0xbc974d95	-0.018469611
136	0xbe4ac432	-0.19801405
137	0xbd550b8a	-0.052012958
138	0xbeaa948b	-0.33316454
139	0xbc541a30	-0.012945697
140	0xbe9517d6	-0.29119748
141	0xbd4d4ff3	-0.050125074
142	0xbd1cf34f	-0.038317975
143	0xbe1f27ee	-0.15542576
144	0xbebd8b00	-0.3702011
145	0xbb3d2b5e	-0.002886496
146	0xbe30d4f0	-0.17268729
147	0xbe8e6e05	-0.27818313
148	0x3d52e014	0.05148323
149	0x3d981ac5	0.07426981
150	0xbd522396	-0.05130347
151	0x3d7e9654	0.062155083
152	0x3dfaf076	0.122528955
153	0xbe8ad038	-0.27111983
154	0xbe99fd35	-0.30075994
155	0x3d07fbf4	0.033199266
156	0x3e1b6ddd	0.15178628
157	0x3e6ff4ce	0.2343323
158	0x3d3ec2a6	0.04657235
159	0x3e1959ec	0.14975709
160	0xbdcd8da7	-0.10036784
161	0x3cc2a925	0.023762295
162	0xbeb8c65c	-0.36088836
163	0x3d773978	0.06035754
164	0xbd0cbf02	-0.034361847
165	0xbe156b21	-0.14591648
166	0x3dcf0123	0.10107639
167	0x3db9ce2c	0.09072527
168	0xbebed02f	-0.37268206
169	0xbd79a107	-0.060944583
170	0x3c019ef5	0.0079114335
171	0xbdd2641c	-0.102730006
172	0x3d77098b	0.060311835
173	0x3cc127c0	0.023578525
174	0xbcee6d01	-0.029104711
175	0xbc03fef4	-0.008056391
176	0xbec609ba	-0.38679296
177	0x3e0d393e	0.13791367
178	0xbe28750e	-0.16450903
179	0xbbedb197	-0.0072538364
180	0xbe157fe6	-0.1459957
181	0xba449d3f	-0.0007500238
182	0xbd11cb97	-0.03559455
183	0xbc8815e7	-0.016612006
184	0xbea90e31	-0.3301864
185	0x3e03de62	0.12877801
186	0xbd122e22	-0.035688527
187	0xbc6cf5f7	-0.014462939
188	0xbd5e3056	-0.054245315
189	0xbc9ecc95	-0.019384662
190	0x3b0263fe	0.0019896026
191	0x3cc47579	0.023981797
192	0x3c5111d5	0.012760599
193	0x3c2c9fda	0.010536158
194	0x3e00b7cd	0.12570114
195	0xbc1a6dce	-0.009425594
196	0x3da798bc	0.08183429
197	0xbce185e9	-0.027529674
198	0xbd59e458	-0.05319628
199	0xbd39c5b3	-0.045354556
200	0x3d2feea0	0.04295218
201	0x3c4aec57	0.012385449
202	0xbca405ed	-0.020022357
203	0x3d1c3aea	0.038142122
204	0xbe309431	-0.1724403
205	0xbe091b19	-0.13389243
206	0xbcc0a3b5	-0.023515562
207	0xbe7914cb	-0.24324338
208	0xbc9b361a	-0.018946696
209	0xbeb052bc	-0.3443812
210	0xbe32be11	-0.17455317
211	0xbc8b935d	-0.017038042
212	0x3df04ba2	0.11733176
213	0xbd9e39d9	-0.07725877
214	0xbcf07b27	-0.029355599
215	0xbe894f80	-0.26818466
216	0xbd75b958	-0.05999121
217	0x3d8f5b77	0.069998674
218	0x3d076fb1	0.0330655
219	0xbe8a107e	-0.26965708
220	0x3cc54117	0.024078889
221	0xbe19fc00	-0.15037537
222	0x3cf913c7	0.030404938
223	0x3e367dfa	0.17821494
224	0xbc6ac2fe	-0.014328716
225	0xbe2d1e30	-0.16906047
226	0x3e328454	0.17433292
227	0x3d7ee090	0.06222588
228	0xbe87210e	-0.26392406
229	0x3aa8f304	0.0012889807
230	0xbd019e14	-0.031644896
231	0xbd3a937b	-0.045550805
232	0xbeab49f9	-0.33454874
233	0xbd2fca5d	-0.042917598
234	0xbc99d75e	-0.018779453
235	0x3bcac3e4	0.0061879028
236	0xbd337f28	-0.043822438
237	0x3d172661	0.036901835
238	0xbc03a212	-0.008034246
239	0x3c805196	0.015663903
240	0xbd4ddb54	-0.050257996
241	0x3e0886be	0.1333265
242	0x3ccc0d18	0.024908587
243	0xbd870741	-0.065931804
244	0x3e486ea7	0.1957346
245	0x3c0d800c	0.008636486
246	0x3d5ce39f	0.053928014
247	0xbe2bf4b2	-0.16792563
248	0xbd43b266	-0.047777556
249	0xbdc04a00	-0.093891144
250	0xbcb549cb	-0.022129914
251	0xbea121e2	-0.31471163
252	0xbd0575d1	-0.03258306
253	0xbc8b80d1	-0.017029198
254	0x3d08a3c2	0.033359297
255	0x3e1fb1bb	0.15595143

fc2.bias f4 [10]
0	0x3e078d1c	0.13237423
1	0x3e07197e	0.13193318
2	0xbd4fba53	-0.050714802
3	0x3d3077b6	0.043082915
4	0xbc013730	-0.007886693
5	0x3d0c4907	0.03424933
6	0xbd52870b	-0.05139832
7	0x3d80073a	0.06251378
8	0x3d913441	0.07090045
9	0xbd6f8937	-0.058480468
